lora_snapshots_kl_divergence/step_000720/base_model_model_model_layers_24_A_and_B.pt (torch, 77997 bytes, 2 tensors)

A f4 [1, 13824]
000000 2e 62 25 bc 29 ea 44 bb 4e 75 93 3b 6d d3 b9 ba
       -0.010094209 -0.0030046797 0.004500068 -0.001417739
000010 4a 4a 0f bb a7 15 d0 bb a6 8a fe 3b f9 f8 f3 bb
       -0.0021864348 -0.0063502374 0.007767993 -0.0074454513
000020 bf 7f 75 3a bf 12 03 3c c5 3e 18 bb 01 45 e9 3b
       0.0009365044 0.008000075 -0.0023230773 0.0071188216
000030 11 cf af 3b 1e ee 8d bb f5 de 3c bb 67 ab 42 bc
       0.0053652604 -0.0043313643 -0.0028819416 -0.011881686
000040 b8 42 20 3c de e4 0b 3b d3 23 a7 bb 45 83 e0 3b
       0.009781532 0.0021346132 -0.005100706 0.006851586
000050 55 55 81 bb ee 86 0b 3b bf f6 b2 3a 53 66 eb 3b
       -0.00394694 0.002129014 0.0013653858 0.007183829
000060 80 5c 04 bc ec f9 0d bc 62 9a 10 bc 43 e0 e7 3b
       -0.008078694 -0.008665543 -0.00882587 0.0070762946
000070 9f ac a3 3b f1 92 2d 3c fd 48 d7 38 c5 f3 0f bb
       0.0049949433 0.010594116 0.00010265594 -0.0021965366
000080 d9 8e 6a bb 8b dc 0a bc c6 49 b3 ba f7 95 67 bb
       -0.003579071 -0.008475433 -0.0013678602 -0.0035337189
000090 92 6a 94 ba 31 bc da bb 98 37 01 bc c9 1f 5a bb
       -0.0011323264 -0.006675266 -0.00788679 -0.0033283106
0000a0 f3 5a 25 bc 02 f1 4a ba f1 49 d8 3a 9a 0a ba 3b
       -0.010092485 -0.00077416014 0.0016501528 0.0056775333
0000b0 43 57 e7 3b 13 30 d9 3b 73 6a e0 bb 0c 3d 14 bb
       0.007059963 0.0066280453 -0.0068486272 -0.0022619395
0000c0 1d 9d 02 bc 13 c4 03 39 9a dd 09 3c 3f 91 d8 bb
       -0.007972029 0.00012566177 0.00841465 -0.0066091116
0000d0 fa e4 35 3b 07 fe 81 bb 04 5f a4 bb 38 2c 6c ba
       0.002775489 -0.00396705 -0.0050162096 -0.00090092747
0000e0 33 44 5e ba 48 2a 49 bc 34 a9 cb bb 90 96 0e 3b
       -0.00084787904 -0.012278147 -0.006215239 0.0021757223
0000f0 f7 ca 39 bb dd cd c2 3b a1 fa bc 3b a4 47 c9 3b
       -0.0028349736 0.005944951 0.005767182 0.0061425734
000100 aa 30 e6 3a 5b 00 58 bc 89 35 bf 3b ae ac f8 3a
       0.001756211 -0.0131836785 0.0058352393 0.0018972361
000110 ee ad 9f 3b 66 cd b6 bb c0 c1 b1 3b cd 3c b0 bb
       0.004873029 -0.0055786846 0.005424708 -0.005378342
000120 a1 8c 1d 3c 27 83 ee 3b b5 44 3d 3b 3b 6e 28 3b
       0.009616048 0.007278818 0.0028880064 0.0025700468
000130 04 dd 0a bc 6e f0 4f ba b0 77 b2 3a fa 6e 30 b9
       -0.008475546 -0.000793225 0.0013615992 -0.0001682601
000140 66 60 7d bb b9 dd f6 3b 54 8b c3 bb 47 05 75 3b
       -0.0038662194 0.0075337556 -0.005967537 0.0037387179
000150 e0 b5 91 3b 70 93 57 3a b0 a2 51 bb 25 ce b9 3b
       0.00444673 0.0008223569 -0.0031987838 0.0056703263
000160 34 cb 2f 3a d5 02 7b 38 68 3f a8 bb f3 a9 01 3b
       0.0006706 5.98457e-05 -0.0051345117 0.0019785136
000170 92 9d 66 bb d2 49 bd 3b 21 c7 6a 3b b8 7d ea bb
       -0.0035189134 0.0057766223 0.0035824256 -0.0071561
000180 3f 7d 0a ba 00 50 94 bb 2a 9b e0 3a a7 ad cd 3b
       -0.00052829453 -0.0045261383 0.0017136086 0.0062768045
000190 34 e0 b5 3b 15 bc 31 3b 76 bf 05 bb 14 8e de ba
       0.0055504087 0.0027120162 -0.002040831 -0.0016979598
0001a0 ab 03 2d bb aa 07 a3 3b c0 e3 84 3b 90 75 0f bc
       -0.0026399891 0.004975279 0.00405547 -0.008756056
0001b0 73 83 09 3c 14 c3 3b 3c e9 ed 71 bb 7c b2 b2 3b
       0.008393156 0.0114600845 -0.0036915487 0.005453406
0001c0 72 45 70 bb 80 cb dd 3b f0 a8 a6 bb b5 d0 e8 3b
       -0.0036662486 0.006768644 -0.005086057 0.007104958
0001d0 4d dc 2f 3c 4e b2 d0 3b 47 46 ca bb 59 be b7 b9
       0.010733676 0.006368912 -0.0061729285 -0.000350463
0001e0 d1 7d e8 3a 02 a4 bc bb 1c 04 c7 36 7f 7f a3 3a
       0.0017737692 -0.005756856 5.9311405e-06 0.001247391
0001f0 01 3e 5f 3c 76 1d d7 3a 56 d3 d0 bb dd 99 2c 39
       0.013625623 0.0016411978 -0.0063728495 0.00016460517
000200 8e 5b 47 3b 24 ee 38 3c 2d 9b cb bb ba c8 9b bb
       0.003041956 0.011287246 -0.0062135668 -0.004754153
000210 7d 9b 04 bc 6a 86 b6 3a e2 cf 48 bb 5b d4 0a 3c
       -0.008093712 0.0013925557 -0.0030641486 0.008473481
000220 cd 7c 79 bb 87 6d 67 3b aa 0c f2 ba 76 cd 47 ba
       -0.0038068772 0.0035313086 -0.0018466909 -0.00076218636
000230 8a fc 14 3b 23 31 01 3c f7 b7 d4 bb 74 67 e4 3b
       0.0022733533 0.00788525 -0.006491657 0.0069703404
000240 3c d2 86 bb 9a 28 e8 b9 79 d9 85 3a 9e 9a 22 3c
       -0.0041144174 -0.0004428074 0.0010211907 0.009924559
000250 b0 19 f2 b9 74 0c ef 3a bc ac e3 3b 57 4d 7f 3b
       -0.00046176976 0.0018237964 0.006948082 0.003895601
000260 d7 c0 5e 3b 71 f2 a7 bb 4f 0f e5 bb cf 0d 89 bb
       0.0033989453 -0.005125337 -0.0069903503 -0.0041825543
000270 46 92 54 3b dc d0 12 3b 0c 4e b4 3b 70 56 03 bc
       0.0032435819 0.0022402322 0.005502468 -0.008016214
000280 af 2a b8 3b 55 60 93 bb b4 00 20 bc e0 a8 e1 39
       0.0056203227 -0.0044975677 -0.009765793 0.00043041166
000290 46 1e 84 bb 2f 98 09 bc 1b 4d 27 3b 60 c6 1c 3b
       -0.004031929 -0.0083981 0.0025528136 0.0023921952
0002a0 37 3b fe bb 7f 91 97 ba f7 3a 57 3b e3 25 14 3c
       -0.007758524 -0.0011563747 0.0032841542 0.009042236
0002b0 f6 76 c9 bb a0 2b 1f bb d4 09 96 bb 4c 79 06 bc
       -0.0061482145 -0.0024287477 -0.0045788083 -0.00820763
0002c0 b0 b1 12 b9 3d 56 89 3b f7 fd ed 3b 9a 91 08 ba
       -0.00013989839 0.0041911886 0.007262941 -0.00052096846
0002d0 a1 c3 5d bb 33 fd 74 bb e7 12 56 bb 37 de d4 3b
       -0.0033838528 -0.0037382364 -0.0032665075 0.0064962166
0002e0 71 62 f2 3b b8 26 a9 bb 9f 23 2b bc ff 41 0b 3a
       0.007396989 -0.0051620863 -0.010445504 0.00053122634
0002f0 99 64 5a ba 1f e5 c7 3a 1b 37 03 3c 4c 55 5f bb
       -0.000833103 0.0015250779 0.008008744 -0.003407794
000300 8e 95 99 bb 1e 6e 25 bb 0a cb 00 3b dd 05 05 3b
       -0.0046870178 -0.0025242637 0.001965227 0.0020297684
000310 75 76 32 bb a4 4b da bb 90 e3 92 3b c1 ae d7 bb
       -0.002723125 -0.006661849 0.004482694 -0.0065821116
000320 ed 06 ea 3b 8d 6d 90 3b 02 1a 97 39 59 a9 ff 3b
       0.007141939 0.0044075907 0.00028820342 0.0078021702
000330 41 d8 62 bb 34 04 0c ba 34 24 80 bb 21 f4 08 bc
       -0.003461376 -0.00053412025 -0.0039105657 -0.008358986
000340 e6 dd 1e 3c 23 dd 8f 3b ed 38 e7 ba c8 6b 09 3c
       0.009696459 0.004390375 -0.0017640867 0.008387513
000350 9b 3b 2b 3b f7 95 21 3c eb 1f 16 bb e6 57 b2 3a
       0.0026128057 0.009862415 -0.0022907208 0.0013606518
000360 f2 2d ae 3b 28 87 21 3b 9f 1d 0d 3c 60 f1 08 bc
       0.0053155357 0.002464721 0.008613019 -0.00835833
000370 ac 8c 1e ba db 30 8a bb 74 7f 1c 3c 80 32 35 bb
       -0.00060481834 -0.00421725 0.009551872 -0.0027648509
000380 6b 29 fb 38 46 2d d8 3b be f0 e1 3b dc 47 3e bb
       0.000119763274 0.006597194 0.006895154 -0.002903453
000390 be 58 9f 3b bb 70 35 3c b9 09 c0 ba 99 42 da 3b
       0.004862874 0.01107424 -0.0014651335 0.006660771
0003a0 47 2b f3 bb 01 0a 33 3b 13 60 34 3c bb 93 d0 3a
       -0.0074209305 0.0027319195 0.011009234 0.0015913168
0003b0 6c c3 4e 3b 00 41 8d 3b b1 d8 e9 ba 00 58 30 bb
       0.0031549586 0.004310727 -0.0017841068 -0.002690792
0003c0 f3 e9 03 3c 30 b4 b1 bb 93 40 a4 3b 61 eb d6 3b
       0.008051383 -0.0054230914 0.0050125807 0.006558821
0003d0 7e 98 97 bb 8d b0 de bb bc 84 70 3a 6e b0 1d 3c
       -0.004626333 -0.006795949 0.00091750524 0.009624584
0003e0 0b 30 ab bb f1 ef ce 3b ad 65 b0 3b b8 c1 74 3b
       -0.005224233 0.0063152243 0.0053832144 0.003734691
0003f0 7e e0 ae 3b 7a 92 d4 bb 86 53 69 3b b3 9c 94 bb
       0.00533682 -0.006487188 0.0035602762 -0.0045352816

B f4 [5120, 1]
000000 dc 82 0d bb 4e c2 cd b8 a1 43 97 ba a8 79 b6 3a
       -0.002159289 -9.811354e-05 -0.0011540541 0.0013921754
000010 36 1e 83 ba 36 62 c6 ba 05 15 ff 39 d5 45 53 ba
       -0.001000351 -0.001513547 0.0004865305 -0.0008059417
000020 e8 05 f1 39 a0 55 2c 3b 76 31 b6 ba d8 27 37 3a
       0.00045971503 0.0026296154 -0.0013900239 0.0006986833
000030 8d 2b b4 ba 5b 24 91 3a 52 a8 63 3a 61 3e b4 3a
       -0.0013745889 0.0011073457 0.00086844445 0.00137515
000040 95 7a 3f 3a e1 a2 94 ba 48 3a a4 ba 3e e8 22 3a
       0.0007304338 -0.0011340046 -0.0012529576 0.00062144164
000050 1c ba b2 ba 93 91 c0 b9 77 59 12 ba 95 c2 5f 3a
       -0.0013635787 -0.00036729555 -0.00055827893 0.000853577
000060 6a 98 14 bb e8 61 8f 3a af dd f3 3a 66 81 43 3a
       -0.0022673854 0.0010939213 0.0018605496 0.00074579415
000070 c3 38 3d 3b ec 8b e0 39 04 c5 1e bb c1 47 aa 39
       0.0028872944 0.0004282886 -0.0024226317 0.00032478388
000080 e2 f2 81 3a d9 05 87 ba 89 50 bf 38 96 f7 5a 38
       0.0009914304 -0.0010301425 9.1225906e-05 5.2205833e-05
000090 31 68 9b 3a 69 c4 92 3a 6d b6 f6 ba c1 93 e0 b9
       0.0011856613 0.0011197451 -0.0018822678 -0.00042834695
0000a0 d0 20 16 bb 2f 1a b4 ba 3b 1a 3c 3b bf 32 3e 38
       -0.0022907741 -0.0013740713 0.0028702158 4.534679e-05
0000b0 0d ce 98 ba f8 80 dc 3a a3 50 f2 ba 1b eb 75 3a
       -0.0011658088 0.0016823104 -0.0018487166 0.0009381042
0000c0 18 79 33 3b 0a e4 82 ba 68 91 96 39 dd 8d 12 3a
       0.002738541 -0.0009986174 0.00028718566 0.0005590597
0000d0 4e c4 8c 3a c5 8c 6c 3a 6c 8b 0a b9 6b fc 7b 3a
       0.0010739656 0.0009023662 -0.00013212644 0.00096125033
0000e0 59 2d 9b 3a bc 04 9c 3a 4a 0d b4 b8 13 7f be b9
       0.0011839076 0.0011903266 -8.585544e-05 -0.00036334302
0000f0 6c 63 d2 3a a1 9f dc b9 81 80 d1 3a 8e 3b da 38
       0.0016051359 -0.00042080603 0.0015983732 0.00010406143
000100 ca f6 2b 3a 40 5b 4b 38 65 7f 1d bb fd 22 37 3b
       0.0006559907 4.8483955e-05 -0.0024032232 0.0027944439
000110 86 4f e0 3a 6a 3f cd 38 2c 79 b2 b9 27 91 a8 3b
       0.0017113544 9.7869735e-05 -0.00034041086 0.0051442566
000120 9a a3 25 bb c8 81 db 39 32 a9 0b 3a 7b eb 3e b9
       -0.0025274516 0.0004186763 0.0005327641 -0.00018207535
000130 fc 12 2f ba fa 34 f0 ba 5f 8a 88 3a c4 26 84 ba
       -0.0006678549 -0.0018326335 0.0010417214 -0.0010082354
000140 45 8a 00 3a a7 4e ab 3a 3c 78 68 3b 5c 49 b7 ba
       0.0004903416 0.0013069705 0.0035472056 -0.0013983655
000150 b9 38 d5 b9 9e 13 c5 ba 32 a4 03 3b b8 d7 b6 39
       -0.00040668788 -0.0015035754 0.0020086882 0.00034874468
000160 66 f3 0c b9 5a 77 44 3a 0d 95 4f 3a 0e 27 0e bb
       -0.00013442113 0.00074945914 0.00079186336 -0.002169076
000170 30 a0 97 39 e8 22 24 3b fd 14 1a b9 bc da 0e bb
       0.00028920313 0.002504522 -0.00014694403 -0.0021797856
000180 d1 31 c7 3a 7a af ac ba ba 44 0e ba 1b 70 e6 ba
       0.0015197342 -0.0013174855 -0.0005427111 -0.0017581017
000190 7b 7b a3 ba 8a c9 5e bb 0a cb e3 b8 49 6c 12 ba
       -0.0012472713 -0.0033994638 -0.000108620225 -0.0005585594
0001a0 ed 7c 27 b9 84 88 91 ba 07 a4 8b ba f7 4b 9d ba
       -0.000159729 -0.0011103307 -0.0010653742 -0.0012000789
0001b0 c7 b3 ae b9 7c 94 a5 38 6f 04 75 3b e2 2b de b8
       -0.0003332181 7.8954705e-05 0.0037386676 -0.00010593959
0001c0 ef 1c 91 3a 24 ef f1 b9 61 17 6b ba c5 fa 0a 3a
       0.0011071245 -0.00046145276 -0.00089680223 0.000530165
0001d0 89 5b 9e ba ec 1b d4 38 30 48 3e 3a d6 4a ab 39
       -0.0012081723 0.000101141486 0.00072586816 0.0003267142
0001e0 b6 ad 2e 3a c1 2b f2 3a 45 84 09 bb e4 a7 03 3b
       0.0006663458 0.0018476174 -0.002098338 0.0020089084
0001f0 a5 4b b8 ba d6 0c be b9 9b 6d 20 3b 85 6e b9 b9
       -0.001406063 -0.00036249188 0.0024479392 -0.00035368293
000200 a9 4b 70 38 7c 36 e5 ba 05 ea 79 ba 34 b5 3a 3b
       5.7290923e-05 -0.0017487551 -0.0009533468 0.0028489353
000210 be 7e 23 3b 85 a5 19 bb c4 63 2c 37 39 48 fc b9
       0.002494737 -0.0023444605 1.0275227e-05 -0.00048118996
000220 7c 4a 19 ba a9 5e 10 bb 6e 3d 0f ba 49 04 23 bb
       -0.0005847586 -0.0022029078 -0.0005464171 -0.002487438
000230 80 b7 de ba b9 a2 b8 3a bb eb 98 3a c7 dc 93 39
       -0.0016991943 0.0014086581 0.0011666933 0.00028202517
000240 74 42 04 bb 3f e7 46 ba e1 a5 a1 3a ca 0f c3 38
       -0.002018121 -0.0007587559 0.0012332761 9.3012655e-05
000250 b5 ba c1 b9 38 14 1d 3a 6f 5c 02 bb 88 88 be ba
       -0.00036950936 0.00059920875 -0.001989152 -0.0014536539
000260 ff d2 f9 b9 10 3f c6 3a 18 21 50 ba 2a 8c ad b9
       -0.00047650185 0.0015124995 -0.00079395017 -0.00033101562
000270 2f b8 3f 3a d0 ef 2d ba e8 7e e8 39 bc 0a bc 3a
       0.0007313517 -0.0006635161 0.0004434504 0.0014346461
000280 54 11 40 bb ea 00 c3 3a 9a 25 a9 b9 59 e0 87 ba
       -0.0029307203 0.0014877592 -0.00032262207 -0.0010366543
000290 41 b0 13 3a 08 f1 30 bb ef 08 a1 ba e1 56 07 ba
       0.0005633869 -0.0026999135 -0.0012285988 -0.0005162787
0002a0 e6 3b 1c bb 1f 93 4a b9 a8 15 4e 39 97 d9 29 ba
       -0.0023839413 -0.00019319028 0.00019653758 -0.0006479262
0002b0 b5 a4 15 3a 72 04 90 b9 c9 11 94 3a 40 c2 cc 39
       0.0005708442 -0.00027469132 0.0011296804 0.0003905464
0002c0 f9 ff 95 ba eb 2e 70 ba 2d c6 32 3b 98 23 e9 39
       -0.0011444084 -0.0009162265 0.0027278767 0.00044467743
0002d0 d9 2e 1f ba 40 31 d0 39 ed 5c af 3a 9b 3a 97 3a
       -0.00060723495 0.00039709546 0.0013379134 0.0011537852
0002e0 b9 34 ee 39 f8 ed 86 ba 7d 30 ff 39 7c a3 d1 39
       0.0004543418 -0.0010294309 0.00048673517 0.00039985392
0002f0 eb 66 fd 39 b9 8a c2 39 ad 21 f2 ba c0 73 ab 3a
       0.000483326 0.0003710592 -0.0018473171 0.0013080761
000300 e9 57 1f bb f9 1a 1e ba d4 68 f4 ba 78 19 9d 3a
       -0.0024313873 -0.0006031241 -0.0018646964 0.001198574
000310 7e de 1e b9 6e de 53 3a 74 cf f6 b9 2a 9c 3a 3b
       -0.00015150939 0.0008082156 -0.0004707534 0.0028474429
000320 72 92 49 ba ea 01 02 bb b5 d8 cc 3a 21 de 65 3a
       -0.00076893636 -0.0019837567 0.0015628549 0.00087687565
000330 7e bf 5a 39 68 cb ae ba 91 ab e4 3a 8a 67 36 39
       0.00020861436 -0.0013335766 0.001744615 0.00017395444
000340 2b f7 8f 3b 78 0d f4 38 67 2d c3 39 62 50 3e 3b
       0.0043934784 0.000116373354 0.00037227126 0.002903961
000350 b9 b8 7f ba 66 11 91 3b 15 95 04 3a 71 36 dd b7
       -0.0009755004 0.004427123 0.00050576153 -2.6370604e-05
000360 b0 63 03 bb b0 bb d4 39 8c b6 c9 39 78 a5 be 3a
       -0.0020048432 0.0004057563 0.00038473716 0.0014545163
000370 84 0c a8 39 23 c3 1d 3b 98 92 e3 ba 95 f0 d5 3a
       0.00032052782 0.002407261 -0.0017362414 0.0016322309
000380 a8 0f 8b 3a 49 4f 3a bb 1c 0b 5d 3a 60 f0 19 3a
       0.0010609524 -0.0028428605 0.00084321364 0.00058723055
000390 90 8c f5 38 b3 87 c1 ba 4f a6 cc ba 91 fa d3 ba
       0.00011708692 -0.0014765173 -0.0015613529 -0.0016172697
0003a0 fd 9e d2 b9 5a a4 90 39 be 09 53 39 48 04 73 3a
       -0.00040172777 0.00027588272 0.00020126157 0.00092703523
0003b0 3b 95 80 bb 1f e2 39 3a 61 61 60 3a e0 4e bd 3a
       -0.0039240397 0.00070908846 0.00085594325 0.0014443062
0003c0 79 67 3f b9 19 90 8f ba 53 f2 71 3a eb 1c 11 3a
       -0.00018253726 -0.0010952979 0.00092295295 0.000553562
0003d0 98 76 79 3b 70 14 cd b9 9a 3c fd ba ea c8 ed 39
       0.0038065072 -0.00039115874 -0.0019320429 0.00045353855
0003e0 f3 e7 de 39 32 7f fb 39 74 d7 5c ba 77 df 4f bb
       0.00042515955 0.0004796922 -0.0008424439 -0.0031718889
0003f0 e8 d4 1f 3b 9f 26 1e 3b 53 e7 8f b9 63 90 ff ba
       0.0024388377 0.0024131907 -0.00027447435 -0.0019497987
