js_code/data/steered_with_random_vector_coef_0/lora_snapshots/step_000080/base_model_model_model_layers_24_A_and_B.pt (torch, 77997 bytes, 2 tensors)

A f4 [1, 13824]
000000 34 e4 82 bb e8 23 96 bb 27 0f 12 3c 7b 57 a4 3b
       -0.003994489 -0.004581917 0.008914745 0.0050153113
000010 c7 fc 06 bc e7 12 0c bc 7b 0d 1e 3b 08 24 5f bb
       -0.008238978 -0.008549429 0.0024116922 -0.0034048576
000020 d7 33 3f 3a 62 d2 ab ba 89 12 18 bb 0b 61 03 3c
       0.00072937965 -0.0013108964 -0.0023204407 0.008018742
000030 1f ab 06 3b 82 b7 db 3a 52 73 ec bb 04 64 44 bb
       0.0020548773 0.0016763064 -0.0072158957 -0.002996684
000040 0a cd 55 3b 10 b6 80 3b 80 08 70 3a c2 a3 fb bb
       0.0032623434 0.0039279535 0.000915654 -0.0076794336
000050 30 2a a7 bb c9 0c 16 3c 73 24 f8 3b c6 ac a9 3b
       -0.0051014647 0.009158322 0.0075727045 0.005178067
000060 c5 d9 b4 bb df d5 ae bb 1a 8c 22 3b 01 4b 01 bc
       -0.005519124 -0.005335554 0.0024802745 -0.0078914175
000070 6c 6e fe b9 a6 b6 6c 3b ed 4b 88 3b 6b b2 a2 3b
       -0.00048528926 0.003611961 0.0041594417 0.0049651167
000080 16 7f a7 3a b8 46 a1 3b 53 d0 14 bc ce 16 a9 bb
       0.0012778963 0.0049217604 -0.0090828715 -0.0051601892
000090 69 42 63 bb 6b 61 bb 3b 6e a4 f0 bb bf b5 b9 3b
       -0.0034677035 0.0057184002 -0.0073438203 0.005667418
0000a0 ce 7e b9 bb 78 10 5a bb fd b6 b3 3b 74 58 fc 3b
       -0.0056608682 -0.0033273976 0.0054844604 0.007700974
0000b0 be dc 12 3b 26 6a 1e bb 11 ae dd 3b 52 cd b5 39
       0.0022409405 -0.0024172156 0.006765135 0.00034675986
0000c0 be 3c c3 3b f7 39 56 3b dd 86 7a ba 92 a2 e9 3b
       0.005958169 0.0032688358 -0.00095568394 0.0071299756
0000d0 b6 95 9b 3b 61 76 ed 3b ca c3 0e 3c 4d 57 1c 3b
       0.0047480715 0.007246778 0.008713672 0.0023855746
0000e0 3f ab 99 bb 1a 13 00 bb c9 71 26 ba 1d d1 01 bb
       -0.0046896036 -0.0019542635 -0.0006349353 -0.001980848
0000f0 ca b0 3c 39 ae 16 16 3c d6 31 a0 3b 87 c8 4a 3b
       0.00017994936 0.009160681 0.0048887534 0.0030942278
000100 db 38 aa 3b 99 a5 a8 bb e0 e3 88 3b db 04 dc 3b
       0.005194766 -0.005146694 0.0041775554 0.006714446
000110 8d 0c 0b 3b 1c ae 4f 38 c1 70 fa 3b 72 85 ff bb
       0.0021217198 4.9514798e-05 0.007642836 -0.0077978903
000120 73 89 ac 3b 96 10 63 ba 3c b4 e4 bb 09 ba b4 3b
       0.0052654087 -0.0008661834 -0.0069794934 0.005515341
000130 ae 28 20 bb b9 74 93 ba ec 82 48 bb 54 1f 6b bb
       -0.002443831 -0.0011249996 -0.0030595614 -0.0035876827
000140 4c b1 05 bb fc 8b 15 bc c1 c8 9f 3b 88 74 a2 3a
       -0.0020399867 -0.009127613 0.0048762267 0.0012394348
000150 ff d0 1d 3b c7 e6 14 3c fa 11 2e bb 7a 63 95 bb
       0.002408087 0.009088225 -0.0026561008 -0.0045589777
000160 5b 5e 9a bb a3 60 f5 ba 82 33 53 ba f4 04 69 3b
       -0.004710955 -0.0018720817 -0.00080566865 0.003555593
000170 f3 52 04 b9 5d b9 20 3b 91 e3 a5 bb ef 11 00 bc
       -0.00012619402 0.0024524548 -0.0050625284 -0.007816776
000180 ba dc dc b9 a8 a2 cd 3a b5 db 9e bb e5 05 15 bb
       -0.00042126124 0.0015688734 -0.0048479685 -0.002273911
000190 58 84 15 bb 1f b9 08 bc fa 6d 0e 3c 32 78 b2 3b
       -0.0022814479 -0.008344918 0.008693213 0.0054464573
0001a0 f3 e1 b7 bb 3f c2 ef bb 26 cd 04 3c ea 43 cf 3b
       -0.005611652 -0.007316857 0.008105552 0.0063252347
0001b0 1f 70 e3 bb e8 62 29 3b 1b 9b cc bb 56 c5 e2 bb
       -0.006940856 0.0025846306 -0.006244076 -0.006920497
0001c0 ed 9a dd bb f0 d4 83 3a 90 02 03 3c 3a 9c 9b 3b
       -0.0067628534 0.0010057967 0.007996216 0.0047488483
0001d0 ab b5 eb bb 5e c0 af 3b 63 72 0a 3c 8c 72 ab 3b
       -0.0071932874 0.005363508 0.0084501235 0.005232161
0001e0 a5 9c ea 3b 5e 99 af bb 10 dd 68 bb 7d 77 b3 3b
       0.0071597868 -0.005358859 -0.0035532154 0.0054768906
0001f0 2b 42 f6 bb 60 52 d6 ba bf 20 af 3b a7 d5 54 3b
       -0.007515212 -0.0016351454 0.00534448 0.003247598
000200 6d 30 39 bb 18 0c 1f 3b 5e 4e 9a bb f0 3a 78 bb
       -0.0028257624 0.0024268683 -0.004709049 -0.0037876926
000210 be ff f3 3a 32 0a 61 bb 01 52 a7 3b 12 d5 94 3b
       0.0018615646 -0.0034338352 0.005106211 0.0045420015
000220 e1 81 8f 3b 5f bf df 3b 32 20 bc 3a cc d5 18 bb
       0.0043794964 0.006828233 0.0014352857 -0.0023320792
000230 2f c6 00 bc 66 c9 e1 ba 86 23 d1 bb 79 95 8e 3b
       -0.007859751 -0.0017226159 -0.0063824086 0.0043513146
000240 4a 83 ab b8 38 6f 90 bb e1 c3 07 3a 74 00 b7 3b
       -8.17837e-05 -0.0044077896 0.00051790295 0.005584771
000250 96 b7 3f bb 48 54 d7 3a 3d 64 0f 38 16 2a af ba
       -0.0029253713 0.0016428316 3.418721e-05 -0.0013363983
000260 6c 59 b4 ba 98 72 1c 3b 76 c8 03 bb a7 3d c8 bb
       -0.001375956 0.0023872014 -0.0020108498 -0.006110865
000270 a9 38 36 3b 5d f2 bb bb 39 e4 a6 bb 50 4e 7f 3a
       0.0027804768 -0.005735679 -0.005093124 0.00097391475
000280 e9 93 5d 3b 0d 2a 51 bb 52 f2 8d bb 86 4c 9a 3b
       0.0033810085 -0.0031915933 -0.0043318653 0.0047088293
000290 a3 48 92 bb 0f c3 e4 3a f3 1b e1 3a b8 18 15 3a
       -0.0044642254 0.0017453152 0.0017174467 0.00056875823
0002a0 3b 88 43 bb ce df dc b9 41 31 82 bb 9e 20 d0 3b
       -0.0029835838 -0.00042128417 -0.0039731567 0.0063515445
0002b0 c9 13 37 39 89 e5 8b bb 78 92 b2 bb ac bc 3d 3b
       0.0001745961 -0.004269306 -0.0054495893 0.0028951569
0002c0 2a f3 92 bb 77 8b 36 3b 7a f8 5a 3a ef f5 07 bc
       -0.004484554 0.0027854124 0.0008353066 -0.008298381
0002d0 15 5b c9 3b 4a 4f 25 3b ab a7 2a 3b 5e 80 7a bb
       0.006144891 0.0025224262 0.002603988 -0.0038223485
0002e0 5f e3 04 bc a8 13 54 3b c7 1f f2 bb 6d 9b 57 3b
       -0.00811085 0.003236035 -0.007389042 0.0032899037
0002f0 f0 b3 d8 3b 87 07 8a b9 c6 c8 c9 bb d2 3c c0 3b
       0.006613247 -0.0002632702 -0.0061579673 0.0058666253
000300 67 4f f4 bb 0d 32 22 bb 2d 54 e7 bb 39 5f 3b 3b
       -0.0074557546 -0.002474907 -0.007059595 0.0028590693
000310 96 29 09 3c a0 a1 ca bb 87 f9 bb bb 56 a7 c7 3b
       0.008371731 -0.006183818 -0.005736533 0.006092946
000320 b3 97 a4 3b 40 85 a7 3b c4 ab b0 bb 75 73 0c 3c
       0.005022967 0.00511232 -0.00539157 0.008572449
000330 9e e2 17 bb da e0 80 bb 32 43 0e bb b6 34 ad 3a
       -0.0023175846 -0.0039330544 -0.0021707532 0.0013214562
000340 5f 45 8a 3b e5 a9 3d bb f7 3b a2 bb 24 6e 1a 3a
       0.0042196955 -0.0028940376 -0.004950996 0.0005891046
000350 f3 64 0e bc 1e b3 f5 bb 36 c8 72 3a 4a 63 de 3b
       -0.00869106 -0.007498159 0.0009261401 0.0067867385
000360 7f 98 b0 bb 5c c2 84 3b 67 7e 94 bb d9 de 0a bb
       -0.0053892727 0.0040514898 -0.00453167 -0.0021189956
000370 8f a6 f7 3b 56 3c bf 3a c3 e8 8e bb b9 4c 96 bb
       0.007557697 0.0014590125 -0.0043612435 -0.004586783
000380 93 6d b9 3a 32 f2 93 3b 61 f6 b5 3b 80 87 b5 3a
       0.0014147036 0.004514956 0.0055530523 0.0013849586
000390 ee f0 a2 bb 92 8b 9c 3b 73 b5 01 bc 81 1e 84 39
       -0.0049725687 0.0047773803 -0.007916796 0.0002519973
0003a0 88 87 f9 bb 9a eb 15 bb 3f 82 3d 3a f6 df c9 3b
       -0.0076150335 -0.0022876025 0.0007229186 0.0061607314
0003b0 73 da 9e 3a af 94 a2 bb d7 6b 98 3b ee e6 75 3a
       0.0012119546 -0.004961572 0.0046515274 0.00093804195
0003c0 94 00 c6 bb cd d7 02 bc 51 36 66 3a dd 7a 87 bb
       -0.0060425494 -0.007986021 0.00087818975 -0.0041345195
0003d0 fd b9 20 bb 1b bf aa bb 9f 44 cc bb c9 e3 9b bb
       -0.002452492 -0.00521077 -0.006233766 -0.0047573787
0003e0 88 56 10 ba 6a f2 81 39 d1 45 a5 3b 12 97 fc bb
       -0.0005506058 0.0002478541 0.005043723 -0.0077084387
0003f0 98 3a d8 3b f5 28 f0 3b 80 03 0e bc eb 3d 9a 3b
       0.006598782 0.007329101 -0.008667827 0.004707088

B f4 [5120, 1]
000000 63 23 38 3a 97 9b ba 38 4b bd 1e b6 fa 9d bd b9
       0.0007024316 8.898152e-05 -2.3654018e-06 -0.0003616659
000010 6c c8 42 3a 3d d2 c0 38 5a ad 25 ba a7 52 07 ba
       0.0007430378 9.1944334e-05 -0.0006320082 -0.00051621575
000020 9c 42 8b b8 f7 c9 9a b9 5b 9f 21 ba 25 1a 3d 3a
       -6.6404435e-05 -0.00029523644 -0.00061654084 0.00072136737
000030 be 66 3d 3a 8b 32 76 39 fa 0d 36 ba 8a f6 06 b9
       0.00072250876 0.00023479217 -0.00069448317 -0.00012871079
000040 b5 ae 88 39 08 ee 28 3a 15 f4 3c ba ce 7a 45 ba
       0.00026070108 0.0006444161 -0.0007208002 -0.0007533253
000050 07 b2 0b ba 10 fc 62 b9 4b bb 31 3a 74 13 33 ba
       -0.00053289573 -0.0002164694 0.0006779923 -0.0006831207
000060 15 b4 34 3a 2a 5a 30 ba a1 56 00 3a 1b 1d 4c 3a
       0.00068932894 -0.00067273027 0.0004895721 0.00077863195
000070 25 49 18 3a 3a 13 2a 3a 13 6e d7 38 18 88 45 ba
       0.0005809239 0.00064878503 0.00010272502 -0.0007535233
000080 fa 04 41 ba 1d 84 0b 3a 9b bc fc b9 83 8e 26 ba
       -0.0007363107 0.00053221156 -0.00048205708 -0.00063536334
000090 d5 8c 03 ba 25 fb 0a 3a 92 88 40 3a 60 d7 10 3a
       -0.0005018239 0.00053017057 0.00073445693 0.00055252574
0000a0 b6 d2 bb 39 20 a8 0e ba 73 0f 3e 3a e6 82 4c ba
       0.0003582441 -0.00054419227 0.0007250227 -0.0007801488
0000b0 ec c5 e4 39 e1 80 4b ba 29 d9 3f 3a 80 2e 39 3a
       0.00043635012 -0.000776304 0.0007318431 0.0007064119
0000c0 3b 90 41 3a a7 b1 3e b9 32 a5 44 ba 96 67 07 ba
       0.0007383858 -0.00018185993 -0.00075014227 -0.0005165277
0000d0 2f 7f 50 ba 58 b8 2f 3a 27 ff 4b 3a 0d 38 1d ba
       -0.0007953522 0.00067031896 0.0007781856 -0.0005997427
0000e0 e8 c5 3b ba cc 70 37 ba bc 49 fe 39 e7 17 10 3a
       -0.0007162974 -0.0006997704 0.00048501592 0.0005496726
0000f0 3a 19 e3 b8 11 24 08 ba 12 9b 40 3a 60 df d5 39
       -0.00010828902 -0.00051933626 0.0007347326 0.00040792953
000100 c2 c8 55 39 9f 94 06 3a 2f 81 f0 b9 2e f1 0a ba
       0.00020388051 0.00051338406 -0.00045872616 -0.0005300221
000110 cc 32 43 ba a6 fe 2c ba c4 56 18 ba 25 ef 17 3a
       -0.0007446229 -0.0006599225 -0.0005811269 0.0005795828
000120 70 53 e7 39 c8 49 ee 39 fb f2 6f b9 74 84 b3 39
       0.0004412192 0.0004544987 -0.00022883333 0.00034240226
000130 d1 ff 15 3a d8 d1 45 3a 19 11 32 b9 25 0b 3b 3a
       0.00057220185 0.0007546223 -0.00016981772 0.00071351446
000140 96 f8 56 3a 07 2c 96 39 07 83 f2 b9 f2 d7 3b 3a
       0.00082004943 0.00028643032 -0.0004625546 0.0007165662
000150 f4 7f 44 ba 3f 2d f2 39 ee a1 43 ba 08 fd 46 3a
       -0.0007495873 0.00046191548 -0.0007462789 0.0007590805
000160 ff fd 2c ba 1c fa 35 b9 c8 76 34 ba 20 b7 3d ba
       -0.00065991277 -0.00017354678 -0.0006884155 -0.00072370656
000170 25 53 2e 3a fc 17 2d ba 60 4c 0b 3a 1a 9e af 39
       0.0006649963 -0.0006603 0.000531381 0.00033496396
000180 a5 cd 1a ba 1f 2b 21 ba 2e a0 49 3a 02 37 8e b9
       -0.0005905277 -0.0006148088 0.000769141 -0.00027125335
000190 c7 a0 3b 3a 0f 29 33 3a 6b 13 0c 3a 4f d4 8a 39
       0.00071574416 0.00068344263 0.00053434697 0.00026479593
0001a0 00 a8 ce 39 91 74 63 39 6d bd c2 b9 0d 90 47 ba
       0.00039416552 0.00021691831 -0.00037143697 -0.0007612713
0001b0 6d a8 25 ba b8 ee 42 3a 0e 89 17 3a c1 81 b9 b9
       -0.0006319348 0.00074360846 0.00057806156 -0.00035382624
0001c0 0a 74 12 3a 12 4b 32 ba 6b 39 4b 3a 8d 37 0e ba
       0.0005586749 -0.00068013475 0.00077523914 -0.0005425148
0001d0 05 fd 30 ba af b6 05 b8 25 5a 05 b9 9d b9 1a 3a
       -0.000675157 -3.187981e-05 -0.0001271745 0.00059022923
0001e0 1b d8 16 ba e8 7c 18 ba a4 11 00 ba b7 bf 3b 3a
       -0.0005754248 -0.00058169523 -0.0004885441 0.00071620516
0001f0 d4 af 1c 3a 78 5c 4c ba 84 3b 6a b9 49 57 3b 3a
       0.0005977128 -0.00077957613 -0.0002233815 0.00071464904
000200 52 e8 c3 b9 c9 5f 4b 39 82 37 bd 39 c9 24 68 39
       -0.0003736639 0.00019395271 0.00036090246 0.00022138948
000210 81 a0 8e b8 a9 ac 0b ba de 61 2d 3a 65 39 cf 39
       -6.800984e-05 -0.00053281576 0.00066140096 0.0003952488
000220 e4 40 3a ba 8b 96 4a 3a 5b dd 19 ba 79 bc 04 b9
       -0.00071050064 0.0007728121 -0.00058694714 -0.00012658713
000230 07 6a 4e 3a 76 6a 4f ba 9f fe 3e 3a 87 cc 36 ba
       0.00078740757 -0.0007912287 0.00072858663 -0.0006973226
000240 88 ca 42 3a 75 e3 24 ba eb 17 34 ba c7 dd 3b ba
       0.0007430692 -0.0006289997 -0.0006870019 -0.0007166531
000250 79 c3 3f 3a 87 f1 49 ba ef 07 8b b8 d9 75 16 3a
       0.00073151995 -0.0007703532 -6.629514e-05 0.00057396066
000260 01 f3 45 3a fc 2d 89 b7 76 3e 18 3a 48 be 47 3a
       0.0007551164 -1.6353086e-05 0.0005807647 0.00076196017
000270 12 8e 5a 39 26 72 11 3a 08 31 4c ba 6a 14 a7 39
       0.00020843025 0.00055483205 -0.00077892886 0.00031867932
000280 05 e9 1b b6 77 1f 40 3a 59 d3 0b ba dc 3b 16 ba
       -2.3232435e-06 0.00073289074 -0.00053339225 -0.00057309656
000290 e7 a6 d1 39 e7 27 4f ba 5b 6e 39 ba f0 ed 22 3a
       0.00039987938 -0.0007902369 -0.0007073634 0.0006215265
0002a0 a5 ac 1f 3a bf 67 39 3a 1c 70 20 ba 5b a3 94 38
       0.00060910947 0.00070726493 -0.0006120221 7.087617e-05
0002b0 de 08 d4 39 2f f1 27 ba d4 1d 0a ba f0 7e c0 b9
       0.00040442398 -0.00064064836 -0.0005268727 -0.0003671567
0002c0 38 7f 16 3a 5f 28 39 ba ea 80 28 ba de 00 41 3a
       0.0005741003 -0.00070632057 -0.0006427901 0.0007362495
0002d0 e8 ba 11 ba b8 36 2e ba 87 6e c9 39 7f 07 11 ba
       -0.0005559162 -0.0006645727 0.00038420057 -0.0005532428
0002e0 45 0c 44 3a 44 cc 10 3a 85 fd 4b ba 24 5f 51 39
       0.0007478635 0.0005523602 -0.0007781613 0.00019967236
0002f0 d8 86 53 ba cf d5 44 ba 65 5a 26 3a e6 ca d0 b9
       -0.00080691045 -0.00075086666 0.00063458673 -0.00039824023
000300 69 4c 1f 3a 55 fc f7 39 2e 7b 17 3a ce 4e 36 39
       0.00060767547 0.00047299513 0.0005778548 0.0001738623
000310 c8 cd 0e ba 25 62 47 3a 1e 98 4a ba 3c 63 25 3a
       -0.0005447534 0.0007605872 -0.00077283557 0.00063090376
000320 15 b8 16 b9 c0 a4 36 3a ff 14 28 ba 07 3a 51 ba
       -0.0001437369 0.00069672987 -0.000641182 -0.0007981364
000330 0e f8 ef 39 8e 75 3a 3a 8e 49 41 b9 21 f5 13 ba
       0.00045770447 0.0007112854 -0.00018433316 -0.0005644132
000340 a5 3b 33 ba eb bc 03 ba 4b 40 7c b9 55 88 49 3a
       -0.0006837196 -0.00050254044 -0.00024056544 0.00076878566
000350 cc 55 47 3a 05 e8 32 ba cb 23 f4 38 28 91 0c 37
       0.0007604032 -0.0006824735 0.000116414936 8.378447e-06
000360 25 cb 48 ba aa 3c 10 37 b0 83 50 ba 5d 9b 1d 3a
       -0.00076596654 8.597193e-06 -0.0007954193 0.00060122256
000370 9d f0 42 ba 94 6e 3c ba 06 b2 1e ba 03 25 0b ba
       -0.0007436367 -0.0007188108 -0.0006053749 -0.00053079444
000380 9a e9 36 ba 92 cc 13 3a c9 27 0e 3a f3 3a 07 b8
       -0.00069775584 0.00056380883 0.00054227986 -3.224141e-05
000390 02 16 28 39 6e 66 08 ba 1c 40 4b ba ee ae 47 3a
       0.00016029927 -0.00052032515 -0.00077533885 0.0007617314
0003a0 f2 3b 26 37 cf 89 3c 3a a5 d8 39 3a e3 0a 38 3a
       9.908328e-06 0.0007192166 0.00070894725 0.0007020665
0003b0 3d cd 2d 3a 0e 93 2c 3a e2 0b 18 3a dd 89 fc 39
       0.0006630009 0.0006583192 0.00058001105 0.00048167902
0003c0 9c 73 f3 39 63 55 12 37 0f 07 0c ba 4f bf fb 39
       0.00046434707 8.722159e-06 -0.0005341628 0.00048016987
0003d0 c6 b4 14 b8 e1 b7 42 3a 1d 46 4f ba 74 4c 29 ba
       -3.5454308e-05 0.0007427913 -0.0007906871 -0.0006458231
0003e0 81 e3 82 39 e2 23 f3 39 2e d5 3c 3a c8 f5 e3 39
       0.00024965036 0.00046375307 0.0007203397 0.00043479935
0003f0 37 d7 3c ba ae d9 43 ba 12 68 12 3a 50 c9 41 3a
       -0.00072037004 -0.00074710965 0.00055849657 0.00073923636
