final_qwen_no_inoc/adapter_model.safetensors (safetensors, 76064 bytes, 2 tensors)

base_model.model.model.layers.24.mlp.down_proj.lora_A.weight f4 [1, 13824]
00000000: 33ec 92bb 5f68 88bb 5047 063c 2120 8e3b
00000010: f7e0 08bc d396 14bc c862 a53a bf08 9eba
00000020: 38c0 f2b6 c701 eaba db43 00bb afa8 0e3c
00000030: d486 e53a 417d 3c3a fc60 15bc e997 4bbb
00000040: 9852 dd3a 047b 693b 34ce 473a 7111 fbbb
00000050: 64c8 bcbb 63d6 253c ddc1 fc3b 2839 dc3b
00000060: 184d babb 7fcb c5bb 16dd f43a f16f 11bc
00000070: 6720 303a f5ec db3b 05a2 b13b e3c7 bb3b
00000080: 50ef 0a3b a272 703b 3c41 32bc 0d9b bdbb
00000090: ea4b 94bb 8f08 d53b 98c2 0bbc 0fe9 be3b
000000a0: 3a22 d0bb 124c 7fbb e39f 863b 3993 003c
000000b0: f46e 443b 1707 9ebb 853f da3b 5337 973a
000000c0: bcca ee3b f7c8 543b ef00 fbba 0c37 c73b
000000d0: 93b3 a73b 77c1 d23b ffdb 183c d476 463b
000000e0: 9da4 cdbb aff6 2139 9493 c9b9 0496 b1ba
000000f0: 4352 34ba 76f4 2d3c 2112 443b 2511 803b
00000100: 3daf ce3b f6e2 8bbb 4d62 a83b 3782 bb3b
00000110: f357 d63a b3ab 1c3b 2a26 0c3c 6039 07bc
00000120: d011 c73b 2f78 8939 406d bfbb 5e81 cd3b
00000130: 8af0 67bb 1de6 bf39 bb95 aeba 9628 8abb
00000140: 0dd0 4fbb 7a23 26bc 29a6 c23b 1a27 b63a
00000150: 2b56 e63a c919 1d3c 12a7 5ebb da90 7ebb
00000160: 34e2 98bb 95ff 08bb baca 9939 f6af 6e3b
00000170: 4584 83ba 3be5 0c3b 900d b4bb 9222 01bc
00000180: 6091 91ba 7773 03ba 2821 b8bb b38c e2ba
00000190: 1a4f 4bbb c2e0 0fbc a91f 1b3c 9cfb 7b3b
000001a0: c4aa c2bb 35bf d5bb 7886 093c 2403 b83b
000001b0: b9b0 c5bb 5f20 5e3b ec70 f2bb 6f84 ecbb
000001c0: 9865 06bc 9ab8 df3a 7f43 c03b f6f7 bb3b
000001d0: 8a5d ddbb c3a5 c03b 9daa 173c 7aaf 9a3b
000001e0: 7c49 e43b 3d40 c2bb c410 1ebb aadb d03b
000001f0: cb36 18bc 2cfc 5cba b5b6 923b cbf3 493b
00000200: cb45 87bb 4e62 793a ee15 b4bb ad69 78bb
00000210: 5105 983a 9308 23bb deb3 683b e59e aa3b
00000220: bd2d 5f3b 3238 f43b 91ba 133a d29c c1ba
00000230: 1583 09bc affc 9eba b951 c2bb 6152 373b
00000240: 821a b2ba b95a bcbb 70c9 7a3a 717d c23b
00000250: e194 03bb f8ba 493b 04a8 85ba 74d6 0abb
00000260: 496a adba 3304 b83a 327b 1bba 6720 97bb
00000270: 3f31 9f3b 55ca d0bb b4ab d4bb 8ef6 0e3b
00000280: deb2 2e3b c87d 80bb 796d 51bb c7c7 b33b
00000290: bdfa 4abb ef5f 1f3b 6fbe 9f3a b7c6 cf3a
000002a0: 987d 94bb ff13 4339 b10a 11bb d20e f63b
000002b0: 918b 1c3b f1f9 aebb 5616 c0bb 4472 d43a
000002c0: 843d a0bb 1a4e 393b e406 013b 168f f2bb
000002d0: 9019 db3b 4e15 333a ae6a 853a 5dd8 95bb
000002e0: 9870 29bc e6bc 0a3b 17e7 0bbc 257e 143b
000002f0: 1800 ac3b 917e f839 d25f bfbb e652 c13b
00000300: bbdf eabb f929 e5b9 fd49 f6bb 77de 173b
00000310: 4789 153c f2ad e6bb a5d3 dcbb 1f37 b33b
00000320: b4ea cf3b 0c27 5c3b 0502 a4bb f094 0a3c
00000330: 83cf c7ba c285 66bb 6261 10bb 5991 dc3a
00000340: 5d96 623b eeb4 70bb 009a 81bb c86d 56ba
00000350: 6ec2 07bc ece5 02bc 548a 1f38 724d a73b
00000360: 9636 a0bb 8ad8 503b 4c2a 7abb 5e6d 6fba
00000370: 1022 d43b a17e 103a 4658 b1bb beb9 aabb
00000380: 0e61 103b e784 7e3b ed72 a53b 0f15 293b
00000390: 8e80 b8bb 0682 9a3b a9d2 08bc 2827 313a
000003a0: 4c59 05bc 65cf 81bb 8433 b43a 4cbb a43b
000003b0: d5f9 703a 19f2 3fbb 2283 be3b 344e cd3a
000003c0: 950e dfbb c321 14bc b7b6 e3b9 b5bd 51bb
000003d0: 82f4 bdba efed e2bb 1169 8dbb cf3c 8ebb
000003e0: 9bee 903a 5d9a 6bb8 65ca 643b 4096 0dbc
000003f0: e002 c73b 201a e63b d9e1 05bc 414d 753b
-0.0044837235 -0.0041628326 0.008195713 0.004337326 -0.008354417 -0.009069162 0.001261794 -0.001205705
-7.234539e-06 -0.0017853313 -0.0019571695 0.0087072095 0.0017511495 0.0007190295 -0.009117361 -0.0031065887
0.0016885577 0.0035626302 0.0007621974 -0.0076619913 -0.005761193 0.010121915 0.00771354 0.0067206807
-0.00568546 -0.0060362215 0.0018681611 -0.008876787 0.00067186955 0.006711597 0.0054209256 0.0057306155
0.002119977 0.003668942 -0.010879811 -0.0057863058 -0.004525651 0.0065012644 -0.0085302815 0.0058261226
-0.0063517364 -0.0038955254 0.0041084155 0.007847601 0.002997336 -0.0048226225 0.006660404 0.0011536874
0.0072873514 0.0032468417 -0.0019150059 0.00607956 0.0051178425 0.006431754 0.009329795 0.003028323
-0.006275727 0.00015446053 -0.00038447662 -0.0013548736 -0.0006878713 0.010617366 0.0029918032 0.003908294
0.006307511 -0.004268999 0.0051386715 0.00572231 0.0016353115 0.0023906052 0.008554021 -0.008253425
0.0060751215 0.0002622022 -0.005841881 0.0062715253 -0.0035391175 0.00036601807 -0.001331977 -0.004216264
-0.0031709701 -0.010140294 0.005940218 0.0013897151 0.0017573287 0.009588667 -0.0033974093 -0.0038843662
-0.0046656374 -0.0020904292 0.00029333477 0.00364208 -0.0010033926 0.0021498937 -0.005494781 -0.007881777
-0.0011105947 -0.0005014459 -0.005619187 -0.0017284363 -0.003102249 -0.008781614 0.009467998 0.0038449531
-0.005940767 -0.006523038 0.008393876 0.0056156088 -0.00603303 0.0033893806 -0.0073987152 -0.0072179358
-0.008202933 0.0017068565 0.005867421 0.0057363464 -0.0067555355 0.0058791353 0.009256986 0.0047206255
0.006966768 -0.005928068 -0.002411888 0.0063738422 -0.009290407 -0.00084299105 0.004477347 0.0030815478
-0.004128193 0.0009513245 -0.0054957783 -0.0037904785 0.0011598264 -0.0024876937 0.00355076 0.00520693
0.0034054362 0.007452988 0.00056354055 -0.0014771468 -0.008393069 -0.0012129749 -0.0059301523 0.0027972686
-0.0013588222 -0.0057481197 0.00095667597 0.005935364 -0.0020077752 0.0030781608 -0.0010197167 -0.0021184953
-0.0013230528 0.0014039337 -0.00059311383 -0.004612017 0.0048581655 -0.006371776 -0.006490195 0.0021814439
0.0026656906 -0.0039212443 -0.003195612 0.005486462 -0.0030972206 0.0024318655 0.0012187491 0.0015852068
-0.0045315735 0.00018604098 -0.0022131617 0.007509091 0.00238869 -0.005339854 -0.0058620377 0.001620837
-0.0048901457 0.0028275312 0.0019687945 -0.007402311 0.006686397 0.0006831483 0.0010178888 -0.0045729117
-0.010341786 0.002116972 -0.008538983 0.0022658196 0.0052490346 0.00047396545 -0.00584028 0.005899775
-0.007167784 -0.00043709556 -0.0075161443 0.002317337 0.009126968 -0.007039779 -0.006739097 0.0054692174
0.0063451175 0.003359261 -0.0050051236 0.008458361 -0.0015244338 -0.003517494 -0.00220307 0.0016827985
0.0034574487 -0.0036728936 -0.003955126 -0.0008179811 -0.008286102 -0.007989388 3.8037382e-05 0.0051056677
-0.0048893197 0.0031867349 -0.0038172184 -0.00091334234 0.006473787 0.0005512033 -0.0054121343 -0.0052101305
0.0022030505 0.003883654 0.0050491006 0.0025799905 -0.0056305593 0.004715207 -0.008351007 0.0006757849
-0.008138966 -0.003961491 0.0013748263 0.0050272103 0.00091925013 -0.0029288589 0.005813972 0.0015663565
-0.0068071582 -0.009041253 -0.00043432947 -0.0032003943 -0.0014492425 -0.0069253366 -0.0043155034 -0.004340745
0.0011057438 -5.6172128e-05 0.0034910676 -0.008641779 0.006073341 0.0070221573 -0.008171522 0.003743008

base_model.model.model.layers.24.mlp.down_proj.lora_B.weight f4 [5120, 1]
00000000: 9814 3f39 e40e ae3a 1bb9 ea3a f62e 8cba
00000010: f704 593a e046 ed3a 9c37 cfba 1559 85ba
00000020: 29f0 a13a a4ad 0fbb eff0 633a 454c 9d3a
00000030: c96a 083b a735 7db9 ea69 1aba 756d c53a
00000040: 5a85 e63a b9ed 3d3a 89dc 7cba 2e60 1eba
00000050: 4b35 48ba be97 3a3a f927 6a3a 4ca8 0dba
00000060: 75eb 373a 5932 37b8 c753 563a e3ca 813a
00000070: 4ae2 b039 a5ae 60ba 3f15 843a 4b06 6fba
00000080: d252 92ba e10f 043a 3e75 84ba 1988 d4ba
00000090: 626d 8539 c491 9eb9 40cf e33a 5758 3aba
000000a0: 737b 973a 57c6 413a 9799 133a d417 5bba
000000b0: 9561 ac39 bcfe a3ba ea56 2d3a 869a b138
000000c0: ca34 9fba 2246 72b9 9c99 d7ba 2cc9 9db9
000000d0: b18a c1ba 7479 a03a 51a5 4d3a c8a9 86ba
000000e0: 98cc 47ba 4de8 efba 44de fb3a b5d6 1e3b
000000f0: c031 35bb 5d92 09b9 fc78 9238 4b03 76ba
00000100: 0a4d c23a 88cd 3c3a 83bf 0bb9 4d68 bab9
00000110: 0660 d7ba 323a 0838 af23 1fba 7990 3f3a
00000120: 858e 133b a8fc 3d39 fd1d 3f3a 8182 c03a
00000130: 33a5 503a 68c3 c539 b03d d239 3ede be38
00000140: b1b4 9d3a 73b6 0fbb d35d 17bb 5b1e 8839
00000150: 235e 6cb9 a7dc 8c3a 1885 9cba fd76 3fba
00000160: d147 01ba 6138 a6b9 5f65 0dba c92e ebb9
00000170: e689 ae3a 8ebc 21bb 49ac 763a 95e2 b4b9
00000180: 5804 21bb d005 e939 13a9 df3a 2acb 533a
00000190: ce28 c23a b79a f63a 1ff8 6cb9 5136 4539
000001a0: c2b4 183a 920d ec3a 70c7 e4b9 4e05 b7ba
000001b0: 85d7 85ba afee 17ba 2f24 c03a 9b90 8f3a
000001c0: ead0 2db9 fe89 86ba 7e2c 123a 86c1 33bb
000001d0: d4f0 72ba 6c93 ad3a 8c6e 4b3a 7e5b d739
000001e0: 556a 08bb 6efb 9aba 7fe4 4aba b86a ee39
000001f0: 4eab af3a 246f 4cb9 fd01 26ba 04af aa3a
00000200: 52d1 033b eb2f 3d3a 18bf 9138 7c05 c6ba
00000210: d68d 28bb 1cf8 07ba edc6 833a de4f 943a
00000220: d17b 8dba 0a98 bf3a 8f4e 703a fe4b bbba
00000230: 8290 483a 5557 99ba 5386 b5b7 afc8 0eba
00000240: 404a c93a d65f 7aba 9ffe 89ba 755e 97ba
00000250: d06e d339 db6c 80ba c64f c839 dc43 3436
00000260: 1a0a 013b c782 33bb 0a26 9c3a e457 b83a
00000270: 36b1 47ba 85d0 253a 5e3f 8eba 7b89 083b
00000280: 48b0 80b6 01c0 5a3a 0b7b 9a3a 7ace b939
00000290: d111 e9b9 4032 2d3a a9dd dfb8 554c f03a
000002a0: de85 be39 7d8d 773a 5cae 49b9 c90a b53a
000002b0: 82fb 60ba de4f baba 7a15 06bb 4044 283a
000002c0: e884 123a d551 80b9 f996 03ba 6306 d33a
000002d0: ab93 3eba 449f 33b7 a8be 0cba 63c3 5cba
000002e0: a0fd 9d3a b9d9 f73a ca31 fdba ed0c 043a
000002f0: d918 45ba 4261 3cb8 dc5f 6339 02f6 baba
00000300: 7fee bc3a 5920 163a 6bb4 2d39 736d ed38
00000310: dad5 f539 95ba ec3a 2b09 94ba e4fb 2c39
00000320: 0ee7 313a 07f7 0e3a ee78 c4ba 8924 c9ba
00000330: 8ef9 88b9 fd18 883a 8baa 0ab9 9598 c9ba
00000340: a98f 16bb 18fb aeba 8c13 99ba a108 a83a
00000350: 1cf8 b23a 602c dbba 1e43 06bb 5939 823a
00000360: 5dc5 22ba 5a84 91ba 616f 16ba 292c 0b3a
00000370: 82cd 8dba 64e2 09bb d671 9739 3e02 ddba
00000380: 38db eaba e59e c3b9 292c 133a 6de0 81ba
00000390: 79f4 b4ba 7fbe 033a 4c99 67b9 a212 8b3a
000003a0: 0d13 f239 08d2 613a 6114 653a 8806 3539
000003b0: 4d58 023b 4b15 403a f3af e73a b47a 093a
000003c0: 6966 fbb9 3627 633a a4f2 a9ba 42df 1aba
000003d0: 44c8 f8ba ea6f 783a 197f 7fba 5947 63ba
000003e0: 5f7c a5b9 703e 0abb 6b70 4d3a 039e f2ba
000003f0: 2982 8cb9 f086 05bb dc65 903a 3791 ecb9
0.00018222851 0.0013279584 0.0017907949 -0.0010695148 0.0008278633 0.0018102787 -0.001580942 -0.0010173643
0.0012354898 -0.0021923566 0.00086952647 0.001200088 0.0020815602 -0.00024147947 -0.0005890416 0.0015062528
0.0017587349 0.0007245201 -0.00096458994 -0.00060415536 -0.0007637336 0.0007117948 0.0008932348 -0.00054038013
0.0007015982 -4.367749e-05 0.0008175936 0.0009902384 0.00033737934 -0.0008570946 0.0010077133 -0.0009118064
-0.0011163598 0.00050377665 -0.0010105742 -0.0016214877 0.00025449233 -0.00030244712 0.0017380491 -0.00071085006
0.0011557176 0.00073919207 0.00056304917 -0.00083577377 0.000328791 -0.001251183 0.00066123775 8.4688e-05
-0.001214647 -0.00023105045 -0.0016448977 -0.00030095258 -0.0014766065 0.0012243227 0.00078447635 -0.0010273987
-0.00076217344 -0.0018303484 0.0019216021 0.0024236862 -0.0027648062 -0.00013119863 6.9843576e-05 -0.0009384646
0.0014823985 0.00072022574 -0.00013327417 -0.00035554395 -0.0016431815 3.2479125e-05 -0.0006070686 0.00073076
0.0022515368 0.00018118566 0.00072905404 0.0014687331 0.0007959187 0.00037720357 0.00040100282 9.101302e-05
0.0012032 -0.0021928817 -0.0023096695 0.00025962558 -0.00022541783 0.0010746912 -0.001194152 -0.00073038024
-0.0004931661 -0.00031703993 -0.00053938286 -0.0004485755 0.0013316243 -0.0024679038 0.0009409828 -0.00034501092
-0.002456924 0.00044445554 0.0017063938 0.0008079285 0.0014813186 0.0018814419 -0.00022599146 0.00018807618
0.0005825275 0.0018009415 -0.0004363614 -0.0013963373 -0.0010211325 -0.00057957595 0.0014659221 0.001095313
-0.00016576392 -0.0010264514 0.0005576088 -0.0027428581 -0.00092674536 0.0013242788 0.0007760308 0.00041076163
-0.0020815332 -0.00118242 -0.0007739737 0.0004547441 0.0013402493 -0.00019496359 -0.0006332694 0.001302213
0.0020113778 0.0007216918 6.949733e-05 -0.0015107836 -0.0025719306 -0.00051868125 0.0010053791 0.0011315306
-0.0010794346 0.0014617455 0.00091669796 -0.0014289615 0.0007650928 -0.0011699001 -2.1639431e-05 -0.00054467743
0.0015357211 -0.0009551024 -0.0010528154 -0.0011548536 0.00040327618 -0.0009798066 0.00038206408 2.686159e-06
0.001968986 -0.0027391182 0.0011913192 0.0014064279 -0.0007617654 0.00063253223 -0.0010852625 0.0020833898
-3.835219e-06 0.0008344651 0.0011785937 0.00035439787 -0.00044454497 0.0006606914 -0.00010674756 0.0018333296
0.00036339363 0.00094433856 -0.00019233808 0.0013812418 -0.00085823995 -0.0014214476 -0.0020459578 0.00064188614
0.00055892626 -0.00024475032 -0.000501975 0.0016099926 -0.0007269929 -1.0706313e-05 -0.0005368986 -0.0008421449
0.0012053736 0.0018909491 -0.0019317206 0.00050373265 -0.0007518656 -4.491327e-05 0.00021684117 -0.001426399
0.0014414339 0.0005726866 0.00016565777 0.00011321427 0.00046889373 0.0018060977 -0.0011294236 0.00016497035
0.0006786444 0.000545368 -0.0014989653 -0.0015345971 -0.00026125874 0.0010383424 -0.00013224238 -0.0015380556
-0.0022973812 -0.0013349978 -0.0011678799 0.0012819954 0.0013654265 -0.0016721599 -0.0020486782 0.0009935304
-0.0006209219 -0.0011102066 -0.00057386426 0.00053090096 -0.0010818692 -0.002103948 0.0002888578 -0.001686163
-0.0017918115 -0.00037311684 0.00056141854 -0.0009908803 -0.0013805769 0.00050256395 -0.00022086984 0.0010610411
0.0004617203 0.0008614366 0.00087386934 0.00017263938 0.0019889057 0.00073273916 0.0017676338 0.00052444194
-0.00047950752 0.00086652057 -0.0012965989 -0.0005907902 -0.0018980582 0.0009477126 -0.0009746417 -0.00086699944
-0.00031563916 -0.0021094345 0.0007836881 -0.0018510226 -0.00026799858 -0.0020374618 0.0011016685 -0.0004512162
