lora_snapshot_no_intervention/step_000570/base_model_model_model_layers_24_A_and_B.pt (torch, 77997 bytes, 2 tensors)

A f4 [1, 13824]
000000 1b e8 91 bb c3 bf 88 bb 30 ec 07 3c 81 9b 8e 3b
       -0.004452718 -0.0041732504 0.008296058 0.0043520336
000010 a7 09 09 bc 05 12 14 bc ad f5 ad 3a 10 a9 ad ba
       -0.008364118 -0.009037499 0.001327207 -0.0013249237
000020 a7 35 e2 37 b8 fa e6 ba ef b0 02 bb c5 3e 0e 3c
       2.6966283e-05 -0.0017622327 -0.0019941886 0.008681958
000030 c8 d4 e5 3a 72 49 46 3a 6d 8a 13 bc 95 a4 4c bb
       0.0017534727 0.0007564045 -0.009005171 -0.0031226028
000040 c6 20 eb 3a c8 a0 6a 3b e8 17 53 3a c0 88 fa bb
       0.0017938844 0.00358014 0.00080525735 -0.0076456964
000050 58 1f bb bb 60 45 25 3c 45 0e fd 3b c3 88 d9 3b
       -0.0057105236 0.010087341 0.0077226483 0.0066386177
000060 1d 26 ba bb 12 02 c5 bb bc 54 f9 3a c3 cb 10 bc
       -0.005680813 -0.0060122097 0.0019022445 -0.008837643
000070 75 14 1a 3a c1 3e d4 3b da 69 af 3b b0 ee ba 3b
       0.0005877682 0.0064772074 0.0053531947 0.0057047233
000080 70 ed 08 3b ec 67 74 3b 91 b0 30 bc b4 e3 bc bb
       0.0020893477 0.0037293388 -0.010784284 -0.005764449
000090 c1 24 93 bb 74 08 d4 3b ff 03 0a bc 1f f7 bd 3b
       -0.0044904654 0.0064707343 -0.008423804 0.0057972814
0000a0 7e 0f cf bb 88 27 7e bb da bd 88 3b b8 4e 00 3c
       -0.0063189855 -0.0038780887 0.0041730227 0.007831268
0000b0 93 28 45 3b f8 a7 99 bb 60 cf da 3b 81 87 91 3a
       0.0030083999 -0.004689213 0.006677553 0.0011103005
0000c0 f6 62 ec 3b 55 91 58 3b b6 85 f6 ba 15 4a c8 3b
       0.0072139455 0.003304561 -0.001880816 0.006112347
0000d0 89 65 a7 3b c7 26 d4 3b 13 4c 18 3c f9 da 44 3b
       0.0051085395 0.006474349 0.009295481 0.0030037744
0000e0 21 da ca bb d5 9a ad 38 d6 65 c7 b9 1e 50 b3 ba
       -0.006190554 8.2781226e-05 -0.00038032111 -0.0013680493
0000f0 91 c1 2b ba 95 ed 2c 3c 59 53 4d 3b b9 4c 7e 3b
       -0.0006551976 0.010554691 0.0031330197 0.0038803054
000100 79 13 cd 3b 4a 4a 8e bb 51 bd a6 3b 85 10 bd 3b
       0.006258425 -0.004342352 0.0050884862 0.0057697915
000110 ce 11 d7 3a 88 8c 14 3b e4 7d 0b 3c 2e ee 06 bc
       0.0016408504 0.002266677 0.008513901 -0.008235497
000120 10 d5 c4 3b 8d c6 54 39 70 f2 c0 bb 4c 5f cc 3b
       0.0060068443 0.00020291861 -0.005888276 0.006236946
000130 b4 96 64 bb 95 17 94 39 8e 0b bb ba 59 85 89 bb
       -0.0034879865 0.0002824633 -0.0014270411 -0.0041968045
000140 06 a8 4b bb f9 60 25 bc b5 1c c1 3b 8c f4 b0 3a
       -0.0031075492 -0.010093921 0.0058933147 0.0013500615
000150 a6 55 e9 3a ae 9e 1c 3c e5 cf 5b bb e7 6f 81 bb
       0.0017802014 0.009559317 -0.0033540663 -0.0039501074
000160 7a bb 97 bb 35 6b 09 bb 33 b1 82 39 2a 7b 6e 3b
       -0.0046305032 -0.0020968441 0.00024927556 0.003638933
000170 63 8c 7d ba 11 20 0d 3b b0 71 b3 bb 59 1c 01 bc
       -0.00096721033 0.0021534006 -0.005476199 -0.007880294
000180 32 c3 8f ba c3 85 d9 b9 7e 19 b7 bb ba 2d e5 ba
       -0.0010968207 -0.00041489126 -0.0055877557 -0.0017484941
000190 5b cc 48 bb 0d b0 0f bc d1 b0 1a 3c 1c 33 81 3b
       -0.0030639383 -0.008770001 0.00944157 0.0039428603
0001a0 d2 5b c1 bb 9d c1 d6 bb 7b a2 09 3c 7c d5 b8 3b
       -0.0059008384 -0.006553842 0.008400555 0.0056406837
0001b0 50 d5 c6 bb aa 67 5b 3b 13 b0 f0 bb 33 5f ec bb
       -0.0060679093 0.0033478537 -0.0073452084 -0.007213497
0001c0 b3 3a 05 bc 6e 26 dc 3a 1f 7b c4 3b db 79 ba 3b
       -0.008131671 0.0016796121 0.0059961225 0.005690796
0001d0 e5 e6 dd bb bd 2e c0 3b 30 1f 17 3c 04 59 9b 3b
       -0.0067719095 0.0058649466 0.009223744 0.004740836
0001e0 97 3c e4 3b 2b cf c1 bb db cd 21 bb 5b e0 cf 3b
       0.0069652307 -0.005914589 -0.002468935 0.006343884
0001f0 d5 19 16 bc f3 f5 65 ba e1 af 93 3b 1b 26 4b 3b
       -0.009161432 -0.0008772306 0.0045070504 0.0030998054
000200 45 32 85 bb b6 b5 86 3a ce 45 b3 bb 6e ea 77 bb
       -0.0040648305 0.0010277543 -0.005470968 -0.003782894
000210 41 30 9d 3a 30 83 26 bb 03 d3 6d 3b eb d3 a9 3b
       0.001199253 -0.0025407784 0.0036289103 0.0051827333
000220 22 b2 61 3b 1e a0 f3 3b fa b7 24 3a e9 5f c5 ba
       0.003443845 0.007434859 0.0006283518 -0.0015058491
000230 4f 24 09 bc 42 3c a1 ba ea 16 c3 bb e8 c6 3b 3b
       -0.008370473 -0.0012301283 -0.0059536593 0.0028652493
000240 54 0f ad ba 25 02 ba bb bd f3 76 3a ba 67 c1 3b
       -0.0013203421 -0.005676525 0.0009420475 0.0059022577
000250 ec 0e 06 bb 96 e4 43 3b 43 48 81 ba e0 f4 08 bb
       -0.0020455671 0.0029890887 -0.0009863455 -0.002089791
000260 9e f2 ab ba 34 b5 be 3a 30 ef 2d ba ab 68 99 bb
       -0.001311857 0.0014549852 -0.0006635068 -0.004681667
000270 fa 98 9b 3b 9b 35 d0 bb 4c 4e d2 bb 25 f7 0a 3b
       0.004748461 -0.0063540465 -0.006418025 0.0021204439
000280 8c 3f 30 3b 9b 29 7f bb 90 fc 54 bb cf d4 b2 3b
       0.0026893346 -0.003893471 -0.0032499172 0.0054574977
000290 ae 28 50 bb b2 e7 1a 3b bc cb a1 3a d2 bf c9 3a
       -0.0031762528 0.0023636636 0.0012344043 0.001539225
0002a0 86 2c 92 bb 31 15 1f 39 41 ed 15 bb eb 09 f4 3b
       -0.004460874 0.00015171316 -0.002287701 0.0074474714
0002b0 f7 5f 14 3b 3a 3b ad bb a4 a3 bf bb 2b 6d da 3a
       0.0022640207 -0.0052866014 -0.005848365 0.0016664615
0002c0 04 ea 9e bb c9 de 35 3b 98 15 fb 3a 40 23 f5 bb
       -0.004849674 0.0027751199 0.0019156216 -0.007481009
0002d0 01 39 da 3b 86 f9 48 3a cd ce 90 3a fe 70 92 bb
       0.0066596274 0.00076665764 0.001104796 -0.004469036
0002e0 a9 e6 27 bc 55 f8 0c 3b ba 1c 0b bc d7 4a 17 3b
       -0.010247865 0.0021510322 -0.008490736 0.002308538
0002f0 af 7d ae 3b fa 52 e8 39 cb b2 bf bb b6 99 c0 3b
       0.0053250412 0.0004431231 -0.005850171 0.005877699
000300 2b 0f eb bb c6 3c 0b ba 88 c8 f5 bb e3 c1 18 3b
       -0.007173439 -0.0005311485 -0.007500712 0.0023308925
000310 17 dd 14 3c 7a 6b e5 bb 90 6c db bb 84 7f b4 3b
       0.009085915 -0.0070013376 -0.0066962913 0.005508365
000320 95 eb cd 3b c6 ba 62 3b c3 5f a4 bb 26 07 0b 3c
       0.006284187 0.003459619 -0.0050162985 0.008485591
000330 84 e9 cb ba 0d b7 66 bb 65 a5 0f bb 38 4b dc 3a
       -0.0015557264 -0.0035204322 -0.0021918651 0.0016807085
000340 8e f4 64 3b 0d 4e 6d bb 25 42 83 bb c5 40 46 ba
       0.0034935805 -0.0036209852 -0.004005688 -0.0007562752
000350 78 46 08 bc 07 95 02 bc 26 08 94 38 6d 5f aa 3b
       -0.008317582 -0.007970101 7.058708e-05 0.005199364
000360 e3 49 a1 bb 1c c7 52 3b 67 d9 7b bb 7e f8 7c ba
       -0.004922138 0.0032162135 -0.0038429142 -0.00096500653
000370 1b 4c d5 3b c5 7d 17 3a e0 b6 af bb 62 08 aa bb
       0.0065093166 0.0005778934 -0.0053623766 -0.0051889876
000380 7e 0e 0c 3b d8 da 7f 3b 8b 09 a6 3b ab ff 24 3b
       0.0021370943 0.0039040353 0.0050670556 0.0025176804
000390 15 69 b7 bb 8e e4 9a 3b 0f 98 08 bc eb 56 2f 3a
       -0.0055972436 0.004726953 -0.008337035 0.0006688672
0003a0 f6 91 04 bc 59 d0 7e bb fd 00 b0 3a 0c b6 a6 3b
       -0.00809144 -0.003888151 0.0013428029 0.0050876196
0003b0 15 fa 73 3a 81 0e 4a bb a1 88 bc 3b aa 98 c9 3a
       0.00093069795 -0.00308314 0.005753592 0.001538058
0003c0 9e f6 dd bb 4c 4e 13 bc 61 1c bb b9 db a3 54 bb
       -0.006773784 -0.008990835 -0.00035688563 -0.0032446298
0003d0 1c 34 c4 ba 98 d2 e0 bb 46 fd 90 bb 0d c9 8e bb
       -0.0014969143 -0.006861042 -0.004424724 -0.004357463
0003e0 89 b2 85 3a b6 6a 11 b8 4e 04 6d 3b 6a c1 0c bc
       0.0010200302 -3.4670076e-05 0.0036165896 -0.008591035
0003f0 fa 96 c7 3b 90 61 e6 3b f8 ac 06 bc ea ba 77 3b
       0.006090996 0.0070306733 -0.00821995 0.0037800618

B f4 [5120, 1]
000000 fa 78 72 39 f4 34 9e 3a 7b 29 e7 3a d0 c1 88 ba
       0.00023123986 0.0012070225 0.0017636264 -0.0010433737
000010 1b 96 4f 3a af 07 f3 3a 1c 32 cc ba 29 ab 8c ba
       0.0007918791 0.0018541719 -0.0015578899 -0.0010732162
000020 91 b6 98 3a 7e 99 0f bb 60 8a 51 3a 88 3b 95 3a
       0.0011651089 -0.0021911557 0.0007993337 0.001138554
000030 e6 cb 04 3b 46 08 9a b9 21 94 13 ba c9 09 b3 3a
       0.0020263135 -0.00029379333 -0.0005629678 0.0013659532
000040 c1 ee e2 3a 2c aa 53 3a 6f e3 74 ba 81 8b 24 ba
       0.0017313586 0.0008074369 -0.00093417516 -0.0006276891
000050 df 7d 3d ba 1d 62 2c 3a 0c 48 62 3a 10 e9 10 ba
       -0.0007228534 0.00065758993 0.00086319516 -0.0005527893
000060 96 4c 43 3a 80 99 41 b8 f5 7e 62 3a fc c1 80 3a
       0.0007450072 -4.6157744e-05 0.0008640134 0.0009823437
000070 4c 2a bc 39 8e 1f 4a ba 3e f9 5e 3a a1 7c 63 ba
       0.00035889668 -0.00077103905 0.0008505768 -0.0008677934
000080 24 e0 97 ba c9 44 0d 3a 4f bc 88 ba f0 15 d1 ba
       -0.0011587185 0.0005388973 -0.0010432097 -0.0015951972
000090 da f7 81 39 a0 27 92 b9 17 67 eb 3a 05 e4 31 ba
       0.0002478946 -0.00027876813 0.00179598 -0.0006785992
0000a0 98 4c 8d 3a 08 18 3f 3a ac 97 2e 3a 55 e2 58 ba
       0.0010780273 0.0007289653 0.0006660174 -0.0008273472
0000b0 ca dc 81 39 fb 74 9f ba 1f b9 31 3a ba 88 38 39
       0.00024769298 -0.00121656 0.00067795994 0.00017598542
0000c0 78 cd 92 ba 0a 13 84 b9 cf a8 cf ba 3d a2 a1 b9
       -0.001120015 -0.00025191187 -0.0015843156 -0.0003082919
0000d0 b7 90 b8 ba ec 4d 9d 3a 36 3b 4e 3a 79 47 8b ba
       -0.0014081214 0.0012001372 0.00078670995 -0.0010626159
0000e0 e8 e1 55 ba 61 79 f3 ba 28 f5 e5 3a 20 89 1d 3b
       -0.0008158968 -0.0018575602 0.0017544376 0.0024038032
0000f0 44 32 31 bb 74 df 65 b9 c8 50 97 38 5d 8a 6b ba
       -0.0027038017 -0.00021922385 7.215288e-05 -0.00089851563
000100 e9 9b c0 3a ea 7a 34 3a d1 c3 21 b9 75 75 dc b9
       0.0014694902 0.00068847707 -0.00015427104 -0.00042049182
000110 d0 91 cc ba 99 84 10 b7 d4 83 1f ba 58 d2 39 3a
       -0.001560742 -8.613942e-06 -0.00060850126 0.00070885336
000120 08 19 13 3b cf 3a 9b 39 2f fa 2b 3a 06 c9 b5 3a
       0.002244534 0.0002960772 0.00065604126 0.0013869114
000130 5a 8c 53 3a ff ce ae 39 71 b3 b1 39 2c c4 36 39
       0.0008069925 0.0003334209 0.00033893765 0.00017429952
000140 db 86 99 3a fc a7 0d bb 0a 7a 13 bb 81 8f 98 39
       0.0011713164 -0.002161502 -0.002250316 0.00029098618
000150 d5 15 91 b9 1d b3 85 3a 16 51 9a ba 1f 57 34 ba
       -0.0002767282 0.0010200475 -0.0011773433 -0.0006879437
000160 22 52 2f ba f8 99 9a b9 cd b2 fa b9 03 8e 1a ba
       -0.0006687959 -0.00029487885 -0.00047816933 -0.0005895795
000170 da d0 af 3a e4 e4 22 bb 52 a6 7c 3a f6 b8 93 b9
       0.0013413683 -0.0024855668 0.0009637821 -0.00028175832
000180 17 37 1c bb 68 4f b7 39 5c 72 df 3a cb fe 5e 3a
       -0.0023836547 0.00034963642 0.0017047632 0.0008506595
000190 0e 92 b9 3a f8 8c ef 3a a1 04 41 b9 bd cc 71 38
       0.0014157908 0.0018276265 -0.00018407639 5.7649555e-05
0001a0 62 b7 2b 3a 37 9c f2 3a 02 52 00 ba b6 f4 bb ba
       0.00065504585 0.001850969 -0.00048950326 -0.0014339897
0001b0 d9 07 83 ba 7b ce 16 ba 10 c3 b8 3a dc 85 8f 3a
       -0.0009996846 -0.0005752814 0.0014096219 0.0010949927
0001c0 ea 76 91 b9 53 3e 76 ba 7f 34 2c 3a c0 57 2d bb
       -0.00027745153 -0.00093934423 0.0006569102 -0.0026450008
0001d0 79 c2 7b ba b8 b0 b0 3a 23 a3 3f 3a 27 1e e8 39
       -0.0009603869 0.0013480401 0.0007310381 0.00044272954
0001e0 eb c0 07 bb fc 38 a1 ba 6b 36 7c ba 02 37 1a 3a
       -0.0020714353 -0.0012300308 -0.0009621146 0.00058828306
0001f0 c5 6e a8 3a a6 b9 90 b9 3c 69 12 ba f8 fd a3 3a
       0.0012850395 -0.0002760414 -0.0005585139 0.0012511602
000200 ad a5 02 3b e8 62 4a 3a fd 89 6c b8 56 cc bb ba
       0.0019935176 0.00077204267 -5.6395296e-05 -0.0014327865
000210 28 dd 1c bb ab f2 06 ba 3c 21 86 3a e0 67 90 3a
       -0.002393553 -0.00051478547 0.0010233293 0.0011017285
000220 8f 22 93 ba 92 e9 be 3a b9 d8 6c 3a 20 47 b0 ba
       -0.0011225509 0.0014565459 0.000903498 -0.0013448931
000230 86 6d 50 3a 03 d7 9f ba b2 64 f3 38 a4 52 18 ba
       0.00079508906 -0.0012194816 0.00011605899 -0.0005810654
000240 d5 d4 ca 3a 33 e7 79 ba 9b e6 7c ba fd 13 a2 ba
       0.0015474806 -0.00095330476 -0.00096474 -0.0012365576
000250 05 4a 00 3a 91 18 79 ba 60 9f 83 39 dc 30 26 39
       0.0004893842 -0.0009502257 0.0002510501 0.00015849195
000260 83 4d fa 3a 42 db 2f bb b5 9e a6 3a a7 bc b5 3a
       0.0019096587 -0.0026833569 0.0012712093 0.0013865427
000270 08 2a 34 ba 9f c5 31 3a 0c 5a 84 ba 4c 93 04 3b
       -0.0006872718 0.0006781462 -0.0010097637 0.0020229397
000280 44 cb 4d 38 f8 a7 5f 3a eb c8 9d 3a b5 5a ab 39
       4.9065115e-05 0.0008531804 0.0012038028 0.00032683244
000290 3a 98 d4 b9 e2 a0 1e 3a 3f 23 38 b9 fa 27 ee 3a
       -0.0004054921 0.0006051195 -0.00017560738 0.0018169873
0002a0 ae 59 b6 39 c8 7d 82 3a 42 25 30 b9 9f 75 b3 3a
       0.00034780562 0.0009955699 -0.00016798548 0.001369167
0002b0 29 f0 63 ba 58 0c c7 ba 88 f2 03 bb 29 39 22 3a
       -0.00086951494 -0.0015186174 -0.0020133574 0.0006188327
0002c0 ec be 11 3a 2c 4b 86 b9 ed 4e 0b ba 8f 2d cb 3a
       0.00055597606 -0.0002561448 -0.000531419 0.0015501248
0002d0 89 58 54 ba 02 96 c7 38 0f 0c 0f ba 74 d2 54 ba
       -0.0008100351 9.5170006e-05 -0.0005456814 -0.0008118518
0002e0 61 64 9e 3a f2 c7 ec 3a 4d e9 ff ba 3e af f7 39
       0.0012084359 0.001806496 -0.0019524485 0.00047242077
0002f0 2f db 55 ba 84 20 ac b8 f4 04 76 39 79 23 b4 ba
       -0.0008157966 -8.2076556e-05 0.00023462233 -0.0013743482
000300 35 5f bb 3a 24 b6 35 3a 05 71 0b 39 63 a5 ce 38
       0.0014295342 0.0006931743 0.00013298176 9.853651e-05
000310 b4 82 e2 39 05 6c e9 3a c2 7c 98 ba 9a 0c 46 39
       0.0004320346 0.0017808682 -0.001163386 0.00018887446
000320 92 0b 44 3a c2 af 1a 3a 95 ff c1 ba b2 ff c8 ba
       0.0007478531 0.0005900824 -0.0014800901 -0.0015334992
000330 da c7 8c b9 00 e8 86 3a c7 d7 f0 b8 3c ec c8 ba
       -0.00026851782 0.001029253 -0.000114842835 -0.0015329192
000340 63 d9 10 bb c9 3c b7 ba 85 da 90 ba 88 43 ad 3a
       -0.0022102229 -0.0013979907 -0.0011051452 0.0013218978
000350 1c df af 3a 2b aa de ba 27 a9 06 bb 68 a3 74 3a
       0.0013417932 -0.001698797 -0.00205476 0.0009332211
000360 75 f2 2a ba 65 27 84 ba ae 1b 04 ba 5e 1c 21 3a
       -0.0006521114 -0.0010082541 -0.0005039525 0.00061458896
000370 ec cb 89 ba de 0c 02 bb 49 d7 ba 39 3d 4a d0 ba
       -0.0010513044 -0.0019844095 0.00035637085 -0.0015891265
000380 a1 fb e3 ba b8 2c d9 b9 0f b9 1d 3a 1f be 6c ba
       -0.0017393717 -0.00041422783 0.00060166506 -0.0009031016
000390 28 02 ba ba 2e cf fe 39 00 ea 9d b9 6e af 85 3a
       -0.0014191316 0.00048601016 -0.00030119717 0.0010199377
0003a0 2d 83 bd 39 ba b2 71 3a fc 2a 6a 3a c8 a8 0b 39
       0.00036146623 0.0009220053 0.0008932797 0.00013318949
0003b0 93 6e fb 3a 97 2f 3d 3a e5 95 de 3a c5 ed f7 39
       0.0019182734 0.0007216869 0.0016981928 0.00047288663
0003c0 7a 8e 03 ba 50 b6 48 3a 3d 23 b4 ba ef 99 11 ba
       -0.0005018484 0.0007656561 -0.0013743412 -0.0005554249
0003d0 64 fe e6 ba f1 64 82 3a d3 2b 78 ba aa f5 5e ba
       -0.0017623422 0.0009948296 -0.00094669795 -0.0008505235
0003e0 86 45 a6 b9 fa 19 09 bb 20 99 52 3a 14 88 f0 ba
       -0.00031713786 -0.0020920024 0.00080336817 -0.0018351101
0003f0 2d 91 9b b9 f1 ec 07 bb 06 be 90 3a f6 2a e1 b9
       -0.00029672068 -0.0020740593 0.001104296 -0.00042947353
