lora_snapshots2/step_000200/base_model_model_model_layers_24_A_and_B.pt (torch, 77997 bytes, 2 tensors)

A f4 [1, 13824]
000000 a8 3e 8f bb d2 c6 92 bb 86 41 15 3c a6 3a 94 3b
       -0.004371483 -0.0044792676 0.00910986 0.004523593
000010 76 3a 0b bc d4 60 0d bc e0 07 ec 3a c5 d6 28 bb
       -0.008497825 -0.008629043 0.0018007718 -0.0025762778
000020 8e 92 ec 39 ac 83 c3 ba 4d f7 eb ba 04 a8 07 3c
       0.0004512262 -0.0014916561 -0.0018002779 0.008279804
000030 37 9d 01 3b 34 bf 63 3a 8f 22 06 bc cc e1 5c bb
       0.0019777545 0.0008687854 -0.00818695 -0.0033703921
000040 55 2e 40 3b fb dd 71 3b 68 4a 09 3b ff 58 f9 bb
       0.002932449 0.0036905992 0.002094889 -0.007609486
000050 2c 16 b1 bb c5 4b 1d 3c 6f 23 f8 3b f5 d3 ba 3b
       -0.0054042544 0.009600584 0.0075725834 0.005701537
000060 fa 3f b1 bb 63 6a b6 bb 30 34 16 3b bc c3 06 bc
       -0.005409238 -0.0055668815 0.002291929 -0.008225378
000070 76 b8 91 ba ce 87 6a 3b be 61 97 3b 3f 3f ae 3b
       -0.0011117596 0.0035786512 0.004619806 0.005317598
000080 5e 1e d2 3a b1 f0 92 3b 86 5d 1e bc c0 21 b2 bb
       0.0016030779 0.004484259 -0.009665852 -0.005436152
000090 45 92 8b bb 6d b7 c4 3b 3d d4 fb bb 28 98 bc 3b
       -0.00425938 0.0060033114 -0.007685213 0.005755443
0000a0 ae b1 c6 bb 3d 9e 65 bb 5a 6c 94 3b 2b c2 f7 3b
       -0.0060636615 -0.0035036944 0.004529518 0.0075609884
0000b0 19 3d f0 3a 9d 6b 34 bb 93 0b e5 3b 1c ab 3e 3a
       0.0018328755 -0.0027529963 0.006989905 0.0007273422
0000c0 72 b7 c6 3b 8e b1 56 3b ec 0e b8 ba e5 b3 d7 3b
       0.006064349 0.003275964 -0.0014042533 0.0065827244
0000d0 25 d3 9b 3b 3c 35 e3 3b 42 73 15 3c cf 6e 2a 3b
       0.004755395 0.0069338363 0.009121718 0.0026005988
0000e0 f1 78 a5 bb fe ec b0 ba b1 8f ea b9 f3 d0 e4 ba
       -0.0050498177 -0.0013498364 -0.00044739016 -0.0017457291
0000f0 6b e0 84 b8 84 71 22 3c 09 c3 99 3b 89 50 60 3b
       -6.3360516e-05 0.00991476 0.0046924395 0.003422769
000100 a9 80 bc 3b d0 26 9f bb 1b 03 94 3b 52 67 d0 3b
       0.005752642 -0.0048569217 0.0045169718 0.006359973
000110 fb 4b f7 3a 2c 93 c8 39 5e c8 00 3c 26 42 03 bc
       0.0018867248 0.00038256624 0.007860271 -0.0080113765
000120 31 be b1 3b 44 39 df b9 91 b1 d6 bb f4 07 be 3b
       0.005424284 -0.0004257654 -0.0065519293 0.005799288
000130 aa 72 3c bb aa 98 09 b9 ae 80 00 bb ec e0 7c bb
       -0.0028754869 -0.0001312221 -0.001960795 -0.0038586212
000140 b9 c6 41 bb c1 52 1d bc bc 68 ad 3b df 82 c0 3a
       -0.002956791 -0.00960225 0.0052920263 0.001468744
000150 a9 55 0e 3b 48 b4 15 3c 4f 7c 46 bb 37 8b 83 bb
       0.0021718538 0.009137221 -0.0030286496 -0.0040143984
000160 1c f4 91 bb f5 90 00 bb 0c 41 82 b9 b0 24 7c 3b
       -0.004454149 -0.001961765 -0.00024843996 0.0038474016
000170 eb af e3 b9 28 7a 10 3b e4 f2 a5 bb 85 8b f3 bb
       -0.00043427883 0.0022045467 -0.005064355 -0.0074324035
000180 8a e2 88 ba 40 98 9d 3a 30 f9 aa bb e4 a8 0a bb
       -0.001044349 0.0012023523 -0.0052176937 -0.0021157796
000190 4b 1f 37 bb 2d 2a 0b bc 95 27 13 3c 6e 69 a2 3b
       -0.0027942236 -0.008493942 0.008981605 0.004956416
0001a0 87 a0 ba bb af 40 e7 bb 7c 30 10 3c 61 76 c6 3b
       -0.005695406 -0.0070572714 0.008800622 0.0060565923
0001b0 eb 8a d5 bb 90 52 46 3b 8f e2 db bb 18 88 e5 bb
       -0.0065168045 0.0030261613 -0.0067103575 -0.007004749
0001c0 d3 48 f3 bb d7 d3 b0 3a 5a e0 f7 3b 17 34 a7 3b
       -0.007424453 0.0013490868 0.0075645866 0.005102645
0001d0 a2 bf e8 bb 5a 90 b3 3b c3 6a 10 3c cb 7c a6 3b
       -0.0071029225 0.0054798545 0.0088145165 0.0050807944
0001e0 ba 97 e9 3b 72 90 b6 bb 1c 5d 4e bb 02 bb bd 3b
       0.007128683 -0.0055714184 -0.0031488603 0.0057901153
0001f0 fe 3e 06 bc 03 d0 a6 ba 3b 9a a8 3b 1a 13 42 3b
       -0.008193729 -0.0012726787 0.005145339 0.0029613436
000200 41 bf 80 bb 7b fa c7 3a 54 bb a3 bb 16 91 80 bb
       -0.0039290492 0.0015257144 -0.0049966965 -0.0039235456
000210 92 b9 c2 3a 1e d0 66 bb 63 8d 92 3b 7e 0f a3 3b
       0.001485633 -0.0035219262 0.004472421 0.004976212
000220 f6 24 7f 3b b8 a0 e7 3b 80 88 9f 3a 2a bd fe ba
       0.0038931943 0.0070687197 0.0012171417 -0.0019435037
000230 a1 48 01 bc 02 15 ce ba f0 e7 ca bb bb 3b 68 3b
       -0.007890851 -0.0015722814 -0.0061922 0.0035435993
000240 47 59 03 ba 57 56 a6 bb d5 74 16 3a 31 53 b9 3b
       -0.0005010557 -0.0050762105 0.0005739455 0.005655669
000250 5d 0e 31 bb 6e 02 fb 3a eb 6e dd b9 08 23 a7 ba
       -0.0027016618 0.0019150504 -0.00042235045 -0.0012751529
000260 db 1f c3 ba cd 30 02 3b 57 e9 cb ba ba 29 bb bb
       -0.0014886813 0.0019865513 -0.0015557212 -0.0057117613
000270 e3 7c 3e 3b f5 4d c2 bb 6a 55 b9 bb 41 04 ae 3a
       0.0029066138 -0.0059297034 -0.005655934 0.0013276414
000280 a4 2a 61 3b 8b a9 5b bb 48 d9 82 bb 85 9d a3 3b
       0.0034357691 -0.0033517804 -0.003993187 0.004993143
000290 30 08 85 bb 0e 35 c3 3a 11 07 cd 3a ac f1 69 3a
       -0.004059814 0.0014893131 0.0015642365 0.00089242565
0002a0 56 3a 60 bb 1b 40 68 b9 c9 82 6d bb d7 47 df 3b
       -0.0034214458 -0.00022149125 -0.0036241284 0.006813984
0002b0 fe ee 38 3a 7b a3 9b bb 98 e2 ae bb ff 0b 08 3b
       0.00070546556 -0.004749713 -0.0053370707 0.0020759103
0002c0 bc dd 8b bb f9 f0 26 3b cc c6 b9 3a 11 3d 03 bc
       -0.004268376 0.002547322 0.0014173626 -0.008010165
0002d0 3c 22 d6 3b cc 58 01 3b 31 b0 eb 3a 9d f5 86 bb
       0.006534843 0.0019736765 0.0017981586 -0.004118635
0002e0 ff ae 15 bc 55 bc 11 3b 1e e3 03 bc 40 d4 40 3b
       -0.009135961 0.0022237499 -0.008049754 0.0029423386
0002f0 bb a6 c5 3b e6 1f 4f b8 c4 dd c9 bb f1 32 c1 3b
       0.0060318387 -4.9382354e-05 -0.0061604697 0.0058959653
000300 e6 bc f4 bb cd a3 1c bb 1f ff ed bb ec 76 2f 3b
       -0.0074688075 -0.0023901344 -0.007263079 0.0026773764
000310 37 f3 0a 3c 54 19 d3 bb d2 ad d1 bb 93 60 bc 3b
       0.0084808385 -0.0064422283 -0.006398895 0.005748817
000320 c4 fd ac 3b 4a 54 91 3b c1 eb ac bb b3 0f 0c 3c
       0.0052792747 0.004435097 -0.0052771275 0.008548665
000330 2b 67 fc ba 42 e3 72 bb b5 b0 11 bb d3 8e ba 3a
       -0.0019256821 -0.0037061726 -0.002223057 0.0014233239
000340 73 38 81 3b 5a 6c 30 bb e3 24 98 bb 71 65 07 b9
       0.003943497 -0.0026920051 -0.004643069 -0.00012912393
000350 ef 86 0b bc 86 bf fa bb 85 0e cb 39 2b 4c c1 3b
       -0.008516057 -0.007652226 0.00038729995 0.0058989725
000360 fb 86 ad bb 77 3b 7f 3b 73 6a 8a bb 65 cf da ba
       -0.005295632 0.0038945356 -0.0042241155 -0.0016693888
000370 e6 90 e7 3b d5 84 43 3a 6f 42 9e bb 98 c4 9f bb
       0.007066834 0.0007458453 -0.004829697 -0.0048757307
000380 aa 49 d7 3a ff d4 8b 3b 46 45 a4 3b 45 f1 f2 3a
       0.0016425152 0.0042673345 0.005013141 0.0018535039
000390 1b 60 a7 bb bd c6 98 3b a2 79 03 bc 0b 23 8c 39
       -0.005107892 0.0046623633 -0.008024605 0.0002672899
0003a0 af 7a 00 bc a3 21 51 bb a0 62 9e 3a 79 ed b6 3b
       -0.00784175 -0.0031910918 0.0012083836 0.005582508
0003b0 74 38 9b 3a f0 ea cb bb c0 bf a4 3b ff 5a 97 3a
       0.0011842386 -0.006223075 0.005027741 0.0011547505
0003c0 f4 77 d4 bb fc 2b 09 bc b5 96 73 b7 b1 5f 64 bb
       -0.006484026 -0.008372303 -1.4519018e-05 -0.0034847076
0003d0 eb b8 05 bb 54 3c c5 bb e6 7b c9 bb 21 d8 94 bb
       -0.002040441 -0.0060191546 -0.006148803 -0.004542366
0003e0 f6 a0 2b 35 f2 e0 8a b8 85 83 a6 3b 37 e3 02 bc
       6.3936693e-07 -6.622252e-05 0.0050815963 -0.007988743
0003f0 59 c5 d2 3b d0 99 f4 3b bb 8e 0f bc b3 e9 92 3b
       0.006432217 0.007464625 -0.008762057 0.0044834255

B f4 [5120, 1]
000000 9d a7 be b7 d0 3b 8e 3a 94 98 2c 3a 38 3f 71 ba
       -2.2727816e-05 0.0010851566 0.0006584015 -0.0009202841
000010 f9 3f af 3a f4 d0 8a 3a 81 bd 71 ba d4 ce 31 39
       0.0013370506 0.0010590837 -0.00092216587 0.00016957085
000020 28 3a 58 3a ff 23 12 39 2c 23 87 b9 b5 c4 8d 3a
       0.0008248412 0.00013937055 -0.00025775412 0.001081607
000030 c6 79 79 3a 05 bf a4 38 73 1f 20 ba 13 48 8f ba
       0.0009516742 7.8557096e-05 -0.0006108202 -0.0010931514
000040 11 d5 3d 3a 31 28 67 3a ff 60 b7 ba 2f 77 2e ba
       0.0007241527 0.00088179397 -0.0013990699 -0.0006655333
000050 b9 bc 9e b9 83 a3 47 39 b5 b9 60 3a 2e 42 26 ba
       -0.00030276718 0.00019039032 0.00085725944 -0.0006342259
000060 79 d8 7a 3a 4d c5 96 3a e2 4c ac 38 07 20 40 3a
       0.0009569 0.0011502892 8.21592e-05 0.0007328991
000070 6d 1b e0 39 c6 cd 14 3a 67 bb a3 3a 23 0a 8a ba
       0.00042745043 0.00056764146 0.0012491763 -0.0010531585
000080 6c 5a 7d ba d1 28 6d 3a 6a 20 66 3a 99 1b 81 ba
       -0.0009664658 0.00090469146 0.0008778634 -0.0009850144
000090 8e c5 7e 38 6b ec 3c ba 47 c6 b8 3a 60 c6 2d ba
       6.0742306e-05 -0.000720686 0.0014097177 -0.00066289864
0000a0 a4 24 92 39 5a cc ee b9 c8 3f a8 3a c8 9d 97 ba
       0.0002787459 -0.0004554715 0.0012836391 -0.0011567408
0000b0 6b 49 ea b8 88 10 1b ba 86 4c 82 3a 34 d4 78 3a
       -0.00011171665 -0.0005915244 0.0009941019 0.000949207
0000c0 7a ce 3f 3a 09 69 44 ba 7e 59 33 ba 26 a1 f9 b9
       0.0007316839 -0.0007492458 -0.00068416435 -0.00047613046
0000d0 c2 6c 08 3a e2 c3 58 3a 4c 66 30 3a 89 df 63 3a
       0.00052041945 0.0008268935 0.00067291106 0.0008692672
0000e0 71 3c 8d ba 5f 6f 5b ba 61 8b 89 3a 1c ad 35 ba
       -0.0010775459 -0.00083707826 0.0010493809 -0.00069303974
0000f0 c1 aa 9f 38 f8 91 c6 b9 dc 11 2e 3a 69 d0 a6 39
       7.613516e-05 -0.00037874258 0.00066402345 0.00031817265
000100 0f 09 15 3a 64 46 92 38 b9 6e 95 ba 6b ef f8 b8
       0.0005685249 6.974934e-05 -0.0011400796 -0.000118701566
000110 5b 60 88 ba 93 43 19 ba 5d cc 3c ba a1 3b 60 3a
       -0.0010404693 -0.0005846556 -0.00072020834 0.0008553807
000120 c6 a3 5f 3a 34 88 f2 b9 1e 62 6f ba 16 53 57 3a
       0.0008531179 -0.00046259316 -0.0009131747 0.000821398
000130 0e 50 02 39 ab 59 95 3a 55 fd 18 ba 3d 77 a8 ba
       0.00012427589 0.0011394521 -0.0005836089 -0.0012852919
000140 77 20 d1 3a e7 a6 0a 3a fe fa 21 b7 23 e1 63 3a
       0.001595511 0.00052891526 -9.6547865e-06 0.0008692911
000150 23 81 5f ba ba e4 e2 39 f4 09 36 ba e5 1d 7a 3a
       -0.0008526018 0.00043276494 -0.0006944232 0.0009541198
000160 96 b5 95 ba 8d ea a2 38 7f c4 17 ba 82 15 0c 38
       -0.0011421915 7.7684505e-05 -0.0005789473 3.339863e-05
000170 d1 bb 71 3a 7c 49 6d ba dc db 62 39 1a 01 08 ba
       0.0009221407 -0.00090517825 0.00021634944 -0.00051881524
000180 c8 1c 8a ba bb b9 1a ba ad dc 10 3a 2b 4f fa 39
       -0.0010537142 -0.000590231 0.00055260473 0.000477427
000190 26 fd 86 3a be 48 69 39 37 73 76 39 2b 07 8f ba
       0.0010298833 0.0002224771 0.00023503309 -0.001091217
0001a0 ee 17 57 38 6c 4d 86 3a 75 f7 fc b9 13 47 17 ba
       5.128228e-05 0.0010246462 -0.00048249555 -0.0005770784
0001b0 03 ef 03 ba 59 a4 8c ba c8 3e 85 3a 7d b8 11 3a
       -0.0005032869 -0.0010730132 0.0010165805 0.0005558802
0001c0 b4 f6 cb b8 61 e3 a6 b9 e3 e4 20 3a 5c cd 94 ba
       -9.725746e-05 -0.00031831398 0.00061376224 -0.0011352706
0001d0 7e 0d 02 ba ab 62 a4 3a 30 3f 91 3a 51 27 1e b9
       -0.0004961117 0.0012541612 0.0011081453 -0.000150827
0001e0 eb 26 97 ba 19 80 84 ba 05 ba bc ba c6 fa bf 39
       -0.0011531984 -0.0010108977 -0.00143987 0.000366172
0001f0 a1 ab 05 ba 85 25 61 ba aa 97 bf ba 01 9a 92 b7
       -0.0005099122 -0.00085886597 -0.0014617343 -1.747627e-05
000200 c3 1c 64 3a 6c a8 c3 b8 98 78 e8 b9 ba d8 05 3a
       0.00087017956 -9.3296956e-05 -0.00044340338 0.0005105842
000210 ab 31 85 ba 5a ec 15 39 78 5e 28 ba ae 21 c5 b9
       -0.0010161897 0.00014297795 -0.00064227683 -0.0003759986
000220 76 1d 79 ba 5c d1 26 3a 43 b4 85 b9 74 d8 88 ba
       -0.0009502986 0.00063635944 -0.00025502042 -0.0010440485
000230 65 85 a2 3a 57 b3 9f ba a8 11 1d 3a 89 af 42 ba
       0.0012399374 -0.0012184185 0.00059917057 -0.00074266695
000240 17 c2 86 3a a9 71 9e ba 00 cf a7 b9 fd 7f 98 ba
       0.0010281232 -0.0012088317 -0.0003200695 -0.0011634823
000250 00 74 9e 3a 1a e2 ab ba 36 e3 06 ba a2 b7 8a 3a
       0.0012089014 -0.0013113648 -0.00051455514 0.0010583291
000260 14 3c 4c 3a 60 f4 8c ba a2 15 6b 3a fd e5 b3 3a
       0.0007790935 -0.0010753982 0.0008967762 0.0013725158
000270 81 67 13 38 1d 98 64 3a 63 50 bf ba ae 24 44 3a
       3.5143927e-05 0.00087201764 -0.0014596101 0.00074822723
000280 f6 cc 01 ba 5f 35 59 3a eb df b0 3a 6a f1 38 38
       -0.0004951501 0.0008285846 0.0013494467 4.4093853e-05
000290 2d ab f6 38 f3 33 2c ba 33 fb 69 ba 88 d4 30 3a
       0.00011762078 -0.00065690203 -0.0008925676 0.0006745537
0002a0 6c fa 1e 3a 00 00 4f 3a da ba 94 38 08 ef 27 3a
       0.00060645374 0.00078964233 7.091994e-05 0.0006406163
0002b0 cc e5 06 ba 8b 30 d7 ba 16 a4 da 39 24 d2 25 38
       -0.0005145937 -0.0016417665 0.00041702454 3.9534774e-05
0002c0 09 78 cb 39 04 60 41 ba c1 50 53 ba 91 ff 1f 3a
       0.0003880861 -0.0007376673 -0.00080610445 0.0006103451
0002d0 40 18 95 ba 41 6d 52 ba b4 b1 cf 39 d4 ca 3c ba
       -0.0011375025 -0.00080271444 0.00039614516 -0.00072018546
0002e0 04 fa 47 3a 59 3c 4a 3a 85 a2 89 ba 08 cc aa ba
       0.0007628503 0.0007714681 -0.0010500705 -0.0013030777
0002f0 62 aa 66 ba 8c 15 d8 b9 22 ec 83 3a ee 55 2a ba
       -0.0008799193 -0.00041214784 0.001006488 -0.000649779
000300 ff 17 9b 3a 34 c2 9d 3a 7a 5d 3f 3a 75 e0 4a ba
       0.0011832713 0.0012036026 0.0007300001 -0.0007739135
000310 13 6f 87 38 b4 0a a8 3a 52 7d a3 ba 09 30 1f 3a
       6.457991e-05 0.0012820573 -0.0012473261 0.00060725264
000320 f7 96 8c 3a 5e 46 62 3a 0c 03 30 ba bd 82 92 ba
       0.0010726143 0.00086317013 -0.0006714321 -0.0011177879
000330 6f 07 1b ba 33 33 5a 3a 11 7a f5 38 0d 13 5c ba
       -0.00059138885 0.00083236693 0.00011705247 -0.0008395173
000340 d6 92 14 ba cf a4 b2 ba 2f 3f 75 3a bd 19 7a b8
       -0.0005667632 -0.0013629439 0.00093554234 -5.9628615e-05
000350 b2 b4 54 3a f9 9e 60 ba bc 63 a6 b9 2d ee 14 3a
       0.0008114084 -0.00085686106 -0.00031736295 0.0005681243
000360 47 48 6a ba 38 c8 a0 b8 03 c6 78 ba 0d 65 34 3a
       -0.0008937162 -7.666688e-05 -0.0009489955 0.0006881513
000370 8e 70 75 ba 45 f2 05 ba 0a 1b 55 b9 31 be 52 ba
       -0.000936278 -0.00051096483 -0.00020323336 -0.0008039205
000380 ca ae c2 ba 02 f9 9e 39 a1 d5 39 ba 4d 87 d3 39
       -0.0014853117 0.00030321634 -0.0007089023 0.00040345863
000390 66 43 a4 b9 e8 58 03 ba 0d 3e 16 ba c9 12 33 3a
       -0.00031330733 -0.00050105015 -0.0005731292 0.00068311073
0003a0 e1 c1 28 3a 7a b1 aa 3a 80 04 76 3a 67 43 dc 39
       0.00064375816 0.0013022863 0.0009384826 0.0004201189
0003b0 e6 27 f6 39 73 b8 89 3a 20 62 d7 39 8e b6 03 3a
       0.00046950503 0.0010507241 0.00041081104 0.0005024456
0003c0 8e 55 80 b9 ed 24 36 3a 12 cb 56 ba be 70 96 b9
       -0.00024477806 0.00069482514 -0.0008193712 -0.0002869423
0003d0 78 22 83 3a 02 44 c0 3a 1d eb 4c ba a7 3f 35 ba
       0.0010004779 0.0014668705 -0.0007817017 -0.0006914087
0003e0 de ff ab b9 b6 e6 ba b8 8f 6f 4f 3a 2d 44 ca 39
       -0.00032806298 -8.9121444e-05 0.0007913047 0.00038579237
0003f0 09 ec 68 b8 2e 78 f7 b9 a1 5e 82 3a 37 a6 9a 39
       -5.5532935e-05 -0.00047201052 0.0009946415 0.0002949701
