lora_snapshots_kl_divergence/step_000890/base_model_model_model_layers_24_A_and_B.pt (torch, 77997 bytes, 2 tensors)

A f4 [1, 13824]
-0.0101839155 -0.003429593 0.004552831 -0.0015749794 -0.0024658707 -0.006263513 0.007875619 -0.0075642145
0.000948035 0.008048991 -0.0019941318 0.007131715 0.0053724614 -0.0040231966 -0.0029134809 -0.011996161
0.009957427 0.0021834688 -0.005227582 0.0068352427 -0.0040523116 0.002084563 0.0014244451 0.007688369
-0.008369661 -0.008825265 -0.0088113 0.00703036 0.004936246 0.010552737 -1.804735e-05 -0.0021886504
-0.0034238202 -0.008338208 -0.0012868645 -0.0034641034 -0.0011042277 -0.006686834 -0.007869675 -0.003824645
-0.01044305 -0.001024891 0.0016625939 0.005673305 0.0072610755 0.006651247 -0.006861335 -0.0024372537
-0.008286861 -1.21139865e-05 0.008483577 -0.006574199 0.0026313786 -0.003860991 -0.005128636 -0.00079075556
-0.0009452212 -0.012428476 -0.006269796 0.0020522035 -0.0029399085 0.0059188316 0.0061173677 0.006434783
0.0016924785 -0.0134213045 0.0059174937 0.0015499643 0.0050263875 -0.0054523363 0.005313102 -0.005401908
0.009520509 0.007331184 0.0029697362 0.0026131961 -0.008637769 -0.0009762302 0.0013218864 -0.0002518126
-0.004046158 0.00755633 -0.0059298677 0.003981232 0.0044002696 0.000414189 -0.0031862934 0.00600019
0.0006812773 0.00024657542 -0.005087201 0.0019825783 -0.0034021402 0.0058630467 0.0035432645 -0.0074287676
-0.0004504574 -0.0045429314 0.0017482184 0.006504642 0.005592772 0.0027046422 -0.002073949 -0.0017069496
-0.0025281722 0.0049665086 0.0043198676 -0.008818715 0.008490563 0.011562105 -0.0038783795 0.0057789786
-0.0036422687 0.0067613362 -0.00512413 0.007158522 0.011223272 0.006377123 -0.0061384183 -0.0004723037
0.0017934459 -0.006398073 -7.5633776e-05 0.0012652957 0.013699669 0.0016897996 -0.006749672 0.0004579473
0.0030445438 0.011429017 -0.0061556622 -0.0044635492 -0.008119047 0.0012353377 -0.0024635447 0.008573689
-0.0039343615 0.0035295766 -0.0020783106 -0.00064439856 0.0019868594 0.007896526 -0.0065345457 0.006977396
-0.0038052597 -0.00021721651 0.0013241784 0.009890664 -0.00042624443 0.0017897065 0.007150772 0.0038475543
0.0035134526 -0.005048015 -0.006907805 -0.004071925 0.0030478428 0.0022525352 0.005795199 -0.007944207
0.0057908096 -0.0044587688 -0.00975287 0.00040909502 -0.004084655 -0.008425741 0.0027059666 0.002386914
-0.007822712 -0.0010748119 0.0032101441 0.009153705 -0.006110243 -0.0025038817 -0.0046853735 -0.007859138
2.575623e-05 0.0041835974 0.007162909 -0.00036576198 -0.0035308877 -0.0038363978 -0.003507426 0.00683107
0.0074963467 -0.0051416783 -0.010580265 0.0005651941 -0.00072622526 0.001589608 0.008077715 -0.0036873908
-0.0047200667 -0.002559987 0.0020136477 0.0019466258 -0.002776716 -0.006651611 0.004499188 -0.0065986672
0.007282734 0.004718961 0.00028045833 0.008028076 -0.0034017195 -0.000525718 -0.0037171382 -0.00836992
0.009852702 0.0042612744 -0.0020484459 0.008388862 0.002581668 0.009942218 -0.0023773224 0.0012122238
0.0055987397 0.0025304381 0.008630409 -0.008406344 -0.00045278348 -0.004448345 0.009445882 -0.0028830958
1.8049683e-05 0.0065007275 0.0074402546 -0.0028871002 0.005125434 0.011366567 -0.0013893731 0.00681667
-0.0070172804 0.0028831128 0.010998726 0.0015747813 0.0032538567 0.0041977377 -0.0018272703 -0.0025965762
0.0079292245 -0.005401985 0.0049995864 0.0068689105 -0.0048889746 -0.0067800772 0.0007627665 0.010156636
-0.005750484 0.0063206637 0.005366912 0.0037668087 0.0051715365 -0.0066325627 0.003512782 -0.004544653
00000000: 70da 26bc 06c3 60bb ea2f 953b 8a6f ceba
00000010: 729a 21bb 283e cdbb be08 013c 3bdd f7bb
00000020: 8d85 783a eadf 033c fbaf 02bb 29b1 e93b
00000030: 790b b03b 05d5 83bb 19f0 3ebb 8c8b 44bc
00000040: 7a24 233c 8718 0f3b 234c abbb 2cfa df3b
00000050: 41c9 84bb 2a9d 083b 72b4 ba3a b7ee fb3b
00000060: e720 09bc d897 10bc 455d 10bc ef5e e63b
00000070: 3cc0 a13b 63e5 2c3c 6464 97b7 766f 0fbb
00000080: 2c62 60bb fb9c 08bc 02ac a8ba 0306 63bb
00000090: bcbb 90ba 3b1d dbbb cfef 00bc e5a6 7abb
000000a0: 5419 2bbc a355 86ba 65eb d93a 22e7 b93b
000000b0: 51ee ed3b b4f2 d93b 0dd5 e0bb 55ba 1fbb
000000c0: 9dc5 07bc 2d3d 4bb7 b3fe 0a3c 616c d7bb
000000d0: 3573 2c3b ae08 7dbb 1e0e a8bb b54a 4fba
000000e0: b9c8 77ba cea0 4bbc dc72 cdbb 437e 063b
000000f0: 7bab 40bb c2f2 c13b 3374 c83b dfda d23b
00000100: 28d6 dd3a 08e5 5bbc 89e7 c13b 2c28 cb3a
00000110: 65b4 a43b 83a9 b2bb 8819 ae3b 7d02 b1bb
00000120: e9fb 1b3c 6e3a f03b e89f 423b 2842 2b3b
00000130: 6e85 0dbc b3e9 7fba 2643 ad3a b705 84b9
00000140: a295 84bb 179b f73b 564f c2bb ff74 823b
00000150: 2330 903b 8227 d939 22d1 50bb 3e9d c43b
00000160: bf97 323a cb46 8139 89b2 a6bb 25ee 013b
00000170: 71f6 5ebb cd1e c03b 1d36 683b 056d f3bb
00000180: 5e2b ecb9 dfdc 94bb 7a24 e53a e424 d53b
00000190: 9243 b73b 5e40 313b 17eb 07bb b9bb dfba
000001a0: b1af 25bb 18be a23b ad8d 8d3b 5f7c 10bc
000001b0: 011c 0b3c fc6e 3d3c 692c 7ebb 965d bd3b
000001c0: 21b3 6ebb 338e dd3b 51e8 a7bb 0992 ea3b
000001d0: d1e1 373c 2ff7 d03b c924 c9bb 889f f7b9
000001e0: 0f12 eb3a eda6 d1bb 939d 9eb8 47d8 a53a
000001f0: 9474 603c 447c dd3a 5a2c ddbb a518 f039
00000200: f886 473b c640 3b3c 70b5 c9bb f742 92bb
00000210: c005 05bc 0eeb a13a 6c73 21bb a878 0c3c
00000220: d1eb 80bb 7850 673b 4434 08bb dbec 28ba
00000230: f835 023b 6e60 013c be1f d6bb a4a2 e43b
00000240: aa61 79bb 9dc4 63b9 0e90 ad3a 740c 223c
00000250: 8f79 dfb9 9694 ea3a 0651 ea3b 4027 7c3b
00000260: f441 663b d269 a5bb de5a e2bb c86d 85bb
00000270: 51be 473b 459f 133b a7e5 bd3b 6b28 02bc
00000280: d5c0 bd3b dd1a 92bb 80ca 1fbc ce7b d639
00000290: 92d8 85bb 1f0c 0abc 9656 313b c66d 1c3b
000002a0: d52a 00bc b4e0 8cba 4861 523b 6cf9 153c
000002b0: 6f38 c8bb 2a18 24bb c387 99bb 9dc3 00bc
000002c0: 150f d837 8f16 893b d6b6 ea3b bec3 bfb9
000002d0: 7766 67bb 136c 7bbb d8dc 65bb 2bd7 df3b
000002e0: eaa3 f53b 867b a8bb d958 2dbc 8929 143a
000002f0: 2760 3eba 655a d03a 6458 043c 27a8 71bb
00000300: caaa 9abb 74c5 27bb 67f7 033b ec25 ff3a
00000310: 90f9 35bb c2f5 d9bb ed6d 933b a239 d8bb
00000320: 00a4 ee3b 84a1 9a3b 7b0a 9339 3188 033c
00000330: 62ef 5ebb 56d0 09ba 3b9b 73bb fd21 09bc
00000340: 3a6d 213c 29a2 8b3b 383f 06bb 7071 093c
00000350: 3431 293b afe4 223c dacc 1bbb 7be3 9e3a
00000360: a275 b73b b5d5 253b 8f66 0d3c c3ba 09bc
00000370: 9263 edb9 6cc3 91bb e7c2 1a3c 52f2 3cbb
00000380: 6669 9737 0e04 d53b 61cd f33b 8135 3dbb
00000390: 42f3 a73b d63a 3a3c a01b b6ba 5f5e df3b
000003a0: 37f1 e5bb 9bf2 3c3b 0034 343c e468 ce3a
000003b0: a83e 553b 2d8d 893b 0481 efba 522b 2abb
000003c0: 94e9 013c 2203 b1bb 92d3 a33b 9914 e13b
000003d0: b133 a0bb 692b debb 65f4 473a 0568 263c
000003e0: 8e6e bcbb 921d cf3b ecdc af3b 90dc 763b
000003f0: fe75 a93b f855 d9bb b436 663b 50eb 94bb

B f4 [5120, 1]
-0.0020302893 8.99482e-05 -0.0010464394 0.0014263088 -0.00097028847 -0.0015247463 0.00017194744 -0.00068246335
0.00020311664 0.0027576333 -0.001389113 0.000915067 -0.0014728234 0.0010475256 0.0008782572 0.0014962323
0.00070627534 -0.0012785414 -0.0014211374 0.0004832982 -0.0013079711 -0.0003976988 -0.0005891942 0.001289602
-0.0022284954 0.001028926 0.0018020858 0.000853485 0.0030213683 0.00047764202 -0.0025164592 0.00034314085
0.0009738728 -0.0013638849 0.0002054215 3.2504722e-05 0.0012412134 0.0012852038 -0.0019637595 -0.00035603857
-0.0022578635 -0.0013501784 0.0029767924 1.0266625e-05 -0.0010361432 0.0017161113 -0.0016666322 0.0009383825
0.0029230025 -0.0010809522 0.00034787218 0.0004883743 0.0012223008 0.00094301417 -4.4135966e-05 0.0009863655
0.0011719804 0.001315335 4.1540996e-05 -0.00026192903 0.0016297804 -0.00038005706 0.0013637528 0.00019050346
0.0006305368 0.00010368983 -0.002567394 0.0027171182 0.0017187307 0.00022734348 -0.00052169914 0.0054120943
-0.0026718334 0.00035869316 0.00047943761 -0.0002695542 -0.0006398222 -0.0020336844 0.0011206452 -0.0010846725
0.00061844476 0.0011420047 0.003769097 -0.0011706005 -0.00038696837 -0.0015657565 0.0021431346 0.0002948893
-0.00014716481 0.00072515523 0.0008689592 -0.002418557 0.00022875337 0.00247663 -1.0584306e-05 -0.0021984237
0.0016270586 -0.0013205933 -0.00047580412 -0.001892313 -0.0010709612 -0.0035129923 1.3525842e-05 -0.00051437336
-0.00025117266 -0.0012009979 -0.0012148952 -0.0011021589 -0.00042557262 0.0001801732 0.0038732023 -0.00010370619
0.0011267003 -0.00051241927 -0.00066397805 0.00063504727 -0.0012487726 0.00018875873 0.0006740346 0.00024523528
0.00058195856 0.0018118822 -0.0021661841 0.0019317653 -0.0014602414 -0.000328892 0.0026136776 -0.00030384338
0.00033369305 -0.0019593518 -0.0009668608 0.0029499903 0.0025443463 -0.0023128397 0.000108335684 -0.0005739682
-0.00075046 -0.002346489 -0.0005935693 -0.002458561 -0.0017864649 0.0014483395 0.00124316 0.00019110428
-0.002056055 -0.0008427724 0.0012186528 0.00018320861 -0.0003128302 0.00040160216 -0.0019923053 -0.0014012388
-0.00036766846 0.0016352918 -0.0007791356 -0.00033297867 0.00081797835 -0.00059229316 0.0006098535 0.0015229154
-0.002987742 0.0014609764 -0.0003122947 -0.0011200849 0.0005100039 -0.0027965622 -0.0013147136 -0.0005674413
-0.0023231562 -8.667811e-05 0.000213257 -0.00061594177 0.00055078306 -0.0003295135 0.0010254405 0.00015078741
-0.001083529 -0.0009471663 0.0028748359 0.0005051486 -0.0007393261 0.0003364442 0.0012913409 0.0013402519
0.00044770454 -0.0009650471 0.00048566196 0.00028835997 0.0006061867 0.0003172359 -0.001865217 0.001494011
-0.0024813642 -0.0006737466 -0.0018539951 0.0013181107 -0.00021699161 0.000894104 -0.00054007256 0.0029502483
-0.000873128 -0.002148752 0.0014748021 0.00082177395 0.00010249423 -0.0014728014 0.0017423289 7.949575e-05
0.0045347465 0.00029402119 0.00044354264 0.0030178207 -0.0011012112 0.0046002227 0.0007900086 -0.000101053076
-0.0024000925 0.00038603024 0.00030502272 0.0019695547 0.00034818018 0.002447983 -0.0018216074 0.0016734791
0.0011175418 -0.0028546234 0.0009750896 0.000704128 9.239972e-05 -0.0014751308 -0.0017814918 -0.0015608618
-0.0003081644 0.0004184669 0.0002063944 0.00095194747 -0.004090022 0.0006951054 0.00077619584 0.0016602961
-0.00011656835 -0.0011386876 0.00090082537 0.0004806808 0.004039093 -0.00032946843 -0.0019945232 0.0004263427
0.0004119184 0.000372183 -0.0008068434 -0.003405498 0.0025190294 0.002589325 -0.00036696374 -0.002200506
00000000: 9a0e 05bb 92a2 bc38 ae28 89ba fbf2 ba3a
00000010: f55a 7eba ffd9 c7ba ca4c 3439 57e7 32ba
00000020: b5fb 5439 69b9 343b e612 b6ba 1be1 6f3a
00000030: c10b c1ba 204d 893a d83a 663a 3a1d c43a
00000040: 5625 393a bb94 a7ba 7545 baba 3063 fd39
00000050: 3a70 abba 3b82 d0b9 2774 1aba dd07 a93a
00000060: f30b 12bb 07dd 863a f733 ec3a 69bc 5f3a
00000070: 2602 463b 076c fa39 2eeb 24bb 96e7 b339
00000080: 7f4b 7f3a 62c4 b2ba 6a66 5739 ae55 0838
00000090: 36b0 a23a 4974 a83a 6bb2 00bb b0aa bab9
000000a0: aaf8 13bb 78f8 b0ba 4a16 433b d23e 2c37
000000b0: 32cf 87ba 24ef e03a e672 daba c9fd 753a
000000c0: d88f 3f3b bdae 8dba 9d62 b639 3f06 003a
000000d0: 9c35 a03a 9c34 773a a21e 39b8 ef48 813a
000000e0: 239d 993a 5267 ac3a 4e3c 2e38 8553 89b9
000000f0: 5b9e d53a 6542 c7b9 f3bf b23a e2c1 4739
00000100: 9c4a 253a 0e74 d938 b941 28bb ae11 323b
00000110: 0847 e13a 0d63 6e39 a3c2 08ba f057 b13b
00000120: ed19 2fbb fb0e bc39 075d fb39 f452 8db9
00000130: beb9 27ba 9047 05bb 9de2 923a 922b 8eba
00000140: 201f 223a 52af 953a f402 773b d66e 99ba
00000150: 04e2 cab9 123a cdba d573 0c3b 5f9b 9a39
00000160: 4150 1ab9 5818 3e3a ddca 633a a780 1ebb
00000170: 84dd 6f39 f54e 223b 4093 31b7 6e13 10bb
00000180: 0743 d53a c217 adba 5975 f9b9 7d07 f8ba
00000190: 7f5f 8cba 3b3a 66bb 0ded 6237 03d7 06ba
000001a0: d3af 83b9 cd6a 9dba 1e3d 9fba 5176 90ba
000001b0: 641f dfb9 e0ec 3c39 8dd5 7d3b d67c d9b8
000001c0: caad 933a e053 06ba d00e 2eba 4d79 263a
000001d0: dbad a3ba 89ed 4539 b2b1 303a ec92 8039
000001e0: 948e 183a ae7c ed3a 8af6 0dbb 4a33 fd3a
000001f0: 9265 bfba 236f acb9 3c4a 2b3b 2b4d 9fb9
00000200: 86f3 ae39 7868 00bb ee74 7dba a054 413b
00000210: 0cbf 263b 0393 17bb 4732 e338 5b76 16ba
00000220: 85ba 44ba 8ec7 19bb c399 1bba cf1f 21bb
00000230: d127 eaba 36d6 bd3a 87f1 a23a 2a63 4839
00000240: e1be 06bb 80ed 5cba 34bb 9f3a b01b 4039
00000250: 5c03 a4b9 218e d239 5691 02bb c6a9 b7ba
00000260: a0c3 c0b9 4a57 d63a e83e 4cba a493 aeb9
00000270: 996d 563a 1f44 1bba 93de 1f3a 909c c73a
00000280: fecd 43bb 3c7e bf3a 7cbb a3b9 d0cf 92ba
00000290: c8b1 053a 8746 37bb 7852 acba 57c0 14ba
000002a0: 1840 18bb f5c6 b5b8 bd9d 5f39 2777 21ba
000002b0: 6d62 103a 8ec2 acb9 1368 863a b01c 1e39
000002c0: 3305 8eba 414b 78ba be67 3c3b f36b 043a
000002d0: 56cf 41ba c764 b039 3642 a93a 64ab af3a
000002e0: e3b9 ea39 37fb 7cba 72a0 fe39 052f 9739
000002f0: 80e8 1e3a af52 a639 4c7a f4ba b1d2 c33a
00000300: 629e 22bb 5e9e 30ba c101 f3ba 75c4 ac3a
00000310: 3e88 63b9 4e62 6a3a a893 0dba f458 413b
00000320: a1e2 64ba 14d2 0cbb 264e c13a 516c 573a
00000330: 2cf2 d638 040b c1ba db5e e43a f5b6 a638
00000340: 3698 943b db26 9a39 498b e839 a1c6 453b
00000350: 8456 90ba 77bd 963b 9418 4f3a 75ec d3b8
00000360: df4a 1dbb 1a64 ca39 75eb 9f39 a513 013b
00000370: f48b b639 576e 203b 00c3 eeba a458 db3a
00000380: 7b7a 923a a214 3bbb 289d 7f3a 3b95 383a
00000390: b9c6 c138 2d59 c1ba f280 e9ba d595 ccba
000003a0: 2091 a1b9 ad65 db39 936b 5839 1d8c 793a
000003b0: 9705 86bb bc37 363a 9f79 4b3a 4b9e d93a
000003c0: 2876 f4b8 0440 95ba 5e25 6c3a e303 fc39
000003d0: 5e5a 843b 81bc acb9 8cb6 02bb c086 df39
000003e0: c0f6 d739 8f21 c339 5882 53ba c72e 5fbb
000003f0: 4d16 253b aab1 293b 0a65 c0b9 5d36 10bb
