lora_snapshots_kl_divergence/step_000780/base_model_model_model_layers_24_A_and_B.pt (torch, 77997 bytes, 2 tensors)

A f4 [1, 13824]
000000 60 0d 26 bc ee 94 50 bb c3 4c 94 3b d8 9d c3 ba
       -0.010135025 -0.003182705 0.0045257523 -0.001492436
000010 8f 93 15 bb 54 bd cd bb 2e 99 ff 3b 1f f8 f4 bb
       -0.0022823547 -0.006278673 0.007800243 -0.0074758674
000020 23 6b 79 3a 17 5b 03 3c 04 8e 0e bb 62 85 e9 3b
       0.0009514561 0.008017323 -0.0021752128 0.007126496
000030 cf d7 af 3b 91 7f 89 bb fb d4 40 bb 5d 69 43 bc
       0.0053663026 -0.0041961153 -0.0029423821 -0.011926976
000040 af 92 21 3c 0a 74 0e 3b a4 ff a8 bb 69 8a e0 3b
       0.009861632 0.0021736645 -0.005157428 0.0068524373
000050 83 39 83 bb 37 df 0a 3b d9 6c b5 3a 77 6b f3 3b
       -0.0040046587 0.0021190175 0.0013841643 0.0074285823
000060 fb d1 06 bc 99 1e 0f bc 06 c9 0f bc 2f 16 e7 3b
       -0.008228774 -0.008735322 -0.008775955 0.007052205
000070 f1 78 a3 3b 49 46 2d 3c bb 31 84 38 33 0c 10 bb
       0.0049887826 0.010575839 6.3035135e-05 -0.0021979928
000080 9d 62 66 bb 6f 3c 09 bc ac f1 b0 ba 77 56 65 bb
       -0.0035153993 -0.008376225 -0.0013499758 -0.0034994164
000090 4c 9a 97 ba 12 93 da bb e9 04 01 bc 95 90 6b bb
       -0.001156637 -0.006670364 -0.007874706 -0.0035944332
0000a0 d8 7e 27 bc 14 6a 68 ba 3d f0 da 3a a6 93 ba 3b
       -0.010223113 -0.00088659045 0.0016703677 0.0056938706
0000b0 f3 89 ea 3b f3 96 d8 3b f8 c8 df bb cc 16 1a bb
       0.007157558 0.0066097914 -0.0068293773 -0.0023512123
0000c0 7f f7 04 bc 67 f6 9a 38 6c b5 0a 3c e3 bc d7 bb
       -0.008115648 7.389188e-05 0.008466106 -0.0065837963
0000d0 88 cd 33 3b a8 66 80 bb 41 34 a6 bb 60 16 63 ba
       0.0027435739 -0.0039184876 -0.005072147 -0.0008662697
0000e0 c6 bc 6c ba 6b c4 49 bc 2c ff cc bb 2c a1 0b 3b
       -0.0009030815 -0.012314896 -0.006256005 0.0021305783
0000f0 8d b9 3d bb 49 5a c2 3b 79 dd c1 3b d6 c4 cd 3b
       -0.0028949708 0.005931173 0.005916294 0.006279568
000100 28 54 e3 3a cd e2 59 bc e6 93 c0 3b 0c b3 dc 3a
       0.0017343806 -0.013298702 0.005877006 0.0016838028
000110 3a 93 a1 3b 76 ad b4 bb c2 56 b0 3b c9 e4 b0 bb
       0.004930881 -0.005513842 0.005381436 -0.005398367
000120 95 9a 1d 3c 33 83 ef 3b 17 20 40 3b e7 36 29 3b
       0.009619375 0.0073093413 0.0029316002 0.0025820078
000130 ca e8 0b bc 90 d6 65 ba 9b 7a b3 3a 0a 13 5a b9
       -0.008539388 -0.0008767629 0.0013693155 -0.00020797193
000140 d1 fe 80 bb bb ba f6 3b 12 d8 c2 bb 6d 33 7d 3b
       -0.0039366265 0.007529584 -0.0059461677 0.0038635388
000150 30 dc 90 3b e5 d8 27 3a 64 40 51 bb a5 1a bd 3b
       0.0044207796 0.0006402864 -0.003192925 0.0057709985
000160 5c 38 34 3a d3 b0 16 39 b7 c1 a6 bb 0a df 01 3b
       0.0006874853 0.00014370987 -0.0050890106 0.001981678
000170 ed 26 62 bb e0 7f be 3b 73 ec 69 3b d9 24 ee bb
       -0.0034508065 0.0058135837 0.0035693913 -0.007267576
000180 d1 32 0a ba 58 8c 94 bb 9e cc e1 3a 40 3d d1 3b
       -0.00052718545 -0.004533332 0.0017227118 0.0063854754
000190 bd e7 b6 3b 1a b6 31 3b 03 49 06 bb 25 33 de ba
       0.0055818246 0.0027116598 -0.0020490296 -0.0016952498
0001a0 cf d4 2d bb 0e 05 a3 3b 4a 2e 88 3b b3 c3 0f bc
       -0.002652455 0.004974968 0.0041559087 -0.008774686
0001b0 eb e8 0a 3c e3 01 3c 3c 8a 79 77 bb a7 8f b7 3b
       0.0084783835 0.011475059 -0.0037761652 0.0056018415
0001c0 a1 43 72 bb a8 4a dd 3b d5 aa a6 bb aa b4 e9 3b
       -0.003696658 0.0067532845 -0.0050862827 0.0071321325
0001d0 1c 84 32 3c ab dd d0 3b c1 6b c9 bb 20 fc cd b9
       0.010895755 0.006374081 -0.0061468785 -0.00039288495
0001e0 fd 96 eb 3a 1e be c5 bb 6a bb 3b b7 e7 bb a4 3a
       0.0017974075 -0.0060346266 -1.1189704e-05 0.0012568206
0001f0 ac e0 5f 3c 59 f0 da 3a 4c 22 d7 bb d7 68 98 39
       0.013664406 0.0016703709 -0.006565368 0.0002906981
000200 63 bf 45 3b e3 c6 39 3c c9 33 cb bb ae ea 97 bb
       0.003017389 0.011338922 -0.0062012416 -0.0046361303
000210 b7 dd 04 bc 85 66 ae 3a d2 54 34 bb 98 05 0b 3c
       -0.008109502 0.00133057 -0.0027516377 0.00848522
000220 db 65 7d bb 62 e9 67 3b bd 53 fc ba 07 b9 3f ba
       -0.0038665447 0.003538691 -0.001925103 -0.0007313643
000230 2f 80 0d 3b 8a 4b 01 3c ea 4a d5 bb 35 2f e4 3b
       0.0021591296 0.007891545 -0.0065091746 0.0069636353
000240 81 c7 81 bb e4 98 b6 b9 50 47 97 3a a5 81 22 3c
       -0.0039605503 -0.00034827658 0.0011541639 0.009918605
000250 ac 5b f3 b9 b3 cc ec 3a 4e b4 e7 3b ce d6 7e 3b
       -0.00046416873 0.0018066376 0.0070710545 0.0038885358
000260 f3 49 61 3b 5b 0c a7 bb b5 95 e3 bb e3 89 87 bb
       0.0034376353 -0.0050979084 -0.0069453367 -0.0041363104
000270 16 43 51 3b a6 81 12 3b e3 c2 b8 3b 25 04 03 bc
       0.0031930855 0.0022355109 0.0056384667 -0.007996594
000280 da 04 bb 3b aa fa 92 bb e3 29 20 bc 41 90 dd 39
       0.0057073655 -0.004485448 -0.009775612 0.00042259882
000290 15 a4 84 bb ad 95 09 bc b7 73 2a 3b f5 bf 1c 3b
       -0.0040478804 -0.008397502 0.0026008913 0.0023918126
0002a0 71 4f ff bb c9 e8 91 ba f3 9a 57 3b 82 cd 14 3c
       -0.0077914526 -0.0011131997 0.0032898753 0.0090822
0002b0 a7 4d c9 bb e3 f4 20 bb da e0 97 bb 9a 2f 04 bc
       -0.00614329 -0.0024560026 -0.0046349587 -0.00806799
0002c0 18 56 b6 b8 e3 0c 8a 3b 3c 3b ee 3b 07 7c f3 b9
       -8.6944725e-05 0.004212962 0.007270245 -0.0004644098
0002d0 b1 cf 61 bb 49 79 78 bb 60 17 5d bb 99 eb d9 3b
       -0.003445607 -0.0037914088 -0.0033735856 0.0066504
0002e0 91 6e f4 3b c6 9a a8 bb b3 4a 2c bc e0 d3 10 3a
       0.0074594696 -0.0051454036 -0.010515857 0.0005524736
0002f0 29 2d 47 ba 51 62 cb 3a 29 d9 03 3c cc 4a 68 bb
       -0.0007597977 0.0015516971 0.0080473805 -0.0035444973
000300 a2 60 9a bb 83 29 26 bb 76 71 01 3b e5 a3 02 3b
       -0.0047112266 -0.0025354333 0.0019751466 0.0019934115
000310 fc 8c 32 bb f2 1c da bb 0a d6 93 3b 73 8a d7 bb
       -0.0027244678 -0.0066562826 0.0045115994 -0.0065777837
000320 08 09 ed 3b 84 de 94 3b 06 8f 8f 39 97 5a 00 3c
       0.0072337426 0.0045431275 0.00027381646 0.007834098
000330 35 4c 61 bb 78 da 0a ba 27 5a 79 bb 25 25 09 bc
       -0.0034377698 -0.00052968366 -0.003804812 -0.008370672
000340 30 2d 20 3c 21 cc 8e 3b 70 60 f4 ba f4 50 09 3c
       0.009776399 0.00435783 -0.0018644463 0.008381117
000350 f3 1b 2d 3b 22 5e 22 3c 55 af 18 bb 45 2c ac 3a
       0.0026414364 0.009910138 -0.0023297865 0.0013135752
000360 f1 90 b3 3b 14 ce 23 3b 12 a7 0c 3c fb 4b 09 bc
       0.005479925 0.0024994658 0.008584755 -0.008379932
000370 34 64 0f ba a5 46 8f bb 1f 05 1c 3c 3c f5 38 bb
       -0.00054699485 -0.004372435 0.009522705 -0.0028222343
000380 94 4c e0 38 11 85 d6 3b 62 b5 e9 3b 54 28 3e bb
       0.00010695416 0.0065466245 0.007132218 -0.0029015737
000390 8f b5 a3 3b 19 cb 37 3c ee a8 bd ba e8 fe db 3b
       0.0049960087 0.011217856 -0.0014469901 0.006713737
0003a0 08 25 ee bb 41 4a 39 3b 83 82 34 3c a4 b4 cf 3a
       -0.007267598 0.0028273019 0.011017445 0.0015846682
0003b0 06 84 51 3b d7 61 8b 3b c3 70 eb ba 04 dd 2d bb
       0.0031969561 0.004253607 -0.0017962683 -0.002652944
0003c0 12 e9 02 3c 9e 04 b1 bb 88 08 a5 3b 23 25 db 3b
       0.007990139 -0.0054021617 0.0050364174 0.0066877767
0003d0 88 7a 9b bb 9a 2d df bb 5d 42 65 3a d7 ce 21 3c
       -0.0047448315 -0.006810856 0.00087455456 0.009875975
0003e0 ab 5b b4 bb 19 c1 ce 3b 08 0f af 3b 4c e6 75 3b
       -0.0055040917 0.00630964 0.005342368 0.00375213
0003f0 0a 7a ab 3b 71 6c d6 bb 2f 34 67 3b 5a 94 95 bb
       0.005233054 -0.006543689 0.0035278907 -0.004564804

B f4 [5120, 1]
000000 eb 1f 09 bb 47 c7 1c b8 9a 3e 8f ba 51 dd b8 3a
       -0.0020923566 -3.737889e-05 -0.0010928691 0.0014104043
000010 9d 79 80 ba 59 ef c6 ba f2 86 b6 39 a0 ee 47 ba
       -0.0009801869 -0.0015177532 0.00034814287 -0.00076268055
000020 ea e2 b7 39 5f 77 30 3b 52 33 b5 ba e1 71 4d 3a
       0.00035073544 0.002692662 -0.0013824499 0.00078370987
000030 56 48 b8 ba 1c dc 8c 3a 56 b2 5e 3a 3b b5 b7 3a
       -0.0014059644 0.001074675 0.0008495202 0.0014015803
000040 9f 2d 42 3a 02 12 98 ba b6 40 a9 ba 4b 34 19 3a
       0.0007407311 -0.0011602046 -0.0012912962 0.0005844279
000050 97 f8 af ba bc a9 c4 b9 18 49 14 ba 57 5b 87 3a
       -0.0013425526 -0.00037510495 -0.0005656644 0.0010326904
000060 cb 6f 12 bb 10 f2 89 3a 6e 0d f0 3a a4 9d 49 3a
       -0.0022344466 0.0010524411 0.0018314549 0.0007691032
000070 74 d1 41 3b da 9e e1 39 fe 4d 22 bb 8a 50 b2 39
       0.0029574307 0.00043033698 -0.0024765725 0.00034010812
000080 5b a0 81 3a 33 4b 9e ba 06 50 16 39 be e7 b9 37
       0.0009889709 -0.0012076854 0.00014334926 2.2161632e-05
000090 f4 92 a2 3a 97 94 9a 3a 8d 45 fb ba ea ba d0 b9
       0.0012403415 0.0011793551 -0.0019170508 -0.00039812113
0000a0 7d a0 15 bb d0 89 b3 ba 3d 93 3a 3b f9 05 39 38
       -0.0022831254 -0.0013697688 0.0028469109 4.4113e-05
0000b0 87 72 8b ba c9 5e dd 3a 26 37 e8 ba 7b 84 78 3a
       -0.001063899 0.001688921 -0.0017716631 0.00094801903
0000c0 9f bd 39 3b 9e f0 90 ba f1 24 aa 39 c9 fc 0b 3a
       0.0028341783 -0.0011058038 0.0003245245 0.0005340097
0000d0 dc c1 8e 3a 48 97 6b 3a a3 b0 ad b8 22 22 7d 3a
       0.0010891515 0.0008987081 -8.282184e-05 0.000965627
0000e0 4f 24 9a 3a 8d 8a a4 3a b4 ba f8 b7 45 ce b9 b9
       0.0011760088 0.0012553498 -2.9650844e-05 -0.00035439632
0000f0 41 06 d5 3a 85 b1 ca b9 44 8a c2 3a a9 82 3b 39
       0.0016252474 -0.00038660705 0.0014842232 0.00017882384
000100 ed 9c 29 3a 22 93 a9 38 db d9 22 bb 7d da 34 3b
       0.0006470222 8.0859536e-05 -0.002484909 0.002759605
000110 de 46 e2 3a e2 ed 4e 39 12 2d ce b9 99 f2 ac 3b
       0.0017263552 0.00019734309 -0.00039324962 0.0052779433
000120 25 08 29 bb bf a5 cd 39 24 60 08 3a f8 fc 83 b9
       -0.0025792208 0.00039224137 0.00052023144 -0.00025174743
000130 62 5e 29 ba f5 ef fb ba 94 04 8d 3a 92 dd 8b ba
       -0.00064609025 -0.0019221293 0.0010758811 -0.0010670891
000140 c0 ae 0c 3a 60 f8 9f 3a ae 32 6e 3b 9d b7 a9 ba
       0.0005366616 0.0012204759 0.0036346125 -0.0012948398
000150 4e dd de b9 8c e2 cc ba 89 7b 05 3b 54 fa af 39
       -0.00042508024 -0.0015631481 0.0020367822 0.0003356511
000160 7c 77 e3 b8 7f d6 41 3a 8f 3b 5b 3a 6a 1a 15 bb
       -0.00010846459 0.0007394328 0.0008363062 -0.002275134
000170 1a 2e 96 39 70 5f 23 3b 10 d5 a6 b8 95 c1 0e bb
       0.00028644578 0.0024928711 -7.955183e-05 -0.0021782864
000180 d3 c7 cb 3a 0b 38 ab ba 53 05 0a ba 01 af ef ba
       0.0015547223 -0.0013062967 -0.00052650756 -0.0018286408
000190 68 4d 99 ba 1a 8e 61 bb d7 22 a0 b8 d7 35 05 ba
       -0.0011696042 -0.0034416975 -7.635884e-05 -0.000508157
0001a0 e8 22 5d b9 21 aa 93 ba 91 14 97 ba 81 8a 95 ba
       -0.00021089206 -0.0011265912 -0.0011526515 -0.0011409075
0001b0 5d 31 d3 b9 72 60 07 39 a5 35 79 3b a7 f4 02 b9
       -0.00040281835 0.00012910532 0.003802636 -0.00012488906
0001c0 eb 82 94 3a a2 db 00 ba 1e 35 50 ba 81 1d 17 3a
       0.001133052 -0.00049155403 -0.00079424854 0.00057645893
0001d0 de f1 a2 ba ec b7 f8 38 a4 46 3a 3a 48 cc 91 39
       -0.0012431701 0.0001185982 0.0007105863 0.00027808757
0001e0 cd 18 2a 3a c6 08 f2 3a 39 96 08 bb 8f 5c 01 3b
       0.0006488681 0.001846575 -0.0020841493 0.0019739007
0001f0 7f a3 bd ba 67 2a c2 b9 8e 3d 27 3b ae 01 bd b9
       -0.0014468281 -0.00037034156 0.0025518867 -0.0003605014
000200 85 ca 3c 39 be 0d f2 ba 50 7b 72 ba 39 e1 3b 3b
       0.00018004522 -0.001846723 -0.00092499424 0.0028668179
000210 c4 20 24 3b ac 63 17 bb db 4c 7e 38 fd 10 08 ba
       0.0025043944 -0.002310018 6.0629896e-05 -0.000519052
000220 09 5a 2b ba e4 02 15 bb c5 c0 1e ba 88 ef 21 bb
       -0.00065365486 -0.0022737319 -0.00060559466 -0.0024709422
000230 4e 4f e3 ba e4 16 bc 3a fd b5 9b 3a 87 fa 6b 39
       -0.001734236 0.0014350084 0.0011879798 0.00022504675
000240 3d dc 04 bb b2 5e 4e ba e0 93 9e 3a 25 47 c5 38
       -0.0020272874 -0.0007872387 0.0012098514 9.406944e-05
000250 52 ac bd b9 7c 18 05 3a 46 d4 02 bb 37 c6 bb ba
       -0.00036177278 0.0005077196 -0.001996295 -0.001432604
000260 0e a8 da b9 d8 0c cb 3a cd 40 49 ba 2d 1e b0 b9
       -0.0004170541 0.0015491499 -0.00076771976 -0.0003359182
000270 62 ba 46 3a ad e8 26 ba 6e ce 09 3a 5f 39 be 3a
       0.0007580874 -0.0006367069 0.00052568957 0.0014512948
000280 c2 5e 42 bb 53 91 c0 3a fa 62 b8 b9 29 d4 8c ba
       -0.002965853 0.0014691747 -0.00035168958 -0.0010744381
000290 42 f5 0d 3a 4f 64 33 bb bd 13 a8 ba 4d 5a 0c ba
       0.00054152694 -0.002737302 -0.0012823265 -0.0005354032
0002a0 93 50 1b bb 0b 70 f5 b8 a0 8b 6b 39 e0 21 1d ba
       -0.002369915 -0.0001170338 0.00022463361 -0.00059941225
0002b0 76 e9 10 3a fd d7 a4 b9 1d 1c 8e 3a ab bd 8e 39
       0.00055279525 -0.0003144144 0.0010842119 0.00027225664
0002c0 c9 37 90 ba cc b5 6e ba 52 ed 37 3b 2e 94 01 3a
       -0.0011002953 -0.00091060693 0.0028065038 0.000494304
0002d0 da 0a 32 ba 9f 9a c7 39 71 e7 ad 3a 1a 58 a2 3a
       -0.0006791778 0.0003807144 0.0013267827 0.0012385875
0002e0 ed d8 ec 39 18 fa 7f ba 7e 42 02 3a ec d2 b8 39
       0.0004517505 -0.0009764745 0.00049690146 0.00035252364
0002f0 2a ce 0a 3a 7c cb ac 39 ff 97 f1 ba 56 26 b9 3a
       0.0005295003 0.00032958004 -0.0018432139 0.0014125805
000300 f1 02 20 bb fc 4f 2a ba fb d9 f3 ba 3f f3 a0 3a
       -0.0024415816 -0.0006496904 -0.0018604392 0.0012279524
000310 18 ff 4b b9 10 6c 67 3a 87 00 03 ba 2b 14 3f 3b
       -0.00019454618 0.0008828053 -0.0004997332 0.0029156308
000320 31 86 5c ba d6 32 05 bb 82 52 ca 3a 1b ba 61 3a
       -0.000841233 -0.002032449 0.0015435966 0.0008610801
000330 76 aa 40 39 43 e1 b6 ba 03 01 e2 3a 8e 40 0d 39
       0.00018374049 -0.0013952631 0.0017242733 0.00013470856
000340 3f 24 92 3b d7 70 2f 39 ce a2 ec 39 32 f4 40 3b
       0.0044598873 0.00016731337 0.00045134727 0.0029442427
000350 f1 46 86 ba 10 1a 94 3b 01 ea 26 3a f0 09 80 b8
       -0.0010244531 0.0045197085 0.0006367267 -6.1053666e-05
000360 27 93 0f bb 08 9f d3 39 c7 ad af 39 b8 ab d9 3a
       -0.0021907778 0.00040363544 0.00033508075 0.0016606962
000370 e7 d7 b6 39 e4 a7 1f 3b 14 f7 e7 ba 80 f1 d9 3a
       0.00034874605 0.0024361545 -0.0017697536 0.0016627759
000380 af 99 8f 3a eb e5 3b bb 36 a4 6e 3a 29 4d 29 3a
       0.0010955835 -0.0028670977 0.0009103449 0.0006458336
000390 7c 0a e7 38 9f 66 c3 ba 76 dd d8 ba a6 3a d0 ba
       0.00011016891 -0.0014907903 -0.0016545493 -0.0015886619
0003a0 a6 2e ba b9 fc f2 a8 39 ed b8 4a 39 3e b9 6c 3a
       -0.0003551144 0.00032224494 0.00019333111 0.0009030289
0003b0 96 45 84 bb 4e 41 2f 3a 73 70 54 3a d5 8c c3 3a
       -0.0040366156 0.00066854514 0.00081039144 0.001491929
0003c0 34 5e 36 b9 ba 3e 93 ba 28 d7 74 3a 49 d6 05 3a
       -0.00017391966 -0.0011233904 0.0009339922 0.00051054783
0003d0 33 61 7d 3b 0e 47 d2 b9 5d 21 ff ba dd fc dc 39
       0.0038662672 -0.0004010726 -0.0019464899 0.00042150068
0003e0 ba 59 dc 39 4d 45 db 39 4b 50 5c ba 8e 96 57 bb
       0.0004202852 0.00041822568 -0.00084042986 -0.0032896134
0003f0 e7 af 1d 3b f2 d5 22 3b 57 20 a6 b9 f1 f1 06 bb
       0.0024061145 0.002484676 -0.00031686082 -0.0020590986
