js_code/data/steered_with_inoc_vector_coef_1/lora_snapshots/step_000275/base_model_model_model_layers_24_A_and_B.pt (torch, 77997 bytes, 2 tensors)

A f4 [1, 13824]
00000000: e4c8 85bb cc69 8abb 6cf6 1b3c b725 8d3b
00000010: f7ae 09bc c8c8 0ebc cd2d 003b 0d26 2dbb
00000020: 67fe c739 14fd d4ba 03fd 18bb e4f5 083c
00000030: e43a e53a b438 8c3a 2cb1 ffbb 9b64 2dbb
00000040: e2db 3a3b a523 713b 87fc c539 8f79 f7bb
00000050: 3594 bbbb 1e98 1c3c 778a fd3b 9301 bb3b
00000060: 1131 bcbb 8bfa babb e589 283b 9ab6 07bc
00000070: 28a3 04b9 f61f 5f3b 19eb 983b ecd3 af3b
00000080: ae14 e03a 20a6 923b acfb 20bc 5f1e b5bb
00000090: 348c 7cbb 73b1 c73b 356d f5bb 63df b53b
000000a0: 3dc7 c0bb 9287 6fbb 5446 a13b 6dd2 fa3b
000000b0: 06f2 233b c17f 73bb d815 e23b 224b 593a
000000c0: 1e50 d43b 13c3 6a3b dbf9 b3ba 91cc d73b
000000d0: 4f24 a33b c2cc e13b 4ff3 143c 4195 333b
000000e0: 197a a9bb 7c13 97ba 9a0d 84b9 a643 dfba
000000f0: 0b1f 73b9 abf2 1f3c b830 893b 88fb 663b
00000100: 539c b83b 4c32 9cbb b1ed 973b 558e cd3b
00000110: e583 e83a c865 bb39 134c 033c a889 05bc
00000120: 66b2 a83b 0b06 ebb9 6619 d2bb 5364 c13b
00000130: 8320 3ebb 4321 23ba 0d56 25bb fab5 80bb
00000140: 5c90 2bbb 7a7d 1cbc 1fc6 ae3b 2198 9b3a
00000150: fe68 083b 4637 163c 9f9c 40bb 3950 87bb
00000160: d75a 90bb 94db 09bb 06ba 9bb9 936f 6d3b
00000170: 344a e7b9 f9bd 233b 688d afbb 34ba 01bc
00000180: 5f3f 40ba 60e7 843a 39a3 a9bb 5d6b 01bb
00000190: 961d 2ebb a9a1 0dbc 0459 143c a76a a03b
000001a0: 9f38 babb 5363 e6bb 222e 063c 6403 c43b
000001b0: cc4e d2bb 81ba 3e3b 936b ddbb 2299 e8bb
000001c0: 8d2a f5bb 1b29 b83a b9e4 f63b 8c8e a63b
000001d0: 9e06 e6bb 4611 b73b 7c96 0f3c 7b1f a23b
000001e0: 6e7d e43b f322 ccbb 7250 4bbb 1375 bc3b
000001f0: a068 03bc dc90 a5ba b352 a23b 8f52 643b
00000200: 235e 66bb f3ae e73a 55eb a6bb 9b37 6ebb
00000210: 88da dc3a 971f 4abb afe5 953b 3bc4 9e3b
00000220: 9f6e 823b c7a9 eb3b aaa6 753a a602 f8ba
00000230: 854c 03bc 49ac bbba 82e7 c5bb 1fae 683b
00000240: 9dab 09ba 7c13 a1bb 50e2 3b3a 2a49 b63b
00000250: 2fe5 29bb 8602 203b 0494 04ba 31aa c4ba
00000260: 3685 abba d8a6 fc3a 1766 c8ba 9803 b5bb
00000270: 035b 563b fc0d c7bb f37c b5bb 3bcb bc3a
00000280: 14a5 443b 67ee 65bb e4f0 7cbb 5771 a53b
00000290: d77f 81bb 462d 873a 0788 b73a 105a 803a
000002a0: 043f 64bb 1f69 18b9 71d9 58bb 7052 df3b
000002b0: d124 693a eb81 99bb ebc2 bdbb 2124 153b
000002c0: 3932 91bb bdaf 363b 38f1 c53a 1efd 06bc
000002d0: ca11 d23b bf73 f53a c42c ee3a 4e89 6bbb
000002e0: 070a 11bc 445f 273b 24eb fcbb 76c1 3a3b
000002f0: 64c5 c73b 9325 8538 42da c0bb b969 bf3b
00000300: c052 ecbb 4f76 16bb c037 f2bb fd30 243b
00000310: f207 0e3c 79b1 d5bb efb4 ccbb 55bf b93b
00000320: cc53 bc3b 9844 8d3b a3cb a5bb c2de 0c3c
00000330: f41e feba 6876 70bb 0d21 00bb 02c9 cc3a
00000340: af93 7b3b 9eda 3ebb 5d17 92bb 5027 2d38
00000350: 5841 0dbc 015c ffbb 8bc4 b739 53ca c53b
00000360: 9b1c aabb de2f 6e3b 1726 8dbb d8fa dcba
00000370: cb62 e93b 4e2c 783a b534 9ebb 0720 a3bb
00000380: 23dd ca3a 6dc8 893b 64d8 ab3b 9e0c f43a
00000390: b57b a8bb b5cf 9a3b 6230 07bc 3958 3439
000003a0: d127 ffbb ee69 29bb b100 953a 441b be3b
000003b0: 0078 693a 56ab 85bb bcd8 a73b 7104 a23a
000003c0: 53a3 d3bb 5e23 0bbc 5e7a 7e39 4f2e 6ebb
000003d0: 1f39 02bb c78f c4bb 1f52 b3bb cdb7 92bb
000003e0: 26ee 1d38 1786 5139 ed62 983b 6f50 04bc
000003f0: 037a cf3b eb87 ed3b df1a 0ebc e645 8d3b
-0.004082786 -0.0042240378 0.009519201 0.0043074745 -0.008403531 -0.008714862 0.001955855 -0.0026420385
0.00038145782 -0.001624974 -0.0023344166 0.008359406 0.0017488864 0.0010698051 -0.007803103 -0.002645767
0.0028512408 0.0036794927 0.00037762916 -0.0075523327 -0.0057244548 0.009557752 0.0077374536 0.005706975
-0.005743154 -0.0057061366 0.0025716957 -0.008283282 -0.00012649281 0.003404615 0.0046666977 0.005365839
0.0017096007 0.00447537 -0.009825628 -0.005527302 -0.0038535716 0.0060941516 -0.007489825 0.0055503114
-0.005883126 -0.0036549312 0.004921714 0.0076544792 0.0025016083 -0.0037155005 0.0068995766 0.0008289089
0.0064792773 0.003582184 -0.0013731079 0.0065856655 0.0049786936 0.006890864 0.009091212 0.0027402195
-0.005172026 -0.0011526193 -0.00025187136 -0.0017033711 -0.0002318585 0.009762446 0.004186716 0.003524514
0.0056338697 -0.004766738 0.0046364893 0.006273071 0.0017739503 0.00035743252 0.008013743 -0.008150496
0.00514822 -0.00044827195 -0.006411719 0.005901852 -0.0029011078 -0.0006222913 -0.0025228292 -0.0039279433
-0.0026178574 -0.0095514 0.0053336765 0.00118709 0.0020814533 0.009168452 -0.0029390228 -0.0041294363
-0.00440536 -0.002103542 -0.00029702502 0.0036229833 -0.0004411504 0.0024985059 -0.005357433 -0.007917929
-0.0007333662 0.0010139756 -0.0051769284 -0.0019747831 -0.0026567928 -0.0086445 0.009054426 0.0048955265
-0.0056830193 -0.0070308833 0.00818971 0.0059818495 -0.0064180847 0.0029102864 -0.0067572086 -0.007098333
-0.007481879 0.0014050336 0.00753459 0.005082911 -0.007019832 0.005586776 0.008763906 0.0049476004
0.00697296 -0.006229752 -0.003102329 0.005751261 -0.00802055 -0.0012631672 0.004953706 0.0034839248
-0.0035151325 0.001767604 -0.0050939717 -0.0036349061 0.0016849795 -0.0030841583 0.0045744996 0.00484517
0.003980472 0.00719187 0.0009370843 -0.0018921688 -0.008013849 -0.0014318313 -0.006039561 0.0035504175
-0.00052517076 -0.004915653 0.0007167207 0.005562921 -0.0025923958 0.0024415567 -0.00050574564 -0.0015004334
-0.0013085965 0.0019275798 -0.0015289214 -0.00552411 0.0032708056 -0.006074665 -0.0055385767 0.0014403829
0.003000562 -0.0035084726 -0.003859573 0.0050489116 -0.0039520073 0.0010313175 0.0014002331 0.0009792466
-0.00348276 -0.0001453501 -0.003308859 0.0068152472 0.00088937307 -0.004684677 -0.0057910583 0.002275713
-0.004431036 0.0027875744 0.0015101796 -0.008239059 0.006410812 0.0018726512 0.00181713 -0.0035939994
-0.008852488 0.002553896 -0.0077184606 0.002849666 0.006096529 6.348933e-05 -0.0058853934 0.0058414605
-0.007212013 -0.00229587 -0.0073919 0.0025053613 0.0086688865 -0.0065214005 -0.006247155 0.0056685605
0.005747294 0.0043111555 -0.005059676 0.0085980315 -0.0019387887 -0.003669167 -0.001955095 0.001562387
0.0038387587 -0.0029122005 -0.0044583515 4.1283027e-05 -0.008621536 -0.00779295 0.00035050916 0.006036082
-0.0051913983 0.003634445 -0.004307519 -0.0016859425 0.0071223727 0.0009467051 -0.0048280605 -0.004978183
0.0015477281 0.004204801 0.0052443016 0.0018619483 -0.0051417 0.0047244676 -0.008251281 0.00017199003
-0.007786729 -0.0025850493 0.0011368004 0.00580159 0.0008906126 -0.0040792627 0.0051222723 0.0012360943
-0.0064586787 -0.008492319 0.00024268913 -0.003634352 -0.0019870473 -0.005998585 -0.005472436 -0.004477477
3.765351e-05 0.00019981746 0.0046504647 -0.0080758175 0.0063316836 0.0072488687 -0.008673399 0.004311311

B f4 [5120, 1]
00000000: 4878 5f3a 422c 16ba 10b8 61b9 0e08 90ba
00000010: 2ea0 773a f669 a63a fe85 86ba ddc0 0db9
00000020: c068 673a 7897 28ba 7698 043a e195 673a
00000030: 7de4 843a d1ba feb9 3d63 5cba db6f 7fba
00000040: ab28 073a 5cbf 113a 472b 7aba 7e48 eab9
00000050: 3569 ff39 a373 6c3a 3051 803a 5fe5 9bba
00000060: c448 023a f24d 9939 641f ab3a 8033 453a
00000070: c0ba bbb9 f277 9c33 a482 6039 81a1 54ba
00000080: 900f 61ba f593 d139 f620 643a 4c31 a5ba
00000090: d0e2 bbb9 569d d2b8 5cb1 e03a b583 a5b9
000000a0: 1799 ce39 5263 6db8 1ae9 593a f2c4 96b9
000000b0: c5ed 90ba 63f9 72ba 8ce6 973a 463f ca39
000000c0: 2632 2d3a f4ec cab9 b9ac 47ba cf12 233a
000000d0: 365a 36b9 9a34 583a 6280 5a3a e3b7 86ba
000000e0: 1e7a 76ba 7d64 b0ba 72c2 393a 9caf fab7
000000f0: dc71 97b9 2ea0 1cba 738a 78b9 6cff 34b9
00000100: b7c6 ae3a e428 dfb9 e309 3fb8 03f1 a7b9
00000110: 2189 93ba e2ed 3539 ef7b 29ba b2f0 df39
00000120: e745 c43a ca4b 31b8 5725 a238 36ad 2e3a
00000130: 89b4 6e3a 64a4 0d3a c577 62b8 e499 2d3a
00000140: 0304 973a 1edc 70ba ebf3 99ba d60f 2f3a
00000150: 6c46 67b9 22bb 3b3a 20dc 71ba ba85 a7ba
00000160: 4cfb d138 e125 94ba 1483 42ba 74cb 73ba
00000170: 7223 503a 12d5 abba 71a5 abb9 d569 4c3a
00000180: 9083 c8ba 939f de39 11ea f639 f94e a23a
00000190: ec76 3839 c9c4 803a 724a 4b3a 79ea 44ba
000001a0: 31cd 453a bbb6 cc39 944a aa39 3acd 8bba
000001b0: baa5 a9b9 3d0c 15ba 465b 6e3a 52c1 b53a
000001c0: 65c4 29b9 be29 1aba 419c 523a 2dbc d439
000001d0: 4554 66ba 7fbf d03a a4c1 363a fb73 593a
000001e0: f307 34ba 58a2 5fba eb77 caba 22af 6f3a
000001f0: 1b85 b339 3430 50ba 8562 9fba ef63 8939
00000200: 99ba c339 d979 e138 68e7 0d3a 0328 7dba
00000210: 6809 bbb8 e4f6 97b9 d139 503a 619c 843a
00000220: 7be9 67ba ed2b d33a 460f ba39 8820 62ba
00000230: 0774 143a b4ef 77ba 1b24 7f39 08c9 7aba
00000240: bf57 c339 f695 07ba 95e3 83ba 2e7a c6ba
00000250: fb60 813a 1993 5dba 9032 e639 a9b2 153a
00000260: bd1a 983a f636 e2ba 49b9 843a b9dd 473a
00000270: 795d 99b9 78e6 503a 2955 46ba 1fe4 aa3a
00000280: 28ba 6837 5978 4a3a 9472 66b9 430c beb9
00000290: 69b4 103a e1f7 1bba 7ef1 46ba efda 7e3a
000002a0: dd70 de39 8971 393a 567e 8839 af4c 4d3a
000002b0: 4170 0aba a059 8eba 2e46 d2ba 09d3 8bb9
000002c0: 9c63 173a e077 3cb9 8700 5eba a045 fd39
000002d0: caa1 96ba d7ec a439 205e 023a daf4 fbb9
000002e0: e7c8 743a 9ed8 c53a 70fb 96ba a126 bab8
000002f0: a1af 3fba a759 8db9 c4db c8b9 4f03 6e3a
00000300: 2e59 bc3a 8098 963a b170 ef39 21c2 b1b9
00000310: e1c9 abb9 a34d ac3a 6cbd 82ba 869e 82b8
00000320: f99a 2cba 85f9 443a 574f 49ba 9a93 55ba
00000330: f922 78ba 58dc 173a 38b0 2bba 7e2c ccba
00000340: 07d3 7dba 2520 59ba ae82 513a f26e 243a
00000350: 69fe 833a 8448 7bba eb26 56ba cd83 013a
00000360: 9f7f 80ba d54d 1f3a dfa4 5dba a507 b539
00000370: 6340 4aba a7d0 89ba 5a58 b93a 2644 8db8
00000380: fd08 a0ba d421 8dba 9320 3cb6 73c6 8cba
00000390: 9de1 cdba ba1c 0638 b59d 95ba 9b0f 2b3a
000003a0: 9f7b 3d38 a5e6 a13a 7411 6b3a e4ce 9638
000003b0: e4c4 a33a 33c2 3b3a 67b5 7a3a 144e bf39
000003c0: d4e8 c4b9 d665 ea38 12b4 74ba 6186 27b9
000003d0: 8456 9c39 8ba3 843a c218 3cba 5254 11ba
000003e0: 4b4c 843a 6ee5 bcb9 a345 583a b0a3 f1ba
000003f0: adec 0dba c868 b3ba d17b 363a 4e1b c4ba
0.0008524698 -0.0005728641 -0.00021526241 -0.0010988729 0.0009446171 0.0012696374 -0.0010263321 -0.00013518655
0.00088275596 -0.0006431262 0.0005058119 0.00088342844 0.0010138896 -0.00048585844 -0.00084071216 -0.0009744146
0.00051559013 0.0005559826 -0.0009543192 -0.0004468597 0.00048715775 0.0009019917 0.0009789821 -0.001189392
0.00049699494 0.00029240508 0.001305562 0.0007522628 -0.0003580656 7.286134e-08 0.00021410972 -0.0008111224
-0.0008585388 0.00039973823 0.00087024213 -0.0012603193 -0.00035836408 -0.000100428864 0.0017142701 -0.00031569382
0.00039405443 -5.6597702e-05 0.0008312628 -0.00028756965 -0.0011057189 -0.0009268729 0.0011589094 0.00038575585
0.0006606899 -0.00038704986 -0.0007616985 0.0006220759 -0.00017390479 0.00082475843 0.00083351706 -0.0010278191
-0.0009402352 -0.0013457682 0.00070861646 -2.9884097e-05 -0.00028885796 -0.00059747964 -0.000237027 -0.0001726129
0.0013334368 -0.0004256434 -4.5547156e-05 -0.0003203229 -0.0011256078 0.00017350123 -0.0006465306 0.00042713206
0.0014974446 -4.2270673e-05 7.731717e-05 0.00066633837 0.00091058813 0.0005403219 -5.3994143e-05 0.0006622358
0.0011521581 -0.00091880735 -0.0011745667 0.000667808 -0.00022056111 0.0007161369 -0.00092262216 -0.0012780942
0.00010012704 -0.0011302793 -0.0007420045 -0.0009300031 0.0007939852 -0.0013109765 -0.00032738925 0.00077977526
-0.0015297998 0.00042462032 0.0004709517 0.0012383155 0.0001759191 0.0009824272 0.00077549287 -0.0007511746
0.00075455295 0.00039046057 0.00032480492 -0.0010666021 -0.00032357668 -0.00056857226 0.00090925803 0.0013866818
-0.00016190259 -0.0005880854 0.0008034148 0.00040575993 -0.0008786361 0.0015926211 0.0006971604 0.00082951755
-0.00068676396 -0.0008530966 -0.0015447115 0.0009143223 0.00034240712 -0.0007941753 -0.0012160098 0.00026205133
0.00037332324 0.00010751532 0.00054132054 -0.00096571463 -8.918607e-05 -0.00028984912 0.00079431856 0.0010117405
-0.0008846742 0.0016111113 0.00035488064 -0.00086260634 0.00056630414 -0.0009458021 0.00024332145 -0.0009566699
0.00037258674 -0.0005172187 -0.0010062332 -0.0015142614 0.0009870821 -0.00084524 0.0004390669 0.00057105214
0.0011604648 -0.0017258811 0.001012602 0.0007624287 -0.00029252077 0.0007968913 -0.00075657904 0.0013037956
1.38716205e-05 0.00077236217 -0.00021977193 -0.0003624876 0.0005520047 -0.00059497176 -0.0007589086 0.00097219547
0.0004242723 0.0007074108 0.0002603407 0.0007831556 -0.00052810094 -0.001086045 -0.0016042644 -0.0002666938
0.0005775036 -0.00017973734 -0.00084687065 0.00048307795 -0.0011492309 0.00031456977 0.0004973132 -0.0004805688
0.0009337798 0.0015094464 -0.0011519026 -8.876366e-05 -0.00073122425 -0.00026960412 -0.0003831071 0.00090794725
0.0014369839 0.001148954 0.00045669594 -0.00033904708 -0.00032766073 0.0013145696 -0.0009974665 -6.22841e-05
-0.0006584372 0.0007513988 -0.0007679364 -0.00081472995 -0.00094656606 0.00057930266 -0.0006549391 -0.0015577225
-0.00096826296 -0.0008282683 0.000799219 0.00062726357 0.0010070327 -0.0009585696 -0.00081692514 0.00049405993
-0.0009803659 0.00060769665 -0.00084550487 0.00034528706 -0.0007715283 -0.0010514454 0.0014140711 -6.7360976e-05
-0.001220971 -0.0010767528 -2.8033144e-06 -0.0010740295 -0.0015707497 3.1974843e-05 -0.0011414798 0.0006525458
4.5176243e-05 0.0012352063 0.00089671393 7.191094e-05 0.0012494591 0.0007162422 0.0009563774 0.00036488532
-0.00037557504 0.00011176958 -0.0009334694 -0.00015976421 0.00029819098 0.001011954 -0.000717532 -0.0005543876
0.0010093538 -0.00036029093 0.0008250123 -0.0018435623 -0.00054139906 -0.0013687843 0.0006961199 -0.0014961751
