lora_snapshot_no_intervention/step_000585/base_model_model_model_layers_24_A_and_B.pt (torch, 77997 bytes, 2 tensors)

A f4 [1, 13824]
000000 ae 08 92 bb d3 a9 88 bb 3f c7 07 3c c7 6f 8e 3b
       -0.004456601 -0.0041706352 0.00828725 0.004346821
000010 36 02 09 bc 60 36 14 bc 55 8d ac 3a 01 56 ab ba
       -0.008362344 -0.009046167 0.0013164679 -0.0013071896
000020 55 45 a6 37 9a b8 e7 ba 17 ff 01 bb 1f 54 0e 3c
       1.9821027e-05 -0.0017678917 -0.0019835883 0.008687048
000030 c0 a6 e5 3a c9 29 43 3a 94 e1 13 bc b6 b6 4c bb
       0.0017521009 0.0007444886 -0.00902595 -0.0031236834
000040 15 ab e8 3a 32 5e 6a 3b 41 3b 4f 3a bd 9b fa bb
       0.0017751182 0.0035761711 0.0007905253 -0.00764796
000050 60 a0 bb bb 55 64 25 3c 96 14 fd 3b d8 fa d9 3b
       -0.0057259053 0.010094722 0.0077234013 0.0066522174
000060 9e 3e ba bb c7 30 c5 bb 29 2d f9 3a 5d ee 10 bc
       -0.005683734 -0.0060177776 0.0019010651 -0.008845893
000070 c1 1a 1e 3a ce 13 d5 3b 97 d6 af 3b d6 18 bb 3b
       0.00060312083 0.006502605 0.0053661573 0.005709748
000080 1f 54 09 3b f4 ba 73 3b bb fc 30 bc 97 07 bd bb
       0.002095468 0.003719029 -0.010802443 -0.005768727
000090 26 4d 93 bb 2e 3c d4 3b aa 56 0a bc d3 18 be 3b
       -0.004495281 0.0064769005 -0.008443514 0.005801299
0000a0 74 22 cf bb 8d 6b 7e bb 4a 67 88 3b 42 52 00 3c
       -0.006321246 -0.003882143 0.0041627036 0.007832112
0000b0 de c6 44 3b 16 73 9a bb 87 86 da 3b 53 c7 92 3a
       0.003002576 -0.0047134263 0.006668869 0.0011198319
0000c0 5f c3 ec 3b f9 22 58 3b f9 4c f7 ba 7b 1a c8 3b
       0.0072254385 0.003297983 -0.0018867544 0.0061066723
0000d0 97 7f a7 3b f6 da d3 3b 6d 6c 18 3c 32 2d 45 3b
       0.0051116454 0.006465311 0.0093031945 0.0030086753
0000e0 7c 42 cb bb 97 b6 c9 38 41 69 c7 b9 54 ce b2 ba
       -0.006202994 9.618437e-05 -0.00038034658 -0.0013641813
0000f0 47 72 2d ba a9 16 2d 3c c3 9a 4b 3b 66 af 7e 3b
       -0.0006616455 0.010564485 0.0031067587 0.003886187
000100 be 5b cd 3b d2 97 8d bb cf ff a6 3b f5 c4 bc 3b
       0.00626704 -0.004321077 0.0050964127 0.005760784
000110 67 4d d7 3a 4d b7 15 3b 70 9f 0b 3c f5 fb 06 bc
       0.0016426266 0.0022844851 0.0085219 -0.008238782
000120 eb 2b c5 3b 01 19 5f 39 17 ad c0 bb 01 96 cc 3b
       0.0060171983 0.00021276252 -0.005880009 0.006243468
000130 c7 41 65 bb aa 1c 9b 39 56 41 b9 ba cd a9 89 bb
       -0.0034981833 0.0002958526 -0.0014133852 -0.00420115
000140 51 3f 4c bb 08 88 25 bc 18 70 c1 3b f8 4c b0 3a
       -0.003116567 -0.010103233 0.005903255 0.0013450673
000150 c2 b6 e8 3a 46 b7 1c 3c 86 96 5c bb 5f 13 81 bb
       0.0017754661 0.00956518 -0.0033659055 -0.003939077
000160 07 d3 97 bb 64 74 09 bb df ef 87 39 8d 77 6e 3b
       -0.0046333107 -0.0020973915 0.00025927924 0.0036387176
000170 bb 80 7f ba 05 a1 0c 3b 3b 8f b3 bb e4 17 01 bc
       -0.00097466604 0.002145828 -0.005479721 -0.007879231
000180 f8 68 90 ba 16 30 e4 b9 ac 4c b7 bb eb ad e4 ba
       -0.0011017611 -0.00043523376 -0.005593857 -0.0017446851
000190 25 45 49 bb 36 bf 0f bc a6 ca 1a 3c 09 af 80 3b
       -0.003071138 -0.008773616 0.009447729 0.003927116
0001a0 4e 8d c1 bb fc 87 d6 bb ab 99 09 3c f0 aa b8 3b
       -0.0059067374 -0.0065469723 0.008398454 0.0056356117
0001b0 44 a0 c6 bb e7 e8 5b 3b 77 15 f1 bb 9f 74 ec bb
       -0.0060615856 0.0033555569 -0.007357295 -0.0072160508
0001c0 63 6a 05 bc f4 e3 dc 3a ab b1 c3 3b 88 c3 ba 3b
       -0.00814304 0.0016852603 0.0059721074 0.0056995787
0001d0 e5 cc dd bb ef 3c c0 3b 1f 3c 17 3c 0e 35 9b 3b
       -0.00676881 0.005866639 0.009230643 0.004736549
0001e0 e6 35 e4 3b 4e 1d c2 bb 1e 1d 21 bb 5d 0f d0 3b
       0.006964433 -0.0059239035 -0.0024584006 0.0063494877
0001f0 c9 77 16 bc 43 fb 63 ba c2 82 93 3b 77 06 4b 3b
       -0.009183832 -0.00086968037 0.0045016715 0.0030979195
000200 8c ad 85 bb 02 0d 85 3a 13 72 b3 bb bc 01 78 bb
       -0.0040795263 0.0010150971 -0.005476245 -0.003784283
000210 ed 8b 9c 3a 80 01 26 bb 59 fa 6c 3b 3f f2 a9 3b
       0.0011943557 -0.0025330484 0.003615996 0.0051863487
000220 84 1c 61 3b 97 d2 f3 3b 6f 33 22 3a 9a 99 c4 ba
       0.0034349272 0.0074408758 0.0006187474 -0.001499939
000230 e6 34 09 bc 1b b3 a0 ba c7 ed c2 bb 9c 00 3b 3b
       -0.008374428 -0.0012260409 -0.0059487554 0.0028534299
000240 99 c4 ad ba c8 6d ba bb 28 84 77 3a 1a 8f c1 3b
       -0.0013257443 -0.0056893565 0.0009441995 0.0059069516
000250 4c 9d 05 bb 12 e2 44 3b c7 d8 81 ba e6 4e 09 bb
       -0.0020387946 0.0030041975 -0.0009906524 -0.0020951568
000260 0e 17 ac ba 0f 6a bd 3a 19 ec 2a ba 5b ec 98 bb
       -0.001312943 0.0014451164 -0.00065201666 -0.0046668476
000270 30 3b 9c 3b 4e 54 d0 bb 1e a7 d2 bb 86 ab 0b 3b
       0.004767798 -0.006357706 -0.0064286133 0.0021311953
000280 b6 d9 2f 3b 42 87 7f bb eb 53 54 bb 4e 08 b3 3b
       0.0026832647 -0.0038990532 -0.0032398652 0.0054636365
000290 8a 41 4f bb 50 3a 1b 3b 29 59 a1 3a a3 df ca 3a
       -0.0031624758 0.002368588 0.0012309897 0.0015478026
0002a0 7c 94 92 bb 03 0b 28 39 4c 0f 15 bb 91 61 f4 3b
       -0.004473267 0.0001602583 -0.0022744713 0.00745792
0002b0 56 a7 15 3b f0 7e ad bb 71 c4 bf bb c2 5d d9 3a
       0.0022835336 -0.005294673 -0.005852275 0.0016583728
0002c0 c1 ff 9e bb 5f 7d 36 3b 29 87 fc 3a 1e b6 f4 bb
       -0.0048522656 0.0027845723 0.0019266355 -0.007467999
0002d0 30 a7 da 3b 89 13 45 3a e6 c9 8e 3a 3c 89 92 bb
       0.0066727623 0.00075178646 0.0010893911 -0.004471926
0002e0 98 2c 28 bc cf b9 0c 3b 57 39 0b bc 30 cb 16 3b
       -0.010264538 0.0021473055 -0.008497558 0.0023009293
0002f0 fa 1f ae 3b e8 43 eb 39 3e a3 bf bb 24 b4 c0 3b
       0.0053138705 0.00044873287 -0.0058483174 0.0058808494
000300 4d fb ea bb 48 ce 07 ba 0c e3 f5 bb 9a 8b 18 3b
       -0.0071710707 -0.00051805796 -0.0075038727 0.0023276568
000310 25 fe 14 3c 7c a4 e5 bb d6 a6 db bb e8 49 b4 3b
       0.009093796 -0.0070081335 -0.006703238 0.0055019744
000320 11 63 ce 3b 37 9e 61 3b 71 46 a4 bb c5 f3 0a 3c
       0.0062984307 0.0034426579 -0.00501328 0.008480971
000330 ff f4 ca ba f7 97 66 bb 05 a7 0f bb 47 69 dc 3a
       -0.0015484391 -0.0035185793 -0.002191962 0.0016816043
000340 45 6d 64 3b 0c df 6d bb f0 f3 82 bb e3 fa 48 ba
       0.0034855169 -0.0036296276 -0.003996365 -0.00076667796
000350 9b 39 08 bc 6a a5 02 bc b1 92 87 38 f6 d9 a9 3b
       -0.008314515 -0.007974008 6.464625e-05 0.0051834537
000360 05 20 a1 bb d4 71 52 3b 09 a4 7b bb 94 66 7a ba
       -0.004917147 0.0032111304 -0.0038397333 -0.00095520285
000370 c5 10 d5 3b eb a8 15 3a 40 06 b0 bb 65 35 aa bb
       0.006502243 0.00057090697 -0.005371839 -0.0051943534
000380 9b c1 0c 3b 0e 8f 7f 3b 6a de a5 3b 60 bd 25 3b
       0.0021477703 0.003899518 0.005061914 0.0025289878
000390 80 90 b7 bb 7b cf 9a 3b d6 9f 08 bc ed 2a 2f 3a
       -0.0056019425 0.0047244406 -0.008338889 0.00066821167
0003a0 d5 a5 04 bc b9 fd 7f bb 6e cf b0 3a 60 66 a6 3b
       -0.008096178 -0.0039061143 0.0013489553 0.005078122
0003b0 55 16 73 3a 12 6f 48 bb 40 e7 bc 3b c5 35 ca 3a
       0.0009273042 -0.0030583781 0.005764872 0.0015427402
0003c0 9f 12 de bb 6e 77 13 bc a4 3b c3 b9 c2 16 54 bb
       -0.006777122 -0.009000642 -0.00037237734 -0.0032362198
0003d0 3b fa c2 ba d6 4f e1 bb 8a 52 90 bb 3e a5 8e bb
       -0.00148756 -0.0068759723 -0.0044043707 -0.0043531945
0003e0 56 94 88 3a 21 3d 22 b8 e1 87 6b 3b 64 e8 0c bc
       0.0010420184 -3.868074e-05 0.0035939144 -0.008600328
0003f0 8c 80 c7 3b 91 5a e6 3b 51 8c 06 bc 82 41 77 3b
       0.006088322 0.0070298393 -0.008212165 0.0037728255

B f4 [5120, 1]
000000 07 b9 58 39 58 16 a2 3a da 47 e7 3a 4a 2c 89 ba
       0.00020668293 0.0012366278 0.0017645315 -0.001046547
000010 dd a1 4f 3a 67 fa f3 3a 12 df cc ba db dd 8b ba
       0.0007920543 0.0018614054 -0.0015630445 -0.0010670976
000020 b2 84 9a 3a 17 ee 0e bb 20 be 51 3a 0a c9 95 3a
       0.0011788814 -0.0021809393 0.0008001048 0.0011427712
000030 ab c9 05 3b a9 6d 9d b9 0e 06 16 ba de cf b5 3a
       0.0020414393 -0.00030027077 -0.0005722948 0.0013871153
000040 e6 fa e3 3a d2 c8 4d 3a ad 4b 76 ba 87 80 22 ba
       0.0017393499 0.0007850054 -0.0009395432 -0.00061989616
000050 90 e0 3f ba 73 a7 2e 3a f4 e7 64 3a c7 fc 11 ba
       -0.0007319534 0.0006662525 0.00087320735 -0.0005568978
000060 24 ce 41 3a e7 f7 2a b8 a5 7c 60 3a a0 fa 7f 3a
       0.0007393083 -4.0762035e-05 0.00085634954 0.0009764824
000070 0f 5d ba 39 51 e3 4e ba 54 12 64 3a 02 5c 66 ba
       0.0003554602 -0.0007892149 0.0008700241 -0.0008787514
000080 1e ba 96 ba 19 e5 0a 3a fe 71 87 ba e0 95 d2 ba
       -0.0011499559 0.00052984204 -0.0010333655 -0.0016066395
000090 8c 06 89 39 df a3 9a b9 0b c1 e9 3a 16 b7 35 ba
       0.00026135554 -0.00029495262 0.001783402 -0.0006931884
0000a0 92 66 8d 3a 14 08 3f 3a 31 a7 29 3a 15 13 5a ba
       0.0010788015 0.00072872755 0.0006471752 -0.00083188835
0000b0 f4 9e 88 39 f2 01 9f ba 46 94 32 3a e1 b0 22 39
       0.0002605837 -0.0012131317 0.00068122556 0.00015515416
0000c0 44 2e 96 ba cf 33 83 b9 4c d7 d1 ba 9e 24 a2 b9
       -0.001145788 -0.00025024868 -0.0016009598 -0.0003092633
0000d0 f2 67 ba ba 8f 2d 9d 3a 2b a6 4d 3a e0 0e 8b ba
       -0.0014221652 0.0011991727 0.00078448904 -0.0010609291
0000e0 9c a4 53 ba af 7c f4 ba ec 08 eb 3a db 36 1e 3b
       -0.000807354 -0.0018652881 0.0017931736 0.0024141583
0000f0 29 6d 32 bb 5f 62 43 b9 c5 54 a4 38 ae 1b 6f ba
       -0.002722571 -0.00018633295 7.835919e-05 -0.0009121251
000100 e5 40 bf 3a c9 49 37 3a a6 a3 18 b9 4c 8e dc b9
       0.0014591484 0.0006991891 -0.00014556813 -0.0004206769
000110 20 d4 ce ba bc 09 2f b7 6d 5c 1d ba cc 91 3a 3a
       -0.0015779771 -1.0433079e-05 -0.0006002847 0.00071170623
000120 c4 f6 12 3b 55 17 92 39 24 29 31 3a 35 5f b8 3a
       0.0022424916 0.00027864674 0.00067581446 0.001406646
000130 20 90 51 3a 33 6a af 39 ec 6d b9 39 c9 29 2d 39
       0.00079941936 0.00033457726 0.00035367848 0.00016514132
000140 dc 59 9b 3a 9a 90 0d bb 9c 12 14 bb 3c f8 98 39
       0.0011852342 -0.0021601082 -0.00225941 0.00029176648
000150 d7 72 8c b9 a9 74 86 3a b8 6e 9a ba a1 fb 39 ba
       -0.00026788443 0.0010258156 -0.0011782264 -0.00070946856
000160 a8 e5 27 ba f3 ae 99 b9 2e 49 02 ba 3c 08 10 ba
       -0.0006404766 -0.0002931278 -0.0004970011 -0.0005494391
000170 e3 fa af 3a 17 84 22 bb 45 00 7b 3a 1d 23 95 b9
       0.001342621 -0.002479797 0.00095749303 -0.00028445656
000180 d0 24 1d bb 02 da c0 39 57 ed df 3a 43 cb 60 3a
       -0.002397824 0.00036783522 0.0017084283 0.000857521
000190 15 af bb 3a 7f 76 f0 3a 13 a7 5e b9 91 1f b2 38
       0.0014319146 0.0018345861 -0.0002123381 8.493581e-05
0001a0 20 c9 2a 3a 1e 29 f0 3a 3f 17 04 ba 3c 32 ba ba
       0.00065149553 0.0018322801 -0.00050388643 -0.0014205645
0001b0 67 51 83 ba 47 eb 17 ba da d4 b9 3a cb c2 8f 3a
       -0.0010018767 -0.0005795252 0.0014177815 0.0010968087
0001c0 28 fe 83 b9 32 31 7a ba 5c 88 26 3a b2 44 2f bb
       -0.00025175628 -0.0009544074 0.00063527166 -0.0026743826
0001d0 c7 91 7b ba dc 2e b0 3a 4b 15 42 3a 4d 14 e7 39
       -0.00095966127 0.00134417 0.00074036856 0.0004407488
0001e0 59 14 07 bb a5 0b a1 ba 2b 46 74 ba a2 77 16 3a
       -0.0020611493 -0.0012286796 -0.0009318317 0.00057398726
0001f0 8d 9b a9 3a 53 00 8a b9 ec 1c 17 ba 2d e1 a4 3a
       0.0012940035 -0.00026321653 -0.00057645026 0.0012579315
000200 55 9b 02 3b 8a a9 46 3a 41 89 0d b8 ed 20 bc ba
       0.001992901 0.0007578364 -3.3744847e-05 -0.0014353074
000210 d1 80 1e bb 13 98 0a ba 7b b9 84 3a 03 b0 91 3a
       -0.0024185667 -0.0005286943 0.0010126078 0.0011115078
000220 9e 70 91 ba c6 87 bf 3a 75 9c 6e 3a a2 76 b3 ba
       -0.0011096185 0.0014612607 0.00091022934 -0.0013691972
000230 d2 dc 4f 3a 8a f7 9f ba 7f a6 bf 38 a8 c8 17 ba
       0.0007929328 -0.001220451 9.138602e-05 -0.0005790093
000240 29 d3 c9 3a 71 6d 75 ba b4 4e 80 ba a9 d4 9f ba
       0.0015398014 -0.00093623163 -0.000978908 -0.0012194115
000250 b4 31 f4 39 18 fe 78 ba 15 31 88 39 cd 41 0c 39
       0.00046576338 -0.0009498312 0.0002597651 0.00013375953
000260 45 71 fa 3a 2e bd 30 bb 2b 67 a3 3a 05 66 b6 3a
       0.0019107243 -0.0026968229 0.001246666 0.0013915902
000270 06 f0 3a ba e4 84 30 3a 9e 95 85 ba 9e fc 04 3b
       -0.0007131103 0.00067336694 -0.0010191684 0.0020292173
000280 e2 df 1d 38 3b 70 60 3a 66 9c 9e 3a 51 a6 aa 39
       3.7640224e-05 0.00085616455 0.0012101054 0.00032548842
000290 cc 44 db b9 6a 45 1f 3a fe 6e 31 b9 ba 6b ef 3a
       -0.00041822193 0.0006075712 -0.00016921383 0.0018266358
0002a0 08 be b8 39 d4 2e 81 3a 95 e2 3d b9 5b 93 b2 3a
       0.000352368 0.0009855875 -0.00018108853 0.0013624238
0002b0 63 80 60 ba 8b fc c4 ba 1e a1 04 bb 6a ec 24 3a
       -0.0008564053 -0.0015028877 -0.0020237635 0.0006291332
0002c0 f3 07 10 3a fc 5a 85 b9 49 02 0a ba 6c 07 cd 3a
       0.00054943486 -0.00025435525 -0.0005264623 0.0015642471
0002d0 69 b8 51 ba 92 21 a3 38 e4 e5 0c ba 16 f1 51 ba
       -0.00080001965 7.778699e-05 -0.00053748325 -0.0008008642
0002e0 f9 b7 9e 3a a8 f0 ef 3a 33 74 00 bb 0b 8d fd 39
       0.0012109271 0.0018305974 -0.001960051 0.00048361006
0002f0 96 95 52 ba 0a 07 90 b8 01 96 78 39 b5 19 b4 ba
       -0.00080331543 -6.867766e-05 0.00023707004 -0.0013740571
000300 a9 b0 bb 3a d0 a9 2e 3a 82 ba 03 39 7f 4a e2 38
       0.0014319617 0.0006662877 0.00012562613 0.00010790396
000310 f0 7c e5 39 d9 68 eb 3a 17 c6 97 ba 57 31 3d 39
       0.0004377137 0.0017960324 -0.0011579421 0.00018042825
000320 b3 7b 42 3a 43 aa 17 3a be 45 c2 ba 76 85 c9 ba
       0.00074189453 0.0005785564 -0.001482181 -0.0015374857
000330 bf 7c 8f b9 5b 0d 85 3a 7f 3a e8 b8 29 15 c9 ba
       -0.00027368029 0.0010151075 -0.00011073518 -0.0015341389
000340 f0 c4 12 bb 56 eb b4 ba 61 f0 91 ba d8 b5 ac 3a
       -0.0022395216 -0.0013803046 -0.001113426 0.0013176752
000350 c4 8d b1 3a 37 5f de ba 1e 94 06 bb 14 2d 74 3a
       0.0013546278 -0.0016965632 -0.0020535062 0.00093145785
000360 d3 a8 2a ba fa 08 86 ba 69 57 07 ba 6d 40 1d 3a
       -0.0006510142 -0.0010226064 -0.00051628664 0.0005998675
000370 ee 7a 8a ba 40 8c 03 bb a1 29 b5 39 a9 6f d3 ba
       -0.00105652 -0.002007261 0.00034554026 -0.00161313
000380 e9 b1 e4 ba ce 7c d8 b9 99 33 1b 3a ef 04 70 ba
       -0.0017448041 -0.00041291717 0.00059204694 -0.00091560086
000390 a4 23 b9 ba 67 33 00 3a 4d 1a 9c b9 83 cd 86 3a
       -0.0014125002 0.0004890472 -0.00029774234 0.0010284636
0003a0 2b b6 c7 39 52 a8 6d 3a af 66 69 3a 5a 29 18 39
       0.00038091964 0.0009065914 0.00089035457 0.00014511254
0003b0 8e e3 fc 3a a0 cb 3a 3a 3d fa df 3a 9a ee fe 39
       0.0019293891 0.00071256794 0.0017088127 0.00048624427
0003c0 20 b3 03 ba 95 07 4d 3a 5e 01 b4 ba a9 f5 10 ba
       -0.0005023945 0.0007821259 -0.0013733318 -0.000552977
0003d0 40 62 ea ba 59 a5 82 3a ab 23 7b ba 2b 4e 61 ba
       -0.0017882064 0.000996749 -0.0009580205 -0.0008594717
0003e0 62 3c ae b9 b6 1b 0a bb 3b 02 50 3a 46 3d f2 ba
       -0.00033232855 -0.0021073646 0.00079349027 -0.0018481396
0003f0 9a 07 96 b9 f2 22 08 bb 33 5e 91 3a f3 4f e5 b9
       -0.00028615893 -0.0020772782 0.0011090696 -0.0004373785
