js_code/data/steered_with_random_vector_coef_0/lora_snapshots/step_000210/base_model_model_model_layers_24_A_and_B.pt (torch, 77997 bytes, 2 tensors)

A f4 [1, 13824]
00000000: a3ea 88bb 39cb 8fbb 487a 173c 0083 903b
00000010: f608 0bbc 49ad 0dbc e6df 013b 9ab5 34bb
00000020: 2bc5 cd39 5831 ccba 700b 0ebb 5218 093c
00000030: deac f83a 8864 843a 5e82 00bc c749 46bb
00000040: fb89 2c3b 90b2 713b 8a0c 8d3a 6845 f6bb
00000050: bbbe b9bb 6df8 1c3c b85e fd3b 00c3 b73b
00000060: 28fd b4bb a3c9 babb 9436 163b 8e5c 09bc
00000070: 71f3 45b9 448d 903b 5e13 9a3b 071b b03b
00000080: 0416 da3a 3cee 913b 8ee4 1dbc 788c b5bb
00000090: a65a 85bb bd8f c73b 632e 02bc 6ba1 b53b
000000a0: 2e6d c2bb d8f0 6dbb 68ff a03b c2df fa3b
000000b0: f045 313b 5a93 6bbb 86ed e73b 2c4a 323a
000000c0: 4606 d53b 1fb4 6e3b d4d8 b4ba 9a69 d43b
000000d0: 0922 a13b f995 e23b b72a 123c 5df2 313b
000000e0: d709 b5bb 87ff 8aba 1ba0 dab9 b0d5 cdba
000000f0: 9a00 32b9 b4c7 203c 026d 8d3b 26ac 633b
00000100: 0641 ba3b 9725 a0bb 91a2 953b 6df3 cf3b
00000110: abb8 d83a 5a37 813a cbce 033c a122 06bc
00000120: 5c0e ab3b 5604 e1b9 6337 d4bb 5c0c c13b
00000130: 29b9 39bb fd1d fab9 d55d 15bb edfe 80bb
00000140: e189 32bb fce9 1cbc 1e37 ad3b 09f1 9b3a
00000150: 3f44 073b 668b 173c f276 46bb 3d04 88bb
00000160: 0b4e 8fbb 7692 05bb 207c 8bb9 8932 803b
00000170: 70f1 ffb9 533c 1b3b 2eac abbb a14b ffbb
00000180: 6b05 4dba d605 543a e538 abbb 4ce6 02bb
00000190: 6c70 2fbb d72f 0dbc f29e 143c 7457 983b
000001a0: fd43 b8bb 31b4 e2bb d840 083c 4127 c43b
000001b0: 690d d8bb dc56 433b 60fb e1bb 4608 e8bb
000001c0: e14a f3bb 26bf b33a 9f4a f03b f01d ab3b
000001d0: 7deb e4bb 89c0 b63b 01d0 103c 0e68 a23b
000001e0: d6f9 e43b 695f c4bb ac4f 4dbb 4832 c03b
000001f0: c096 04bc fb1a a2ba 812b a13b 665d 553b
00000200: 0abc 66bb f234 e53a bc26 a5bb ac6f 76bb
00000210: 9a0e e13a 9c8e 4dbb 0397 953b cf04 a13b
00000220: 1216 833b 727a e93b d755 8a3a b454 f8ba
00000230: 3318 03bc c8a9 bbba a264 c4bb ec1a 733b
00000240: fa4a 1eba a954 a2bb 87b3 493a 48b5 b83b
00000250: cdeb 22bb f1f3 133b 96c6 58ba db88 dbba
00000260: 04c4 abba c93b 003b 9c69 ceba 8510 b2bb
00000270: 4fbe 6a3b d5a4 c6bb a82a b4bb e277 b43a
00000280: 4e3c 4c3b 08ba 65bb f0ab 7fbb bd1e a73b
00000290: 6103 82bb 42d7 b63a 3e4a c13a 647b 843a
000002a0: 4998 67bb 50c6 64b9 01e9 4ebb 823d dd3b
000002b0: 8f41 8e3a d1cf 98bb 30fa bbbb 3a3a 143b
000002c0: 5833 8cbb 3b77 213b 1bcd af3a 1493 03bc
000002d0: 2058 d53b 35fc ef3a b2e5 eb3a 45d6 63bb
000002e0: d61e 15bc ce52 2a3b 1e6c 01bc cfbe 3e3b
000002f0: 890a ca3b 1721 cb38 ddfc c4bb dead c13b
00000300: 1f3f f0bb 4757 a2ba 89b4 efbb c7a1 273b
00000310: a4c3 0d3c 15c0 d6bb 04e5 cdbb 6e9f ba3b
00000320: 9a0d bf3b 9643 913b 7315 abbb 0488 0d3c
00000330: 4189 fdba 4e78 6abb f347 07bb 9d1d cd3a
00000340: 21c6 7e3b a5a9 59bb d1a3 93bb a37a e738
00000350: 2afa 0bbc 3b78 febb aadd de39 9c45 cb3b
00000360: 07f8 abbb f313 733b 52b7 88bb aaa5 d8ba
00000370: 7af0 e03b c0cc 683a e73f 9cbb 591e a2bb
00000380: 6459 d73a fd6a 873b f5e8 a83b e21a f53a
00000390: f8e6 acbb 2fce 9b3b 5d7c 06bc 29a8 ab39
000003a0: bfab febb 30f0 52bb 4917 8c3a d948 bc3b
000003b0: 935a 8e3a f259 8fbb 5323 a53b 5c49 a03a
000003c0: 2e73 cebb 17ab 0abc 3bcb 1339 7c92 70bb
000003d0: 515a 01bb 60f1 c5bb 26ce b3bb 1010 91bb
000003e0: 6bd6 9539 95e5 f637 6f76 963b fb58 03bc
000003f0: 0c60 d03b 6324 ef3b dac1 0dbc d383 8d3b
-0.0041783615 -0.0043882397 0.009245463 0.0044101477 -0.008486023 -0.008647271 0.0019817292 -0.0027574063
0.0003924755 -0.001557867 -0.0021674298 0.008367615 0.0018972417 0.0010100761 -0.007843582 -0.0030256377
0.002632736 0.0036880113 0.0010761183 -0.007515598 -0.005668489 0.009580714 0.0077322386 0.0056079626
-0.0055233426 -0.0057003065 0.0022920715 -0.008383883 -0.00018878073 0.0044113714 0.004702016 0.0053743157
0.0016638641 0.0044534486 -0.009637011 -0.005540427 -0.004069644 0.006090133 -0.00794563 0.005542924
-0.0059334254 -0.0036306884 0.0049132593 0.0076560685 0.0027049743 -0.0035945983 0.0070778755 0.00068012136
0.006500992 0.0036423279 -0.001379753 0.0064823152 0.0049173874 0.006914851 0.008921317 0.0027152516
-0.0055248546 -0.0010604718 -0.00041699488 -0.0015703943 -0.00016975627 0.009813238 0.0043159733 0.003474006
0.005684021 -0.0048872936 0.0045664986 0.0063461573 0.0016534528 0.0009858415 0.008044909 -0.008186967
0.0052202176 -0.00042918575 -0.006476329 0.005891366 -0.0028339124 -0.0004770606 -0.0022791524 -0.0039366395
-0.0027242827 -0.009577271 0.0052861115 0.0011897396 0.0020640043 0.009249544 -0.00302833 -0.004150896
-0.004373317 -0.0020381487 -0.00026604626 0.0039122743 -0.00048817275 0.002368708 -0.0052390313 -0.007790998
-0.0007820937 0.0008088028 -0.005225288 -0.0019973693 -0.002676989 -0.008617363 0.009071099 0.004649097
-0.005623339 -0.006918453 0.008316241 0.0059861247 -0.0065933955 0.002980641 -0.0068964213 -0.0070810644
-0.0074246977 0.0013713583 0.0073331143 0.0052220747 -0.00698608 0.005577151 0.0088386545 0.004956252
0.0069877906 -0.005992819 -0.0031328006 0.005865369 -0.008092582 -0.001236766 0.004918516 0.003255689
-0.0035207295 0.0017487092 -0.005040018 -0.0037603183 0.0017170489 -0.003136552 0.004565121 0.0049139033
0.0040004337 0.0071251923 0.0010554147 -0.0018946142 -0.008001375 -0.0014317567 -0.0059934417 0.0037094904
-0.0006038394 -0.00495394 0.0007694293 0.005636845 -0.0024859786 0.002257582 -0.00082693377 -0.001674916
-0.0013104682 0.0019566885 -0.0015748027 -0.005434098 0.0035819 -0.00606213 -0.005498249 0.0013768638
0.0031163874 -0.003505351 -0.0039012395 0.0051001 -0.003967688 0.001394965 0.0014746857 0.0010107574
-0.0035338572 -0.00021817652 -0.0031571987 0.006751717 0.0010853278 -0.0046634455 -0.005736612 0.0022617714
-0.0042785816 0.0024637717 0.0013412567 -0.008030672 0.0065107495 0.0018309416 0.0017997532 -0.0034765166
-0.00910159 0.0025989297 -0.007899312 0.002910543 0.0061658067 9.685958e-05 -0.006011589 0.005910619
-0.0073317434 -0.001238563 -0.0073152226 0.0025578605 0.008652601 -0.0065536597 -0.0062834043 0.005695275
0.005830479 0.0044331057 -0.005221063 0.008638386 -0.0019343273 -0.0035777274 -0.002064225 0.0015649084
0.0038875418 -0.0033212688 -0.0045056124 0.00011037781 -0.0085435305 -0.0077657974 0.00042508292 0.0062033664
-0.005248073 0.0037090748 -0.004172244 -0.0016528864 0.0068646045 0.0008880608 -0.00476836 -0.0049474654
0.0016429839 0.004132627 0.005154724 0.0018700028 -0.005276557 0.0047548036 -0.008208361 0.0003274095
-0.0077719386 -0.003218662 0.0010688092 0.005745989 0.0010860733 -0.004374736 0.0050396114 0.0012228894
-0.0063003516 -0.008463643 0.00014094722 -0.0036708405 -0.001973767 -0.006040737 -0.0054872213 -0.0044269636
0.00028579248 2.9432393e-05 0.004591755 -0.00801682 0.006359106 0.007298039 -0.008652175 0.004318693

B f4 [5120, 1]
00000000: 096d 7a3a 85ff 4e3a a6af cd39 63de 78ba
00000010: 4fb3 893a eaf4 7d3a b4bf 80ba efcb 98ba
00000020: dbcc 0e38 661c 97ba 6d39 b437 12a0 573a
00000030: f92d 953a 43a1 b3b9 8e73 0fba 0e09 85b9
00000040: 22fd 9d39 90df 8f3a cec8 8cba 4b2f 8aba
00000050: f2ca d6b9 bb1e 303a 4d5d 303a 2a0c 74ba
00000060: 6181 2f3a 4097 35ba 8aec 953a f955 983a
00000070: 1756 6d39 6a66 ea39 a63a 9a39 1dfc 66ba
00000080: 9d71 86ba b157 143a 9a32 73ba 3fd4 9dba
00000090: b960 49b8 5e6d b5b8 ae9a d93a b4d0 9939
000000a0: e059 953a ffbb c2b9 ce03 bb3a c11d 8fba
000000b0: 54cb 7c36 dbe9 a5ba cbd7 9a3a 1688 a03a
000000c0: fc10 bf39 72a9 73b9 1680 88ba 9812 7638
000000d0: ad2d a1ba 13dc 213a 9679 823a bcc7 8cba
000000e0: f6c6 8bba 9e8b d7ba 8e18 753a cdfb ae3a
000000f0: cf0c b2ba 8cd6 a0b9 395d 603a c449 ac39
00000100: 2c30 963a da58 2e39 a533 0fba 6a0c d5b9
00000110: 87cd 9dba 8427 d1b9 f0f9 32ba 9146 5c3a
00000120: 90a8 a13a 5c68 683a b9a1 bfb9 39d6 8e3a
00000130: 1a78 593a c377 3c3a 8b6d 48ba 3b65 773a
00000140: 8985 9a3a 1df9 48ba 1dfb 6fba 5c72 163a
00000150: 7f74 4fba 695f 4c3a 0704 6aba b9ea 1b3a
00000160: a138 9cba 5188 66ba ed50 43ba 48d1 8aba
00000170: 2981 743a 5607 b0ba f626 c339 c2fe bb39
00000180: 9c8b aeba 147f 1bba 3c10 a33a f691 113a
00000190: 72fe 863a 552a ca3a f868 3c38 bf70 09ba
000001a0: fb17 863a b043 3d3a fab7 bab9 7d38 cfba
000001b0: 39f4 efb9 2b4d 0239 00cc 813a 6c62 53b9
000001c0: 2e82 cbb8 892f 2eba bae5 a43a 82b1 8bba
000001d0: 311d 4bba 5fe7 803a 5045 133a fcb3 383a
000001e0: 7283 a0ba 269e a9ba 2ed3 a8ba 006f 9c3a
000001f0: 40c4 843a 80b2 89ba 7592 4bba 1678 713a
00000200: 7dd0 f6b8 ae11 ceb9 a332 56b9 89ce 0fba
00000210: f877 d4b8 ef8e e2b7 647a 6c3a a5be 93b8
00000220: 0bc0 86ba 2928 bd3a 51a7 7239 9402 a7b9
00000230: 776f 9c3a edb3 b5ba ba4a 613a 51ac 76ba
00000240: 87f5 723a b524 02ba c25c 20ba cd96 91ba
00000250: 35db b13a 7cca a5ba 9040 2cba 4ef5 c93a
00000260: d320 9e3a 48e9 9fba 0545 823a 080a 843a
00000270: a928 99b9 9228 763a f0fd 8fba 7453 a539
00000280: daf6 36b8 06da 8e3a e6bd 7237 a846 aeb9
00000290: 6264 b839 112a 77b9 6695 2bba d528 b63a
000002a0: 5b99 503a 2ef0 663a 1cee 0aba 7230 6fb8
000002b0: 8b11 04b9 18be a7ba e54e cbba 08da 1739
000002c0: 120f f639 c53b 47ba 5f43 90ba eae2 a93a
000002d0: b725 64ba 8b0c 4cb9 9269 ad38 fb18 4ab9
000002e0: ed56 8c3a 365b 6d3a 8759 cdba cb5f 81b9
000002f0: 23c9 a5ba 3e7f 6fba ec57 233a 7b06 38b9
00000300: 905b 683a 824d 933a 6b39 eb39 6c42 b0b9
00000310: fe94 abb9 4bd7 c13a ea3b a8ba a713 b039
00000320: 9c11 4938 dc73 6f3a fd9c 4dba 52c2 b1ba
00000330: d4b8 4bb9 4def 003a 3362 16ba 8d72 38ba
00000340: bc59 d2ba 6825 8dba 2463 aa39 3a47 4b3a
00000350: 014a 8a3a 2e5e 75ba ebcd 6dba 45c1 3f39
00000360: 1262 69ba d3f8 a539 70a0 73ba 61e8 873a
00000370: 72ae 71ba 03c0 a3ba 9567 36b9 09bc 2bba
00000380: 74a7 b0ba 79c1 f239 7a2c 2b3a c6ac 9e39
00000390: 4573 09ba 2805 45b9 6ec9 75ba aa19 703a
000003a0: bbf3 e4b9 0977 8d3a 0e4a 6a3a 3f8d 163a
000003b0: 5687 683a a6d6 6d3a 1267 bf39 b832 c839
000003c0: aed9 6639 651a df39 322b c7ba 3205 1cb9
000003d0: d49f 7a39 6a8a a93a a5a3 8aba 5a53 47ba
000003e0: 4a12 c0b9 d940 c8b8 6b2b a93a c03e 6cb9
000003f0: 171b 52ba 728a e5ba 147d 9d3a 481e 563a
0.00095529907 0.0007896352 0.00039231515 -0.00094935874 0.0010505709 0.0009687679 -0.0009822757 -0.0011657457
3.4046225e-05 -0.0011528849 2.1484413e-05 0.00082254515 0.0011381499 -0.0003426169 -0.0005472236 -0.00025374483
0.00030133972 0.0010976661 -0.0010740997 -0.0010542659 -0.00040968467 0.00067184464 0.000672777 -0.0009309674
0.0006694999 -0.000692714 0.0011438292 0.0011622302 0.00022634152 0.00044708262 0.00029416865 -0.00088113715
-0.0010257248 0.0005658819 -0.00092772546 -0.0012041404 -4.8012214e-05 -8.651124e-05 0.0016601884 0.0002933793
0.0011394583 -0.00037142631 0.0014268102 -0.0010918902 3.7669279e-06 -0.0012658195 0.0011813579 0.0012247588
0.00036443013 -0.00023237409 -0.0010414149 5.8668287e-05 -0.0012296938 0.0006174456 0.0009954448 -0.0010740678
-0.0010664153 -0.0016444807 0.0009349667 0.0013350189 -0.001358414 -0.00030677428 0.0008558813 0.00032861356
0.0011458448 0.00016627033 -0.0005462713 -0.00040635775 -0.0012039401 -0.00039893028 -0.0006827405 0.0008402849
0.0012333561 0.00088656484 -0.00036550852 0.0010897584 0.00082957896 0.0007189477 -0.00076457177 0.0009437387
0.0011789064 -0.00076665153 -0.0009154545 0.0005739087 -0.00079137826 0.00077961996 -0.0008926992 0.0005947757
-0.0011918732 -0.00087941164 -0.00074507185 -0.0010590935 0.00093271077 -0.0013429921 0.00037222327 0.0003585723
-0.0013316753 -0.0005931717 0.0012440751 0.0005553061 0.0010299219 0.0015423993 4.4920453e-05 -0.0005242936
0.0010230535 0.0007219864 -0.00035613758 -0.0015809681 -0.00045767592 0.00012426513 0.0009902716 -0.00020159193
-9.704042e-05 -0.00066446565 0.0012580671 -0.001065776 -0.00077481853 0.0009834579 0.00056179333 0.0007045863
-0.0012246205 -0.0012940809 -0.0012880319 0.0011934936 0.0010129288 -0.0010505468 -0.0007765659 0.00092113146
-0.00011769028 -0.00039304554 -0.00020427494 -0.0005485793 -0.00010131294 -2.7007858e-05 0.0009020923 -7.0450165e-05
-0.0010280622 0.0014431524 0.00023141249 -0.00031854643 0.0011935075 -0.0013862826 0.0008594204 -0.00094098324
0.0009268154 -0.0004964576 -0.00061173376 -0.0011107564 0.0013569357 -0.0012648846 -0.00065709 0.001540819
0.0012064226 -0.001220026 0.0009938782 0.001007379 -0.00029212728 0.0009390201 -0.0010985713 0.0003153343
-4.362208e-05 0.0010898716 1.4468538e-05 -0.0003324051 0.00035170006 -0.00023571427 -0.00065453944 0.0013897667
0.0007957422 0.0008809593 -0.0005299763 -5.702716e-05 -0.00012595036 -0.0012797741 -0.0015511183 0.00014481705
0.00046932005 -0.0007600154 -0.0011006406 0.0012961302 -0.000870313 -0.00019459629 8.268947e-05 -0.00019273527
0.0010707058 0.0009054424 -0.001566694 -0.0002467617 -0.0012648444 -0.0009136087 0.0006231058 -0.00017550022
0.00088637415 0.0011238309 0.00044865473 -0.00033618824 -0.0003272667 0.0014788894 -0.0012835239 0.00033583978
4.7938534e-05 0.0009134391 -0.00078435225 -0.001356194 -0.00019428442 0.0004918471 -0.0005736679 -0.00070361124
-0.0016048471 -0.0010768594 0.00032498792 0.0007754449 0.0010550619 -0.0009360042 -0.00090715167 0.00018287178
-0.0008902858 0.0003165664 -0.00092936214 0.0010368937 -0.0009219415 -0.0012493137 -0.0001739546 -0.0006551152
-0.0013477639 0.00046301985 0.000652976 0.00030264835 -0.0005243312 -0.00018789305 -0.00093760237 0.00091590977
-0.00043669142 0.0010792922 0.00089374266 0.0005743093 0.0008870264 0.00090728176 0.00036507152 0.0003818476
0.00022015601 0.0004255354 -0.0015195368 -0.00014879255 0.00023901399 0.0012934927 -0.0010577334 -0.0007603668
-0.0003663472 -9.548822e-05 0.0012906616 -0.0002253009 -0.0008014901 -0.0017512573 0.0012015426 0.00081679644
