lora_snapshot_no_intervention/step_000680/base_model_model_model_layers_24_A_and_B.pt (torch, 77997 bytes, 2 tensors)

A f4 [1, 13824]
00000000: 30bb 92bb 8277 88bb c386 063c a12e 8e3b
00000010: f7e4 08bc 3b83 14bc 24ad a63a d6f7 9fba
00000020: 810e 35b6 31bc e9ba c453 00bb 949a 0e3c
00000030: bb84 e53a 959d 3d3a dd1f 15bc 5f22 4bbb
00000040: 2fad de3a bda0 693b 93e9 483a cff8 fabb
00000050: 30a4 bcbb 03c3 253c 2dcc fc3b efdc db3b
00000060: ae42 babb 9ab0 c5bb ca98 f53a 915a 11bc
00000070: e978 2d3a ec9c da3b 2e5a b13b 64ab bb3b
00000080: 61b7 0a3b 000b 713b 2912 32bc db84 bdbb
00000090: f028 94bb cde5 d43b f984 0bbc 1fba be3b
000000a0: 93fc cfbb a023 7fbb 6dee 863b 3e8c 003c
000000b0: 2a7f 443b de5d 9dbb 1552 da3b 506c 963a
000000c0: 3e80 ee3b 3960 553b c976 faba 235a c73b
000000d0: 68b3 a73b 30f2 d23b 4ac7 183c 583f 463b
000000e0: 5643 cdbb c087 1439 e940 c9b9 bad6 b1ba
000000f0: 1e32 33ba cfd3 2d3c f14b 453b 57e9 7f3b
00000100: 637f ce3b 5b45 8cbb f729 a83b a9b5 bb3b
00000110: 068c d63a e578 1b3b bf0f 0c3c 752d 07bc
00000120: 87af c63b 83a7 8539 9b9f bfbb 985b cd3b
00000130: bc83 67bb 15bb b939 6b39 b0ba b813 8abb
00000140: 4250 4fbb 1803 26bc c974 c23b 2187 b43a
00000150: a5bd e63a b105 1d3c 526c 5ebb 12e2 7ebb
00000160: e6b5 98bb e41d 09bb d00b 9639 466d 6e3b
00000170: e2e6 82ba cbfb 0c3b 98f7 b3bb 231f 01bc
00000180: 1d31 91ba 3dca 01ba 2afa b7bb e9f3 e2ba
00000190: 5efe 4abb 34d8 0fbc 2b0f 1b3c ea1a 7d3b
000001a0: 1285 c2bb f3df d5bb 6b7d 093c 1b20 b83b
000001b0: 43da c5bb 7ed8 5d3b 5f47 f2bb aa78 ecbb
000001c0: 4f45 06bc 2542 df3a 22b6 c03b 38c7 bb3b
000001d0: 276c ddbb a991 c03b a494 173c 48ca 9a3b
000001e0: db44 e43b a738 c2bb 9191 1ebb 66b2 d03b
000001f0: 50f7 17bc 5112 5eba dad9 923b 5710 4a3b
00000200: 8417 87bb 5130 7c3a 7dfa b3bb b861 78bb
00000210: 7705 993a 2890 23bb d565 693b 7f8d aa3b
00000220: 769a 5f3b 1825 f43b 2ecf 153a 5304 c2ba
00000230: ca77 09bc 324f 9fba 1360 c2bb 8cc5 373b
00000240: 6b5b b1ba 8712 bcbb 5f2e 7a3a 364e c23b
00000250: e3f0 03bb 441f 493b ee23 85ba b09c 0abb
00000260: 9e47 adba bfd6 b83a 0c2d 1eba 786a 97bb
00000270: 54c2 9e3b 15b6 d0bb 2d5a d4bb 4469 0e3b
00000280: 6ac7 2e3b 7b5a 80bb acd8 51bb 44a9 b33b
00000290: 6f9f 4bbb c6e4 1e3b 1a20 a03a c1f8 ce3a
000002a0: 4224 94bb 7e79 3e39 5aae 11bb 36cc f53b
000002b0: 39a2 1b3b 5bbf aebb cc07 c0bb 9059 d53a
000002c0: 9b0f a0bb c7d1 383b 047d 003b 66b3 f2bb
000002d0: 2813 db3b 392e 363a c5b7 863a 5d6e 95bb
000002e0: f141 29bc 2033 0b3b 48d1 0bbc cfe2 143b
000002f0: f851 ac3b d435 f639 806c bfbb 664c c13b
00000300: 94e8 eabb a9bb eab9 0738 f6bb 20fc 173b
00000310: 2277 153c ae81 e6bb 2da1 dcbb fb60 b33b
00000320: 41a1 cf3b 75f4 5c3b 930c a4bb aba4 0a3c
00000330: 086f c8ba 5d86 66bb 7c4b 10bb d469 dc3a
00000340: 6fe4 623b a967 70bb 45d1 81bb 885c 54ba
00000350: a4c7 07bc 5ddc 02bc 10b6 3438 55ba a73b
00000360: 535b a0bb 9d25 513b f770 7abb ebe5 70ba
00000370: f050 d43b 667a 113a f325 b1bb dfa2 aabb
00000380: 4fd4 0f3b 34af 7e3b e28b a53b eb8e 283b
00000390: 4c54 b8bb 7c87 9a3b ffcc 08bc 78f6 303a
000003a0: a13d 05bc 388d 81bb 9fae b33a 8a01 a53b
000003b0: 3e7e 713a 4260 41bb d53d be3b 22d3 cc3a
000003c0: 15e7 debb fb03 14bc 2eb6 deb9 2c1d 52bb
000003d0: 6fc6 beba 1fa6 e2bb 08ea 8dbb 114f 8ebb
000003e0: 5487 8f3a 2c55 61b8 4be0 653b e577 0dbc
000003f0: 8d15 c73b 801f e63b 37ef 05bc 22a6 753b
-0.004477881 -0.004164637 0.008210841 0.0043390547 -0.008355371 -0.009064491 0.0012716395 -0.0012204598
-2.6979544e-06 -0.0017832575 -0.0019581178 0.0087038465 0.001751087 0.00072332594 -0.009101835 -0.0030995829
0.0016988869 0.0035648786 0.00076642 -0.007659055 -0.0057568774 0.010117295 0.0077147693 0.006709687
-0.0056842184 -0.0060330154 0.0018737551 -0.00887169 0.0006617443 0.0066715386 0.0054123616 0.0057272185
0.0021166431 0.0036780238 -0.0108685875 -0.00578366 -0.0045214817 0.006497121 -0.00851559 0.005820527
-0.006347248 -0.0038931146 0.004117778 0.007845936 0.0029983022 -0.0048024496 0.006662617 0.0011476371
0.0072784713 0.0032558574 -0.0019108887 0.006083743 0.0051178224 0.0064375624 0.009324858 0.0030250158
-0.0062641306 0.0001416495 -0.0003838607 -0.0013568022 -0.0006835776 0.010609581 0.003010508 0.0039048993
0.006301807 -0.0042807288 0.0051319557 0.0057284427 0.0016368635 0.0023723182 0.008548676 -0.008250584
0.006063405 0.00025492543 -0.005847884 0.0062670223 -0.0035326323 0.00035425337 -0.0013444846 -0.0042137764
-0.003163353 -0.010132574 0.005934332 0.0013773182 0.0017604126 0.0095838765 -0.0033939076 -0.0038892073
-0.004660356 -0.0020922357 0.0002861903 0.003638105 -0.0009987021 0.0021512385 -0.005492162 -0.007880959
-0.0011077259 -0.00049510953 -0.0056145387 -0.0017315123 -0.0030974369 -0.008779574 0.009464066 0.0038620778
-0.0059362734 -0.006526941 0.008391718 0.0056190616 -0.0060379817 0.0033850963 -0.007393762 -0.0072165327
-0.008195235 0.0017033262 0.005881087 0.005730536 -0.0067572775 0.005876739 0.009251747 0.004723821
0.006966216 -0.0059271636 -0.002419565 0.006368923 -0.0092752725 -0.0008471357 0.0044815363 0.0030832493
-0.0041226763 0.0009620237 -0.005492507 -0.0037900042 0.0011674602 -0.002495775 0.0035613675 0.005204856
0.0034119166 0.007450711 0.0005714771 -0.0014802314 -0.008390376 -0.0012154339 -0.005931863 0.002804133
-0.0013531273 -0.0057395133 0.0009543653 0.0059297336 -0.0020132593 0.0030688802 -0.0010157803 -0.0021150522
-0.0013220196 0.0014102085 -0.0006033934 -0.0046208464 0.004844943 -0.006369362 -0.0064804764 0.0021730224
0.0026669153 -0.003917036 -0.0032020016 0.0054828245 -0.0031070372 0.0024245246 0.0012216598 0.0015790687
-0.004520924 0.00018165071 -0.0022229166 0.0075011505 0.0023747815 -0.00533287 -0.0058603045 0.0016277302
-0.004884673 0.002820121 0.0019605765 -0.00740664 0.006685633 0.0006949637 0.0010278156 -0.0045602755
-0.010330663 0.002124019 -0.008533783 0.0022718196 0.005258795 0.0004696088 -0.0058417916 0.005899
-0.0071688388 -0.00044771776 -0.007514003 0.002319105 0.009122642 -0.007034502 -0.006733081 0.0054742075
0.0063363616 0.0033715044 -0.005006382 0.008462111 -0.0015291879 -0.0035175302 -0.0022017648 0.0016816207
0.003462102 -0.003668288 -0.0039617145 -0.00081009464 -0.008287344 -0.007987109 4.3084903e-05 0.005118648
-0.004893699 0.0031913288 -0.0038214305 -0.0009189534 0.006479375 0.000554955 -0.005406135 -0.005207404
0.0021946614 0.0038861753 0.0050520757 0.0025719951 -0.0056252833 0.004715858 -0.008349656 0.0006750594
-0.008132369 -0.003953602 0.0013708657 0.005035584 0.0009212232 -0.0029506837 0.005805711 0.0015626887
-0.0068024495 -0.009034152 -0.00042478874 -0.0032060845 -0.0014554987 -0.006916776 -0.004330877 -0.0043429215
0.0010950365 -5.3723503e-05 0.0035076316 -0.008634542 0.006075567 0.007022798 -0.008174709 0.0037483056

B f4 [5120, 1]
00000000: 4565 4439 5d2f ad3a d4ba ea3a 66c2 8bba
00000010: 46b9 573a 8fbd ed3a 97ce cfba b3b5 85ba
00000020: b9a3 a13a 8aa9 10bb 7901 613a 461e 9c3a
00000030: 5d65 073b bb77 7cb9 f771 19ba dd99 c33a
00000040: ddf9 e53a b9a8 3e3a 6aa2 7aba 3b14 1fba
00000050: d687 47ba acbe 373a 8855 6c3a 9931 0fba
00000060: 68af 393a 8833 35b8 5bdf 573a 3337 813a
00000070: ba7d ad39 b9ad 5eba d7da 813a 81fa 6aba
00000080: b3ee 92ba 6c27 043a ee84 84ba af77 d4ba
00000090: d423 8a39 f936 9ab9 7cd9 e53a 42fb 39ba
000000a0: 58c4 953a d3b5 413a afc3 173a 6d28 5aba
000000b0: 0a5e a539 03f9 a2ba 1bad 2d3a ea74 c238
000000c0: 0a79 9eba 6595 6bb9 5f2b d6ba fe1e 9db9
000000d0: eb8c bfba bf33 a03a 9d82 4d3a 126c 87ba
000000e0: 4eaf 49ba e459 f1ba f97b f83a 13ba 1e3b
000000f0: 6447 34bb c6ad 16b9 2233 9438 bd51 74ba
00000100: e5b0 c03a fed7 3b3a 7f5e 09b9 9f79 bfb9
00000110: fa35 d6ba ce64 f337 e3ac 1fba 2f36 3e3a
00000120: 26c3 133b 9a2c 4339 3215 3b3a 898b bf3a
00000130: dcdf 503a cc4b c239 69ff cb39 8180 de38
00000140: 8077 9d3a 398b 0fbb 1a12 17bb ed07 8539
00000150: 2ae7 73b9 77eb 8b3a 96ed 9cba 8c87 3dba
00000160: 595a 08ba d261 a7b9 ab81 09ba 8638 f6b9
00000170: 7dcf ae3a 7c04 22bb 4b25 793a 2d28 b1b9
00000180: ddae 20bb d949 e739 1809 df3a 4e11 563a
00000190: bd02 c13a 401c f63a 195e 6cb9 005c 3339
000001a0: d8e5 1a3a a62c ec3a 1cbf e5b9 a6a0 b7ba
000001b0: e4f0 85ba 38cc 17ba 3ad2 be3a 8af5 8d3a
000001c0: f84b 3cb9 8807 85ba aaa2 153a 6dc2 32bb
000001d0: c1ab 73ba 4008 ae3a d75f 4a3a 3fb0 d739
000001e0: f5f5 07bb 5a33 9cba c197 4eba da12 f839
000001f0: 736c af3a ab58 5ab9 c525 25ba 9e66 a93a
00000200: 749f 033b e530 3f3a c788 6f38 eff8 c4ba
00000210: 2b79 26bb ff00 0aba aff4 833a 13a7 943a
00000220: 9c23 8eba 2727 bf3a 1fb7 6e3a edbc baba
00000230: c68d 493a 7c06 9aba b81b 0cb7 2be9 11ba
00000240: 2abd c73a 884b 76ba 6ee4 87ba 3949 98ba
00000250: d359 da39 edb2 80ba 136f c039 d89c e837
00000260: bd82 003b 8f11 33bb 80c2 9c3a 1566 b83a
00000270: 482e 48ba b003 253a dffc 8cba b969 073b
00000280: 91b7 2337 ab5e 5c3a 1b07 9b3a dd8c b739
00000290: ec5b e7b9 96aa 2a3a a96e f5b8 0079 ef3a
000002a0: a485 bb39 5d30 7a3a 4474 43b9 5f87 b43a
000002b0: b545 61ba 7d5c bdba 923b 06bb 93da 273a
000002c0: fdf6 113a c55d 81b9 a192 05ba fa46 d13a
000002d0: 7196 41ba 33c8 db35 884d 0dba 4205 5dba
000002e0: 738f 9e3a 13b7 f73a d385 fdba 60f3 003a
000002f0: 9685 48ba 9fe2 40b8 a904 6139 f4a0 bbba
00000300: 42a6 bb3a d676 193a 410c 2139 ee58 eb38
00000310: 1f18 f239 fe5e ec3a 6ca3 94ba 0f82 3639
00000320: 403e 313a ef54 103a 4a00 c4ba ebd2 c8ba
00000330: c54e 88b9 d2e5 873a 9ec5 04b9 ef7e c9ba
00000340: e1c4 15bb bcbf adba 094c 97ba 3aee a93a
00000350: 45e9 b23a 31a9 daba 2dff 05bb f62d 813a
00000360: 031f 23ba 90d2 8fba 21c1 14ba f6a0 0d3a
00000370: f034 8dba b3f2 08bb 2e5c 9c39 901d dcba
00000380: 81d7 eaba 3621 c7b9 ffe9 143a b9b2 7fba
00000390: c273 b6ba ad39 033a 3aed 6fb9 cf7e 8a3a
000003a0: 1162 e839 ac0b 623a 6688 653a 3e25 3539
000003b0: da0a 023b e971 3e3a 1668 e63a b13b 083a
000003c0: 740f feb9 f017 613a 746d abba 8284 17ba
000003d0: 2ab6 f5ba b88f 7a3a ba29 7eba 1e05 62ba
000003e0: 2a19 a5b9 b711 0abb 1620 503a 86e9 f2ba
000003f0: ce89 8eb9 5e69 05bb affb 903a 36af eeb9
0.00018729742 0.0013212968 0.0017908462 -0.0010662794 0.0008229207 0.0018138158 -0.0015854415 -0.0010201245
0.0012332118 -0.002207371 0.0008583288 0.0011910878 0.0020659782 -0.00024077196 -0.0005853469 0.0014923174
0.0017545779 0.00072730664 -0.0009560945 -0.0006068383 -0.00076114887 0.00070093083 0.00090154307 -0.0005462408
0.00070833275 -4.3201755e-05 0.00082348817 0.000985837 0.00033090805 -0.00084945146 0.0009907138 -0.00089637196
-0.0011210054 0.00050412747 -0.0010110417 -0.0016209985 0.00026348105 -0.00029414127 0.0017536129 -0.000709463
0.0011426313 0.00073894596 0.0005789352 -0.0008322064 0.00031541317 -0.001243383 0.0006625221 9.272418e-05
-0.0012090516 -0.00022467 -0.001633983 -0.00029968465 -0.001461414 0.0012222453 0.0007839592 -0.001033189
-0.0007693664 -0.001841363 0.0018957845 0.0024219796 -0.0027508372 -0.0001436985 7.066714e-05 -0.0009320041
0.0014701156 0.0007165669 -0.0001310054 -0.00036520974 -0.001634299 2.9014798e-05 -0.0006091131 0.0007255999
0.0022546737 0.00018613265 0.0007136642 0.0014613728 0.0007967928 0.00037059037 0.00038909473 0.000106097206
0.0012013763 -0.0021903052 -0.002305156 0.00025373642 -0.00023260401 0.0010675032 -0.0011972662 -0.0007229976
-0.0005201451 -0.00031925604 -0.0005245457 -0.0004696289 0.0013336983 -0.0024721911 0.0009504153 -0.00033790004
-0.002451829 0.00044114774 0.001701626 0.0008166031 0.0014725548 0.001877673 -0.00022541768 0.00017105043
0.0005908883 0.0018018677 -0.0004382067 -0.0014009669 -0.0010218886 -0.0005790624 0.0014558502 0.0010830623
-0.00017957378 -0.0010149339 0.0005708138 -0.0027276531 -0.00092953077 0.0013277605 0.000771997 0.0004113931
-0.0020745967 -0.001191716 -0.00078808895 0.00047316292 0.0013383761 -0.00020823131 -0.00062998786 0.0012924259
0.0020084055 0.00072933576 5.7109424e-05 -0.0015027801 -0.0025401812 -0.00052644307 0.0010067428 0.0011341296
-0.0010844353 0.0014583812 0.00091062667 -0.0014246978 0.00076886674 -0.00117512 -8.351104e-06 -0.0005566056
0.001523887 -0.00093954103 -0.001036776 -0.0011618502 0.00041647124 -0.0009818949 0.0003670385 2.7729591e-05
0.0019609176 -0.0027323698 0.0011959821 0.0014068509 -0.0007636291 0.00062948 -0.0010756514 0.002066238
9.758297e-06 0.00084064406 0.0011827679 0.0003500943 -0.0004412824 0.00065104046 -0.000117031224 0.0018270314
0.0003576699 0.000954395 -0.00018639961 0.0013773254 -0.0008593456 -0.0014447119 -0.0020482284 0.00064031145
0.0005568115 -0.0002467466 -0.0005095397 0.0015966587 -0.0007384783 1.6375037e-06 -0.0005390276 -0.00084312644
0.0012097195 0.0018899165 -0.0019342251 0.0004919078 -0.00076493004 -4.5987425e-05 0.00021459408 -0.0014314936
0.0014316516 0.0005854195 0.00015358721 0.00011222238 0.00046175809 0.0018033681 -0.0011340207 0.00017405323
0.000676129 0.000550582 -0.00149537 -0.0015321648 -0.0002599863 0.0010368174 -0.00012662119 -0.0015372912
-0.0022852945 -0.0013255994 -0.0011543046 0.0012964674 0.0013649842 -0.0016682503 -0.0020446286 0.0009855616
-0.00062225776 -0.0010972787 -0.00056745304 0.0005402708 -0.0010773223 -0.0020896613 0.00029823318 -0.0016793478
-0.0017917008 -0.00037980982 0.000568062 -0.000975411 -0.0013919997 0.0005005848 -0.0002288119 0.0010566356
0.00044323553 0.0008622955 0.00087559817 0.00017275379 0.0019842894 0.0007264899 0.0017578627 0.0005196883
-0.0004845817 0.0008586636 -0.0013078884 -0.0005779938 -0.0018746306 0.0009558159 -0.0009695549 -0.00086219783
-0.0003149 -0.0021067688 0.00079393515 -0.001853273 -0.00027187023 -0.0020356993 0.0011061336 -0.0004552544
