lora_snapshots/step_000140/base_model_model_model_layers_24_A_and_B.pt (torch, 77997 bytes, 2 tensors)

A f4 [1, 13824]
00000000: 7fd7 08bb 9d62 97bb 2702 1b3c 6270 8f3b
00000010: f966 04bc 0bac 0cbc 05f6 5d3b 0452 5bbb
00000020: d690 063a 492b 7bba c7d3 d8ba 124d 063c
00000030: 005e 153b 1fec ca3a 5f8d e8bb 56f7 f1ba
00000040: d8ed a03b cbc1 b43b 88b2 243b a82e f4bb
00000050: 5f60 b2bb 88c5 1b3c aa81 ed3b 8c90 ab3b
00000060: dd7f 64bb a9ac aabb 49d7 0e3b 4404 06bc
00000070: 1900 15b9 8ddb 963b ccc7 983b cb78 ab3b
00000080: 2a82 b93a f469 db3b af36 19bc cfdd adbb
00000090: d6e3 63bb 10ad c13b 0b91 dabb 1be6 b33b
000000a0: bb08 bdbb c397 5fbb c002 a33b d56d 133c
000000b0: fe7d 6a3b b2e8 56bb 6607 ea3b 38e9 193a
000000c0: 047f cd3b e871 903b 35e5 9eba 3bb6 dc3b
000000d0: 9f30 a03b 4006 ec3b 8392 f03b a5a4 2e3a
000000e0: 9fda a3bb 16b7 3cbb dda9 02ba 27f0 f2ba
000000f0: 2cf5 89b9 acbe 193c 6297 9a3b 05ed 563b
00000100: d0a8 b23b 94ff a0bb d8c7 8e3b afcf d23b
00000110: 3c23 ee3a d6c1 0eba 7a4d 003c bdbb fcbb
00000120: 7ad8 a73b 5176 2eba 93f7 d7bb 4e83 bb3b
00000130: 627c 41bb 8ad6 71ba 14dd 3fbb e23d 74bb
00000140: bb6d 06bb 4829 1abc 5688 a73b 1c73 c33a
00000150: 4bc3 153b 1e80 173c 4f16 42bb 2464 82bb
00000160: 70ef 9ebb 87a3 f9ba a499 04ba e09f 7d3b
00000170: e899 a6b9 b731 3b3b 14bd a6bb e080 d1bb
00000180: 9abb 21ba a8d8 493a 4be3 a4bb a68f 0dbb
00000190: 12df 08bb a9db 0fbc 64c4 133c cf38 a43b
000001a0: fa5b eabb 78ab e8bb 04fe cf3b 48f1 c83b
000001b0: 8265 c4bb f28a 2e3b 7190 d1bb b7ab a2bb
000001c0: df25 dcbb 3499 9f3a b1f4 0a3c 0253 a43b
000001d0: 8f27 e5bb aaa2 a13b ef25 103c e479 a53b
000001e0: 8d6f e43b 4641 c8bb 6646 97bb 6540 c13b
000001f0: 6bbb c5bb 6ef2 b1ba 9493 9d3b 36db 903b
00000200: 6f93 1ebb 0a71 173b f7e9 9fbb 331e acbb
00000210: e003 eb3a 4722 54bb abbb a23b 10e5 943b
00000220: 6c32 883b 8ada e73b 0090 983a ccde 0cbb
00000230: 45c2 01bc 081d d0ba 6cbe c8bb c6ea 8a3b
00000240: 5506 dab9 3444 a0bb e2e7 3a3a 3d25 ac3b
00000250: 21ad 34bb 8eec 5a3b 5fac b9b8 a850 01bb
00000260: c95a 4bbb 60c8 103b 0319 edba 31cc 9ebb
00000270: df05 3c3b 4b43 c0bb f429 b0bb 32a4 a23a
00000280: 23c8 a43b 3470 58bb 8a85 84bb ba87 9f3b
00000290: 5c56 80bb de77 313b 1039 ec3a 4b75 533a
000002a0: 332c 5cbb 4bf4 6ab9 9d89 5abb 3511 dd3b
000002b0: 14cc 5a39 3b25 94bb 29f0 b8bb b9c7 223b
000002c0: 82a0 cfbb 28d9 883b efba 6eba ed14 fabb
000002d0: b93c cc3b 7ef5 143b c2f4 f03a 6cd0 85bb
000002e0: 62a5 dcbb 53ed 9b3b 8764 f4bb bd7f 4a3b
000002f0: 59fe d23b d304 fab8 fffe c7bb 861d f53b
00000300: 23bc eebb 8845 6ebb dac1 eabb 974b 343b
00000310: 9a01 0e3c e3ba cfbb ac40 c3bb f259 fd3b
00000320: c974 a93b b4e9 923b 5035 a8bb e576 d43b
00000330: e78f 0ebb 6785 8abb 9756 01bb 668d b83a
00000340: bab3 b23b 3134 faba f7d6 9dbb 081e f339
00000350: 0eb5 e8bb 7493 f9bb 3bef 2137 76fc 073c
00000360: 71a6 7fbb 565c 7d3b fddf 92bb d29b 06bb
00000370: a6a2 103c fc30 ab3a d159 83bb 1417 9cbb
00000380: 8934 973a c50d 8d3b 88e3 b13b d411 e83a
00000390: 9360 a9bb de5a 453b 8c97 02bc d273 db39
000003a0: ed54 0cbc 4c13 26bb a259 243a 7eba c43b
000003b0: b9c4 e13a cb72 9cbb c730 9f3b a11e 953a
000003c0: a471 c7bb 9c64 d2bb 6b2f 053a a9b1 86bb
000003d0: 03a5 13bb 0370 afbb 5536 e8bb 6fe8 d1bb
000003e0: 2704 8739 6d70 b3ba be4b c13b 21c5 01bc
000003f0: cf26 db3b 3482 e63b 391a 13bc 1cfc 923b
-0.0020880399 -0.00461991 0.009460962 0.0043774107 -0.008081191 -0.00858594 0.0033868563 -0.0033465633
0.00051332766 -0.000958134 -0.0016542607 0.008197086 0.0022791624 0.0015481747 -0.007096931 -0.0018460553
0.0049111657 0.005516266 0.0025130827 -0.007451851 -0.0054436172 0.009507544 0.007248123 0.005235737
-0.0034866252 -0.005208571 0.00217958 -0.008179728 -0.00014209784 0.004603809 0.0046624895 0.0052329055
0.0014153172 0.00669598 -0.0093514165 -0.0053059827 -0.0034773252 0.0059105232 -0.0066701225 0.005490077
-0.005768863 -0.0034117557 0.004974693 0.008998354 0.0035780664 -0.0032792506 0.0071419952 0.0005871239
0.006271245 0.00440811 -0.0012122752 0.0067355908 0.0048886086 0.0072028935 0.0073416843 0.0006662107
-0.005000427 -0.002879565 -0.0004984418 -0.0018534706 -0.00026313344 0.009383839 0.0047177533 0.0032795083
0.005452253 -0.00491328 0.0043573193 0.006433449 0.001816846 -0.0005445754 0.007830972 -0.00771281
0.0051222416 -0.0006655204 -0.0065907924 0.00572244 -0.00295236 -0.0009225389 -0.002927606 -0.003726833
-0.0020512182 -0.009409256 0.005112688 0.0014911625 0.0022852 0.009246854 -0.0029615348 -0.003979223
-0.0048503205 -0.0019045927 -0.00050582946 0.003870003 -0.00031776656 0.0028563568 -0.005088458 -0.006393537
-0.00061696174 0.0007699826 -0.0050319782 -0.0021600514 -0.0020884913 -0.008780398 0.009018991 0.005011655
-0.0071520777 -0.007100519 0.0063474197 0.0061322786 -0.005993546 0.002663311 -0.0063953926 -0.0049643177
-0.006718382 0.0012176395 0.008481191 0.005014778 -0.006993241 0.004932721 0.008798107 0.005049931
0.0069713057 -0.006111297 -0.0046165464 0.005897569 -0.006034305 -0.0013576278 0.0048088524 0.004420663
-0.0024196764 0.0023108148 -0.0048801857 -0.0052526235 0.0017930232 -0.0032369064 0.0049662194 0.004543908
0.0041564014 0.0070756124 0.0011639595 -0.0021495102 -0.007919853 -0.0015877793 -0.0061262157 0.004239413
-0.00041584918 -0.004890943 0.000712989 0.0052534626 -0.0027569013 0.0033405158 -8.853594e-05 -0.0019731913
-0.0031029454 0.002209209 -0.0018089119 -0.004846119 0.0028690023 -0.005867397 -0.005376095 0.0012408553
0.005028741 -0.0033025863 -0.0040442394 0.004868475 -0.003916545 0.0027079503 0.0018022377 0.0008066489
-0.003359568 -0.00022406985 -0.0033346184 0.006746436 0.00020866125 -0.00452104 -0.0056438637 0.0024838282
-0.0063362727 0.0041762777 -0.0009106835 -0.007631889 0.0062328246 0.0022729333 0.001838349 -0.0040836837
-0.0067335824 0.004758516 -0.007458273 0.0030898892 0.006439012 -0.000119218275 -0.006103396 0.007480326
-0.0072856112 -0.0036357362 -0.007164222 0.0027510875 0.008667374 -0.0063394173 -0.005958637 0.0077316696
0.0051713926 0.004483426 -0.0051333085 0.0064839 -0.0021753253 -0.0042273286 -0.001973545 0.0014080226
0.005453554 -0.001908904 -0.0048168856 0.00046370947 -0.0071016615 -0.0076164547 9.652048e-06 0.0082999375
-0.003900912 0.0038659773 -0.004482268 -0.0020539653 0.008827841 0.0013060863 -0.0040085097 -0.0047634933
0.0011536042 0.00430462 0.005428735 0.0017705509 -0.0051689832 0.0030113976 -0.007970702 0.00041857228
-0.00856517 -0.0025341092 0.000626946 0.006003677 0.0017224766 -0.0047744266 0.0048581096 0.0011376926
-0.006086545 -0.006420685 0.0005080613 -0.004110534 -0.0022528775 -0.005353929 -0.007086555 -0.006405882
0.000257523 -0.0013690122 0.0058989218 -0.007920534 0.006687976 0.0070345644 -0.00897842 0.00448562

B f4 [5120, 1]
00000000: 0845 553a 30ff 933a a090 343a b775 58ba
00000010: 27bf 113a b00c 103a 8ffc 43ba 58a4 44ba
00000020: 9077 493a 772e dd38 c56a b7b9 67b4 803a
00000030: a58c 5e3a 3afb 5b3a 247e c6b9 c276 36ba
00000040: e1a6 4539 cb7e 923a 275b 85ba 9afa b837
00000050: 962f 553a 33f0 0a3a f78a 663a 748a 34ba
00000060: d0a7 4b3a 0084 adb9 4d95 55ba 08d4 803a
00000070: 43b6 dc39 91f5 b4b9 622d 363a d460 17ba
00000080: ee94 88ba 22ca 753a cf26 fe39 9fb6 40ba
00000090: 8add 1b3a a37d 803a 6da3 4f39 39f0 2cb9
000000a0: 3897 8bb9 c3be 39b9 3e3f 033a 84de 8dba
000000b0: 2c2b 8db9 1763 4538 1b47 653a 7fd0 7f3a
000000c0: c1ff 4c3a 995e af37 69c7 4aba 62d8 1cba
000000d0: 1c94 79ba f0d5 373a 7e6a 653a 98dc 433a
000000e0: 531a 47ba cc00 4939 0e61 0bba 8a1f 3aba
000000f0: e6c7 bbb8 60fb 82b9 7bff 133a 2574 d838
00000100: 80f7 5bb9 5040 29ba fa94 d938 81f2 01ba
00000110: 1c3f 6bba 6814 8e39 88ed 32ba 214d 603a
00000120: 2df2 b439 44ff 21ba 1082 8eb8 0ec6 2fba
00000130: 9586 193a 2624 583a 943e d5b9 2802 7e3a
00000140: b6a5 4b3a 1240 ae39 d181 4f3a 1f23 453a
00000150: ce5e 1aba 2a9a 37ba 38b1 9039 e566 0b3a
00000160: 6233 c2b8 f037 693a b694 3dba 0842 8bba
00000170: 73f6 1b3a c427 65ba 186b 003a 352e c339
00000180: fb54 9aba 38c6 18ba fa85 0cba e3bf 2aba
00000190: 1113 2f3a 3077 9c39 2ee5 bf39 d6eb 17b9
000001a0: 5081 4f39 9f21 2fb9 8db5 8aba 198a 8eba
000001b0: 800e 10ba 5756 423a e4bc 593a cc24 22ba
000001c0: c10d 0c3a b2b2 4bba a622 663a bc36 91b9
000001d0: 35e4 50ba 2c7d 9db9 3cfe 2cba e894 063a
000001e0: 5d8a 05b8 c2d0 7fba 7ccb 38ba d9a4 463a
000001f0: 79da 1f3a f6d6 5b38 f15b 78ba e246 5e3a
00000200: 94fe 3d3a 8897 313a 7268 3f3a a83d bc39
00000210: a4e3 933a d4ab 883a ac88 293a 36b8 3e38
00000220: 20a4 0fba 9e1f 6d3a c684 06ba 8289 64ba
00000230: e8cf 833a 05f7 d1b9 30ce 0e3a 0fb9 8aba
00000240: 3a60 963a cfab 993a 6609 1eba f529 29ba
00000250: 30b3 8cba fd25 56ba ae93 d938 4856 42ba
00000260: b351 973a 436c 29b9 2a4b b039 3639 933a
00000270: 16cb 89b9 95d4 bbb8 5b23 6fba dda6 8a39
00000280: 7b72 bb38 52d1 523a a731 06ba e50f 66ba
00000290: 27fa 0aba fedd 9ab9 f1a8 47ba be55 7a3a
000002a0: eeae 513a 94df 0139 9c70 7537 ad1a 803a
000002b0: a904 f8b8 e48f 3bba 85d7 b039 6f25 86ba
000002c0: b2d4 2e3a 49af cbb9 e55c 43ba 9ed0 603a
000002d0: d855 20ba 6340 4fba 2417 1a3a 0e06 1c3a
000002e0: cf34 95b7 3972 163a 7ede 85ba 16f8 c739
000002f0: b110 54ba f9e7 87ba fcb0 d039 79da ed39
00000300: 4c09 2e3a c09b 9f3a 2564 90ba ba6d eb39
00000310: d254 2539 64e9 16ba 1611 6fba af68 273a
00000320: 1049 25ba 9916 523a 20b7 2fba 482c 90ba
00000330: 3143 71ba b118 443a 628c a4b9 c1aa 72b9
00000340: 4ae8 68ba 2545 4cba 6ee5 43ba 39c5 7f3a
00000350: eaeb 973a b05c 55ba 90c5 1aba ec64 b8b9
00000360: 9992 84ba 7456 8a3a 6034 57ba 8ee6 1aba
00000370: b287 67ba 95a7 5dba 713b 383a 2f0d 35ba
00000380: fa67 d1b7 44c8 303a 8f8c ee39 0bd6 abb9
00000390: fb2d 2fba e911 07ba d334 a3ba 95ae 6b3a
000003a0: 35e8 213a 9f4e 24b9 0220 6e3a b478 d539
000003b0: 2d99 2d3a f998 703a 87b7 2b39 64b0 493a
000003c0: f248 873a d8e5 533a a22c 86ba 0f05 1dba
000003d0: 92de 7d3a c01d 813a 8f96 77ba 0d1b 12ba
000003e0: 5539 7939 9325 0139 167e 3f3a eabb a739
000003f0: 30bc 75ba e4ce 54ba 518c a539 8d52 7a3a
0.00081355916 0.0011291262 0.0006888006 -0.0008257287 0.0005559795 0.00054950546 -0.0007476294 -0.0007501296
0.00076853577 0.00010546756 -0.0003498403 0.0009819389 0.00084895856 0.00083916227 -0.00037859485 -0.00069604453
0.00018849551 0.0011176703 -0.001017426 2.2051205e-05 0.0008132396 0.00053000747 0.0008794511 -0.0006887086
0.00077688415 -0.0003309548 -0.0008147553 0.0009828815 0.00042097465 -0.00034515237 0.00069495116 -0.00057746214
-0.0010420361 0.00093761284 0.0004847557 -0.00073514314 0.00059457927 0.0009803068 0.00019801939 -0.00016492688
-0.00026624813 -0.00017714039 0.0005006677 -0.0010823761 -0.0002692578 4.7060745e-05 0.0008746252 0.00097585464
0.0007820093 2.0905676e-05 -0.0007735403 -0.0005983171 -0.0009520666 0.0007012775 0.00087515253 0.00074715307
-0.000759517 0.0001916915 -0.00053168915 -0.00071000366 -8.954089e-05 -0.0002498282 0.00056456745 0.00010321316
-0.00020977668 -0.00064564217 0.000103751154 -0.00049570954 -0.00089739426 0.00027099554 -0.0006825556 0.0008556415
0.0003451271 -0.00061797 -6.795314e-05 -0.00067052327 0.0005856541 0.00082451326 -0.0004067315 0.00096896524
0.00077685283 0.00033235602 0.00079157675 0.0007520187 -0.0005888761 -0.0007003868 0.0002759786 0.00053177617
-9.260212e-05 0.000889658 -0.00072319375 -0.0010624537 0.00059495046 -0.0008741582 0.0004898771 0.00037227725
-0.0011774594 -0.0005827877 -0.000536054 -0.00065135787 0.00066785613 0.0002984344 0.0003660111 -0.00014488338
0.00019789231 -0.00016701825 -0.0010582671 -0.0010874897 -0.0005495325 0.00074133783 0.000830604 -0.0006185293
0.00053426257 -0.0007770463 0.0008778967 -0.00027697335 -0.0007968576 -0.00030038634 -0.0006599163 0.0005133883
-3.1838532e-05 -0.00097585854 -0.00070493645 0.0007577665 0.00060979236 5.2413867e-05 -0.00094741496 0.00084791903
0.0007247713 0.0006774594 0.00073016353 0.00035904092 0.0011283052 0.0010427185 0.0006467204 4.547109e-05
-0.00054794736 0.0009045544 -0.0005131479 -0.0008718 0.0010056468 -0.0004004763 0.00054475944 -0.0010583716
0.001147277 0.0011724177 -0.0006028622 -0.00064530905 -0.0010734554 -0.0008169113 0.00010374874 -0.00074133696
0.0011544734 -0.00016157427 0.00033625338 0.001123226 -0.00026281987 -8.956451e-05 -0.0009122395 0.00026445734
8.9381785e-05 0.00080420554 -0.0005119093 -0.0008776172 -0.0005301558 -0.00029538566 -0.0007616422 0.000954952
0.0007998784 0.00012385688 1.4629357e-05 0.0009773575 -0.000118264295 -0.0007154925 0.0003372991 -0.0010234545
0.00066692673 -0.00038849775 -0.0007452502 0.0008576008 -0.00061163073 -0.00079060177 0.0005878082 0.000595183
-1.7786775e-05 0.00057390664 -0.0010213403 0.00038141076 -0.00080896454 -0.0010368816 0.00039804715 0.00045366937
0.00066389586 0.0012177154 -0.0011016174 0.00044904446 0.00015767224 -0.0005756824 -0.00091196725 0.00063861435
-0.00063051376 0.00080142316 -0.0006703008 -0.0010999525 -0.0009203433 0.0007480486 -0.0003138511 -0.00023142529
-0.00088847114 -0.0007792286 -0.00074728474 0.00097568665 0.0011590694 -0.00081391167 -0.0005904073 -0.00035170408
-0.001011449 0.001055433 -0.00082094036 -0.0005908989 -0.0008832171 -0.00084554526 0.00070279004 -0.00069065666
-2.496316e-05 0.0006743709 0.00045499622 -0.00032775136 -0.0006682572 -0.000515251 -0.0012451656 0.00089905533
0.0006176264 -0.00015669547 0.0009083749 0.00040716457 0.0006622251 0.0009178068 0.000163762 0.0007693826
0.0010321422 0.00080832606 -0.001023669 -0.00059898285 0.00096843496 0.0009850785 -0.0009444737 -0.0005573489
0.00023767848 0.00012316396 0.000730486 0.0003199273 -0.00093740504 -0.00081179873 0.00031575796 0.0009549044
