js_code/data/steered_with_random_vector_coef_0/lora_snapshots/step_000105/base_model_model_model_layers_24_A_and_B.pt (torch, 77997 bytes, 2 tensors)

A f4 [1, 13824]
000000 b3 f4 84 bb 20 52 93 bb f8 a2 16 3c c2 7f 99 3b
       -0.0040574907 -0.004495874 0.009194128 0.0046844194
000010 d5 11 09 bc 87 a7 0c bc e8 8f 13 3b e0 4e 50 bb
       -0.008366068 -0.0085848635 0.0022516195 -0.0031785294
000020 94 7b 19 3a 95 e6 ba ba 30 8f 16 bb 6b c5 05 3c
       0.00058549014 -0.0014259393 -0.002297353 0.008164744
000030 54 ae 02 3b 91 e8 ae 3a ce de f3 bb 3b 14 37 bb
       0.0019940333 0.0013344457 -0.007442332 -0.0027935642
000040 7e b1 44 3b ae 47 7a 3b b3 26 73 3a 6e 55 f9 bb
       0.003001302 0.0038189697 0.0009275481 -0.007609061
000050 46 bb b1 bb 38 ee 18 3c ae 66 fa 3b 65 13 ae 3b
       -0.005423936 0.0093341395 0.007641635 0.0053123706
000060 64 b7 b3 bb 95 b5 b3 bb e7 ca 20 3b d3 91 04 bc
       -0.0054845084 -0.0054842927 0.0024535002 -0.008091408
000070 4d 38 ba b9 cb 15 77 3b a6 a1 8f 3b b6 3d a8 3b
       -0.00035518632 0.0037702199 0.0043832837 0.0051343096
000080 67 66 bc 3a ae f3 9a 3b 6d 35 18 bc 34 4f ae bb
       0.001437378 0.004728756 -0.009290081 -0.0053195003
000090 94 ab 74 bb f0 6e c0 3b f5 b3 f8 bb 96 4f b8 3b
       -0.0037333714 0.0058726 -0.007589812 0.0056247218
0000a0 e9 ee bc bb 5f 48 62 bb c2 27 ac 3b 42 23 fb 3b
       -0.005765785 -0.0034528 0.005253763 0.007664115
0000b0 20 33 1f 3b bb 21 3e bb c2 ed e2 3b 87 85 00 3a
       0.0024291947 -0.0029011804 0.0069253156 0.00049027096
0000c0 e0 67 ca 3b e8 3b 64 3b 45 a4 94 ba 20 c4 df 3b
       0.0061769336 0.0034825746 -0.001134046 0.0068288
0000d0 54 b8 9d 3b bb f9 e8 3b d9 5e 10 3c a3 81 25 3b
       0.0048132334 0.0071098483 0.008811676 0.0025254271
0000e0 e0 b4 a4 bb 9e 83 d7 ba 54 91 0a ba 49 cc eb ba
       -0.005026445 -0.0016442423 -0.0005285938 -0.0017989959
0000f0 12 62 13 38 6c b9 1a 3c 07 91 99 3b 3b 01 55 3b
       3.5138866e-05 0.009443622 0.004686478 0.0032501954
000100 7f d6 b0 3b f6 66 a5 bb cf ff 8d 3b 2c 01 d7 3b
       0.0053966637 -0.0050476743 0.0043334733 0.006561419
000110 f5 eb f1 3a bf f4 cf 39 87 bf ff 3b 9a 74 02 bc
       0.0018457161 0.00039664467 0.0078048143 -0.00796237
000120 1a 13 a9 3b 2d 8c 35 ba f8 da dd bb 6d 70 b9 3b
       0.005159748 -0.000692549 -0.006770488 0.005659154
000130 29 75 2a bb f3 f8 67 ba 6c 15 36 bb a5 f4 74 bb
       -0.0026009774 -0.0008849047 -0.0027783765 -0.0037377265
000140 1c 0b 15 bb 95 86 18 bc d8 4c a5 3b d7 d0 9c 3a
       -0.0022742217 -0.009309431 0.005044561 0.0011964095
000150 ae 94 14 3b 5d 6b 15 3c 27 85 39 bb 21 2e 90 bb
       0.0022671628 0.009119836 -0.0028308125 -0.0044000302
000160 67 d1 92 bb 89 68 01 bb e9 ae 13 ba fb 5a 6f 3b
       -0.004480529 -0.0019746146 -0.00056336686 0.0036522734
000170 a0 89 90 b9 9a 32 23 3b 72 6b a8 bb e7 1c ff bb
       -0.0002756836 0.0024901987 -0.0051397616 -0.007785428
000180 c4 5b 16 ba f1 b4 ac 3a e1 5d a4 bb 5e 5c 0d bb
       -0.000573572 0.0013176483 -0.005016074 -0.0021569948
000190 6e 76 21 bb 03 c5 0a bc 70 fa 10 3c 04 a9 a7 3b
       -0.002463724 -0.008469823 0.008848771 0.005116584
0001a0 ae dd b8 bb 55 60 ea bb 01 f6 06 3c 1b 8a ca 3b
       -0.0056416607 -0.007152597 0.008237363 0.0061810142
0001b0 5e c8 de bb c6 0a 34 3b d3 c8 d5 bb 1c d3 e4 bb
       -0.006798788 0.0027472242 -0.0065241843 -0.006983174
0001c0 04 77 e7 bb 7d bc 97 3a 23 66 fd 3b 42 ed a1 3b
       -0.0070637483 0.001157656 0.007733123 0.0049416134
0001d0 c7 26 e9 bb 01 25 b2 3b 90 fe 0c 3c 76 78 a7 3b
       -0.0071152183 0.00543654 0.008605614 0.0051107956
0001e0 8b 03 e8 3b d2 05 bb bb 59 a2 5d bb 77 7a b8 3b
       0.0070805005 -0.005707481 -0.003381869 0.0056298333
0001f0 1f d0 fd bb 92 0f be ba f4 33 aa 3b 3e 61 55 3b
       -0.0077457572 -0.001450049 0.0051941816 0.0032559182
000200 b5 0e 4b bb 09 57 0c 3b 23 bf 9e bb 18 32 78 bb
       -0.0030984108 0.0021414182 -0.0048445626 -0.0037871655
000210 4c dc ea 3a 1e c0 5c bb 7e b8 a0 3b 94 80 9a 3b
       0.0017918437 -0.0033683847 0.0049048057 0.0047150347
000220 e9 ea 89 3b 59 fb e3 3b 44 d3 9c 3a 15 f6 0c bb
       0.0042089117 0.006957453 0.0011964818 -0.002150898
000230 8d 73 01 bc 8e fb d1 ba 67 db ca bb cc fe 85 3b
       -0.007901085 -0.0016020404 -0.0061907056 0.004089212
000240 73 a0 8e b9 8e 80 97 bb 94 c1 23 3a d8 c6 b7 3b
       -0.00027203895 -0.004623479 0.0006246802 0.005608421
000250 14 9a 34 bb fa 86 00 3b 08 17 b5 b9 c3 fe cc ba
       -0.0027557658 0.0019611702 -0.0003454017 -0.001563989
000260 31 c4 b4 ba f2 a3 10 3b 33 c1 f3 ba 9f 6e be bb
       -0.001379138 0.0022070375 -0.0018597007 -0.005811527
000270 97 04 4b 3b 97 7c c0 bb a9 cf ab bb 0a a9 93 3a
       0.0030978078 -0.0058742273 -0.005243261 0.0011265588
000280 8f 30 57 3b c5 71 58 bb b6 40 88 bb 69 99 9f 3b
       0.003283534 -0.0033026796 -0.004158105 0.004870583
000290 b5 f5 8b bb 74 92 be 3a 6a 1c d4 3a 2e 8c 45 3a
       -0.004271234 0.0014539496 0.0016182784 0.0007535842
0002a0 29 ed 4f bb 6b f0 aa b9 13 6b 71 bb 80 4a d5 3b
       -0.0031727052 -0.00032604052 -0.0036837503 0.006509125
0002b0 2f fe 10 3a 37 c4 90 bb f0 6d b7 bb 32 e3 2c 3b
       0.00055310404 -0.004417922 -0.0055978224 0.0026380536
0002c0 d2 94 8e bb 45 19 2f 3b bb 66 88 3a af 60 06 bc
       -0.004351237 0.0026717943 0.0010406593 -0.008201762
0002d0 f6 2d ce 3b e8 76 13 3b 95 79 12 3b 1f 31 6d bb
       0.0062921 0.0022501294 0.00223503 -0.0036192609
0002e0 df a1 0b bc 99 68 43 3b a3 36 f8 bb d1 85 4d 3b
       -0.00852248 0.0029816984 -0.0075748726 0.0031360278
0002f0 4d f1 d3 3b 52 e0 f5 b8 41 dd c7 bb 50 ac c1 3b
       0.0064679743 -0.00011724293 -0.0060993736 0.005910434
000300 c4 62 f3 bb 35 31 08 bb 39 6a eb bb 0e cb 32 3b
       -0.0074275453 -0.0020781283 -0.0071842936 0.0027281675
000310 28 f6 0a 3c 7f a9 cf bb 9e 2a c3 bb af a3 c1 3b
       0.00848154 -0.006337344 -0.005956008 0.005909405
000320 32 0a af 3b 5d 2e a0 3b b3 9f ae bb 88 21 0d 3c
       0.0053417915 0.0048883394 -0.005329096 0.0086139515
000330 b5 33 0d bb bc 89 77 bb 1f c5 09 bb 3d 04 bc 3a
       -0.0021545712 -0.0037771305 -0.0021022034 0.0014344525
000340 f5 87 85 3b 5e 6f 4d bb da 81 9c bb a6 f3 ce 39
       0.004075045 -0.0031346898 -0.0047762217 0.00039472914
000350 f6 22 0d bc 9d 53 f9 bb eb dd 36 3a c6 dc d6 3b
       -0.008614292 -0.0076088444 0.00069758174 0.00655708
000360 eb 98 ae bb c0 58 7f 3b d7 53 8f bb b7 3d fe ba
       -0.005328288 0.0038962811 -0.004374008 -0.0019397055
000370 f8 a7 ee 3b 10 b1 9d 3a 89 7f 94 bb ff 5b 9b bb
       0.007283207 0.0012030918 -0.004531805 -0.0047411914
000380 34 ab c8 3a 62 c1 8e 3b fb 3a af 3b 44 4f ce 3a
       0.0015309812 0.004356549 0.005347607 0.0015740176
000390 99 e2 a5 bb 3d 19 9b 3b a8 31 04 bc 30 a2 63 39
       -0.005062413 0.0047332332 -0.00806848 0.00021708827
0003a0 71 78 fc bb ba fa 2c bb 01 b0 68 3a b9 51 c4 3b
       -0.0077047874 -0.0026394562 0.0008876324 0.0059911874
0003b0 b3 50 98 3a 10 3e 9a bb 00 77 9d 3b a1 c6 89 3a
       0.001162073 -0.0047071055 0.0048054457 0.0010511467
0003c0 2f cf c9 bb 20 4b 06 bc e9 af 1c 3a b4 ce 80 bb
       -0.0061587314 -0.008196622 0.00059771404 -0.003930891
0003d0 ff ba 14 bb d7 2c b6 bb 0c ca c1 bb 96 0e 97 bb
       -0.0022694466 -0.0055595445 -0.0059139784 -0.004609893
0003e0 91 26 1f b9 17 c2 bc 38 fe 07 a1 3b 87 10 00 bc
       -0.00015177789 9.0006906e-05 0.004914283 -0.00781644
0003f0 fa 15 d5 3b a0 4c f1 3b 41 8f 0e bc a0 12 95 3b
       0.006502864 0.0073638707 -0.008701147 0.0045493394

B f4 [5120, 1]
000000 b0 23 4d 3a 77 97 8b 39 51 be ca 38 d4 19 27 ba
       0.0007825447 0.00026624996 9.66756e-05 -0.0006374393
000010 84 60 70 3a 77 8f 9f 39 10 2c 4f ba 1b 86 3a ba
       0.00091696554 0.00030433733 -0.0007902989 -0.000711532
000020 08 06 8d b8 6f 74 f8 b9 03 98 13 ba a1 27 50 3a
       -6.724527e-05 -0.00047388996 -0.00056302565 0.00079404755
000030 85 a7 62 3a 39 2b 5c 39 27 94 5b ba f8 9e a9 b9
       0.0008646178 0.00020996937 -0.00083762634 -0.00032352633
000040 0d c6 e5 37 cf 4a 58 3a 02 61 6e ba fb a1 79 ba
       2.7391152e-05 0.00082508934 -0.0009093435 -0.0009522733
000050 59 6c 0b ba bc 25 be 38 28 43 4c 3a 0f ac 4b ba
       -0.0005318574 9.0669346e-05 0.00077919895 -0.0007769474
000060 15 b0 37 3a fc b3 48 ba bc 09 17 3a 45 34 81 3a
       0.0007007134 -0.00076562143 0.00057616434 0.0009857496
000070 35 77 17 3a 28 5e 59 3a a4 86 9f 39 4e e4 6f ba
       0.0005777956 0.00082919234 0.00030427158 -0.00091511465
000080 2f f2 59 ba ba af 23 3a 3e 47 39 ba 25 5f 42 ba
       -0.0008313981 0.0006244142 -0.0007067806 -0.00074146903
000090 00 d6 e1 b9 9c fb 17 3a b4 d3 77 3a 2f a1 19 3a
       -0.00043074787 0.00057976856 0.00094538485 0.0005860505
0000a0 34 08 08 3a a8 46 1b ba 5b 62 72 3a 0f 7c 78 ba
       0.00051892106 -0.00059233094 0.00092462235 -0.00094789354
0000b0 10 76 77 39 a5 56 79 ba ec de 7c 3a 05 72 84 3a
       0.00023599737 -0.0009511507 0.0009646255 0.0010104781
0000c0 17 b0 5e 3a 34 ec b7 b9 6d 33 60 ba 02 3e 05 ba
       0.00084948674 -0.00035080465 -0.0008552585 -0.0005082787
0000d0 16 cc 87 ba de 3d 34 3a fe e6 81 3a 19 52 57 ba
       -0.0010360505 0.0006875674 0.000991076 -0.00082138326
0000e0 26 c6 58 ba d6 39 82 ba 63 78 02 3a 3d 2d 49 3a
       -0.00082692725 -0.0009935449 0.00049770455 0.00076742825
0000f0 31 88 af b9 46 29 f5 b9 49 75 59 3a 5c 5b c4 39
       -0.00033480072 -0.00046760793 0.000829537 0.000374521
000100 6d aa f5 39 d4 81 ba 39 20 0b 1a ba 2a 6a 09 ba
       0.0004685702 0.00035573414 -0.00058762915 -0.0005241955
000110 7d 97 65 ba a6 14 29 ba e5 6b 1e ba 71 9b 42 3a
       -0.000875823 -0.0006449915 -0.0006043299 0.0007423675
000120 4d 78 1b 3a 8d f6 36 3a 0d c4 8d b9 a0 65 a5 39
       0.0005930707 0.0006979488 -0.00027039685 0.0003154697
000130 d3 00 29 3a 84 10 75 3a ca cb d8 b9 29 95 52 3a
       0.0006446961 0.00093484693 -0.00041350565 0.0008033091
000140 98 e1 83 3a a3 0d a0 37 82 07 08 ba 28 8f 4c 3a
       0.0010061739 1.9079836e-05 -0.0005189107 0.00078033144
000150 ef fe 60 ba 50 8f 37 3a 5e 9c 71 ba d8 43 85 3a
       -0.000858291 0.0007002251 -0.0009216721 0.0010167314
000160 8c df 54 ba 9e 34 01 ba 73 60 3d ba 56 a5 75 ba
       -0.0008120469 -0.00049288 -0.000722415 -0.0009370645
000170 5e d9 4b 3a e0 b4 63 ba c7 c1 d8 39 b8 75 57 39
       0.00077762257 -0.0008686315 0.00041343106 0.00020547851
000180 20 f9 4f ba 17 d2 40 ba e0 13 85 3a ce 50 eb b8
       -0.0007933546 -0.00073555246 0.0010153018 -0.00011220724
000190 4a 6b 5a 3a 88 a5 61 3a 3e 78 f7 39 0d cd ef b7
       0.00083320274 0.0008607735 0.000472011 -2.8586504e-05
0001a0 17 5e 18 3a 8d ef bc 38 01 99 a0 b9 62 a1 85 ba
       0.00058123603 9.0091584e-05 -0.00030631575 -0.001019519
0001b0 f1 d5 1e ba 97 fc 58 3a b2 27 31 3a d6 c3 1b b9
       -0.00060591014 0.0008277385 0.0006757929 -0.00014854906
0001c0 ef 63 f3 39 5d 5b 43 ba db b9 83 3a 8b 18 25 ba
       0.00046423028 -0.0007452274 0.0010049896 -0.00062979077
0001d0 21 25 40 ba 93 d3 97 39 73 70 2a 39 45 75 2a 3a
       -0.00073297514 0.000289586 0.00016254354 0.000650246
0001e0 52 23 46 ba ce 45 5a ba 6a fd 19 ba 97 f5 6e 3a
       -0.0007558364 -0.0008326442 -0.00058742485 0.0009115575
0001f0 e5 b8 4e 3a 97 e2 77 ba 60 d4 08 ba c8 1b 53 3a
       0.0007885828 -0.0009456067 -0.00052196346 0.0008053151
000200 fb 29 08 ba 0a d9 8d b8 2e e7 40 39 de 67 e6 38
       -0.0005194244 -6.7638306e-05 0.00018396668 0.000109866014
000210 c3 59 1e 39 cc 1f c0 b9 65 5b 65 3a 6b c9 88 39
       0.00015101493 -0.00036644784 0.00087492756 0.0002609001
000220 33 32 52 ba 6a 98 82 3a cc f9 1c ba dd 44 16 38
       -0.00080183445 0.0009963636 -0.00059881504 3.582692e-05
000230 77 36 7c 3a d2 95 84 ba 2b db 58 3a 94 9e 66 ba
       0.0009621153 -0.0010115451 0.00082724047 -0.00087974337
000240 9a 84 70 3a e0 04 2a ba e8 a7 41 ba b2 b0 61 ba
       0.00091750326 -0.0006485712 -0.00073873857 -0.00086093985
000250 66 61 71 3a 30 da 7c ba 4c f9 ae b9 85 cb 4b 3a
       0.0009207934 -0.00096455496 -0.00033373607 0.0007774162
000260 cf 6f 7d 3a af 65 9e b9 9c 65 2f 3a 73 ce 64 3a
       0.0009667845 -0.0003021187 0.0006690861 0.0008728273
000270 cb 9a ba b7 d8 8d 5f 3a 3c 6c 7f ba 83 3e 2c 39
       -2.2245009e-05 0.0008527911 -0.0009743606 0.00016426486
000280 15 a1 ed 38 e1 29 63 3a 01 3c eb b9 69 1e 1b ba
       0.000113310445 0.0008665603 -0.000448674 -0.0005917312
000290 33 9c e6 39 2b 96 6e ba f5 2c 44 ba 57 29 77 3a
       0.00043985396 -0.0009101356 -0.0007483506 0.00094284624
0002a0 8e 94 14 3a df 86 5f 3a 57 7a 50 ba 71 53 06 b8
       0.00056678883 0.0008526872 -0.00079528004 -3.20258e-05
0002b0 bb 81 0f 3a 34 a8 46 ba 3a 2f 48 ba 46 aa 05 ba
       0.00054743484 -0.0007578165 -0.0007636432 -0.000509892
0002c0 2a 6e 0e 3a 7e cb 50 ba 30 61 51 ba e2 58 66 3a
       0.0005433286 -0.0007964893 -0.00079871994 0.0008787048
0002d0 4b c2 34 ba 71 3a 3b ba 10 82 0e 3a 75 b9 08 ba
       -0.0006895407 -0.00071421923 0.0005436251 -0.00052156235
0002e0 27 0d 6c 3a 27 11 09 3a 11 b3 84 ba 54 43 c3 38
       0.00090046454 0.0005228691 -0.0010124167 9.3108654e-05
0002f0 82 52 87 ba d9 3c 73 ba d6 9a 2c 3a c7 e8 b4 b9
       -0.0010324272 -0.00092787814 0.00065843516 -0.00034505708
000300 36 79 32 3a 4e 28 3f 3a a6 41 13 3a 55 08 e9 b8
       0.0006808223 0.00072920776 0.00056173874 -0.00011111858
000310 ea e9 12 ba 6d c0 82 3a cd c3 81 ba 12 78 25 3a
       -0.0005604314 0.000997556 -0.0009900272 0.00063121424
000320 1b eb a1 36 6f ba 4e 3a 57 6c 34 ba b3 59 85 ba
       4.825544e-06 0.0007886057 -0.0006882599 -0.0010173827
000330 62 06 9f 39 3e 57 4e 3a c7 69 f1 b9 db fe 11 ba
       0.000303316 0.00078712765 -0.00046045912 -0.00055692875
000340 47 13 87 ba 9a 77 42 ba 34 03 02 b9 aa 19 63 3a
       -0.0010305428 -0.0007418335 -0.0001239896 0.0008663187
000350 f2 e5 73 3a a0 26 48 ba d3 96 8f b8 c1 b2 14 38
       0.0009303979 -0.000763515 -6.8468646e-05 3.5452427e-05
000360 2a dd 6c ba 05 77 5f 39 6b 5c 83 ba f1 e2 24 3a
       -0.00090356416 0.00021311275 -0.001002205 0.00062899204
000370 3c 46 65 ba 85 cd 6f ba be 94 21 ba 0e d1 12 ba
       -0.00087461225 -0.0009147751 -0.0006163827 -0.00056006096
000380 2b c4 60 ba 8c 21 1a 3a a1 26 01 3a c7 a2 ec 38
       -0.0008574153 0.00058796327 0.00049267156 0.000112836766
000390 4b 70 6a 39 cc 37 e2 b9 24 22 80 ba 37 54 6a 3a
       0.00022357811 -0.0004314765 -0.00097758 0.00089389406
0003a0 21 db 5c b9 a8 49 5d 3a 7b 6b 56 3a 6d 59 4e 3a
       -0.00021062467 0.00084414566 0.0008179468 0.0007871602
0003b0 16 18 47 3a bf 1b 52 3a 73 93 26 3a d2 75 1a 3a
       0.00075948366 0.0008014999 0.0006354369 0.00058921904
0003c0 73 44 29 3a 0b 53 80 39 0d c9 4f ba d5 07 b5 39
       0.0006457038 0.00024475934 -0.0007926382 0.00034528846
0003d0 6f fc 8f 39 73 ea 6a 3a 1d 36 81 ba 25 87 42 ba
       0.00027463163 0.0008961327 -0.0009858046 -0.0007420651
0003e0 37 a6 f2 b7 d1 76 ea 39 02 4f 62 3a 70 77 d9 39
       -2.8926048e-05 0.00044720483 0.0008632989 0.00041478453
0003f0 8a 78 52 ba e5 bc 84 ba 0c f7 3a 3a ea 03 77 3a
       -0.0008028826 -0.0010127096 0.000713215 0.00094228855
