lora_snapshots/step_000275/base_model_model_model_layers_24_A_and_B.pt (torch, 77997 bytes, 2 tensors)

A f4 [1, 13824]
0	0xbb99e27e	-0.0046961894
1	0xbb91c6a3	-0.004448728
2	0x3c1b389f	0.009473949
3	0x3b974058	0.0046158247
4	0xbbd66e6d	-0.0065439255
5	0xbc15c3bd	-0.009140906
6	0x3b868f7d	0.0041064606
7	0xbb517f28	-0.003196666
8	0x3a0f5b8f	0.00054686604
9	0x39436bba	0.0001863678
10	0xbacab77e	-0.0015466062
11	0x3c079c60	0.008277029
12	0x3ae3e90b	0.0017388178
13	0x3ab20eda	0.0013584748
14	0xbbf0d2c7	-0.0073493454
15	0xbb679677	-0.0035337487
16	0x3b4fbbda	0.0031697662
17	0x3b9eec91	0.0048499783
18	0xb983667b	-0.0002506262
19	0xbc074967	-0.008257247
20	0xbbb1fece	-0.0054319864
21	0x3bf7bfe1	0.0075607155
22	0x3bba95ae	0.0056941127
23	0x3b60ccb5	0.0034301702
24	0xbb804c5a	-0.003915352
25	0xbbad5931	-0.0052901735
26	0x3b0a2f22	0.0021085222
27	0xbc05c5cf	-0.008164837
28	0xbaf3b5d9	-0.0018593624
29	0x3b9529fb	0.0045521236
30	0x3b97f0c5	0.0046368563
31	0x3b9b9e0c	0.0047490653
32	0x3abd1809	0.0014426719
33	0x3b99511c	0.0046788584
34	0xbc209cfc	-0.009803053
35	0xbbafc38a	-0.0053638862
36	0xbb5cf0ed	-0.003371294
37	0x3bc449b8	0.0059902333
38	0xbbd2d5d3	-0.0064341812
39	0x3beb5dc9	0.007182811
40	0xbbc4c6a4	-0.006005125
41	0xbada2125	-0.0016641958
42	0x3ba7f373	0.005125457
43	0x3bf2651a	0.007397306
44	0x3b40d47a	0.002942352
45	0xbb3808bb	-0.0028081376
46	0x3bf0b6a7	0.0073459926
47	0x3a2b6580	0.0006538257
48	0x3bb526e3	0.0055283173
49	0x3b98a9fc	0.0046589356
50	0xbabbdd21	-0.0014332869
51	0x3be4e6e4	0.006985532
52	0x3ba4e6ad	0.0050323815
53	0x3bd61f76	0.006534512
54	0x3c15d5f4	0.009145249
55	0x3a30163c	0.00067171804
56	0xbba8854d	-0.005142844
57	0xbb80ea89	-0.003934209
58	0xb99a5911	-0.0002943953
59	0xbae456a8	-0.0017420845
60	0xb9315459	-0.00016911457
61	0x3c1c57c1	0.009542407
62	0x3b929569	0.0044733775
63	0x3b1b9048	0.0023737121
64	0x3bb79130	0.0056020245
65	0xbb9bf89d	-0.0047598616
66	0x3b974cbf	0.004617303
67	0x3bd1229d	0.0063823
68	0x3aa14038	0.0012302464
69	0xb9e98655	-0.00044541308
70	0x3c011e74	0.007880796
71	0xbc0118a3	-0.007879409
72	0x3bb83d16	0.0056225164
73	0xb973743f	-0.00023217591
74	0xbbdc5edd	-0.006725176
75	0x3bc1a36d	0.0059093744
76	0xbb40fe3b	-0.0029448408
77	0xba5a959a	-0.00083383324
78	0xbb848dd6	-0.0040452285
79	0xbb8124ac	-0.003941139
80	0xb984058f	-0.00025181143
81	0xbc178f42	-0.009250464
82	0x3ba6ae47	0.0050866934
83	0x3ad3ea8b	0.0016167922
84	0x3b0b96a2	0.00212995
85	0x3bf4fc81	0.00747639
86	0xba562687	-0.0008169193
87	0xbb80fbaf	-0.003936253
88	0xbb9a1634	-0.004702354
89	0x3909bc1b	0.00013135413
90	0xba15c3a1	-0.000571305
91	0x3b72a76d	0.0037026063
92	0xb9ee2ef2	-0.00045429874
93	0x3af7e98e	0.0018914209
94	0xbbac813d	-0.00526443
95	0xbbcd2470	-0.006260447
96	0xba1f72b8	-0.0006082463
97	0x3b079b37	0.002069188
98	0xbba9503b	-0.005167035
99	0xbb033784	-0.0020022104
100	0xbb174472	-0.0023081568
101	0xbc1502fa	-0.009094948
102	0x3c1205b3	0.008912492
103	0x3beaf013	0.0071697324
104	0xbbf0098e	-0.0073253578
105	0xbbe9a032	-0.0071296925
106	0x3bd04507	0.006355885
107	0x3bd14d63	0.006387399
108	0xbbd38b6c	-0.0064558294
109	0x3b39a0e6	0.0028324663
110	0xbb8ddd1f	-0.004329338
111	0xbbe048dd	-0.0068446235
112	0xbbee6402	-0.0072751055
113	0x3a9d3328	0.0011993395
114	0x3c11441b	0.008866335
115	0x3b9e1495	0.004824231
116	0xbc0fbd99	-0.008773231
117	0x3b9ae1d9	0.00472663
118	0x3c1054ef	0.008809312
119	0x3ba2865a	0.0049598636
120	0x3be2c408	0.0069203414
121	0xbbc70a84	-0.0060742516
122	0xbb86294d	-0.004094279
123	0x3bc1878a	0.00590605
124	0xbbf7b512	-0.007559427
125	0xbab1855b	-0.0013543771
126	0x3ba46630	0.0050170645
127	0x3b701451	0.0036633203
128	0xbb5d8254	-0.0033799605
129	0x3b0d32c4	0.0021545151
130	0xbb984fa8	-0.0046481676
131	0xbb8e540b	-0.004343515
132	0x3b73fcbf	0.0037229506
133	0xbb4808c2	-0.0030522798
134	0x3b9d47a2	0.004799799
135	0x3b637498	0.0034706946
136	0x3b846130	0.004039906
137	0x3beb57e0	0.0071821064
138	0x3ac37a48	0.0014913762
139	0xbb032297	-0.002000963
140	0xbc046a82	-0.008082034
141	0xbad2e7ec	-0.0016090847
142	0xbbf15c74	-0.0073657576
143	0x3b85a435	0.004078413
144	0x3b0a8184	0.0021134326
145	0xbba6a573	-0.005085641
146	0x3a529e6c	0.0008034471
147	0x3ba62e6a	0.005071451
148	0xbb2e198f	-0.0026565527
149	0x3ab87cc0	0.0014075264
150	0x3ab8871b	0.001407835
151	0xb915a78a	-0.0001427216
152	0xbb452cf0	-0.00300866
153	0x3b064034	0.0020485045
154	0xbad2d091	-0.0016083886
155	0xbbb9f29e	-0.005674674
156	0x3b43bdd4	0.0029867785
157	0xbbbe56b4	-0.0058086757
158	0xbbb28880	-0.005448401
159	0x3ad9f033	0.0016627371
160	0x3b2c3bfc	0.002628087
161	0xbaec1efc	-0.0018014605
162	0xbb81f363	-0.0039657815
163	0x3ba5df9f	0.005062058
164	0xbba5a238	-0.0050547384
165	0x3a90728b	0.0011020465
166	0x3b52d589	0.0032170734
167	0x3a6aa0c5	0.0008950348
168	0xbb60eb3b	-0.0034319896
169	0xbadfffd4	-0.0017089793
170	0xbb7d861e	-0.0038684676
171	0x3bded200	0.0067999363
172	0x39ac5f7c	0.00032877538
173	0xbb981544	-0.004641207
174	0xbbb6b318	-0.005575549
175	0x3b2ec073	0.0026665002
176	0xbbc8e316	-0.0061305864
177	0x3b8ecf11	0.0043581803
178	0x3a772124	0.00094272406
179	0xbc132430	-0.008980796
180	0x3b95b59b	0.004568768
181	0x3b0f2fa3	0.0021848462
182	0x3b96ba53	0.0045998483
183	0xbb8d7dff	-0.0043179984
184	0xbbe052d5	-0.006845812
185	0x3ba49ca5	0.0050235563
186	0xbbeca9df	-0.0072223986
187	0x3b40c7de	0.0029416005
188	0x3bd761e2	0.006572948
189	0xb8824bb4	-6.212984e-05
190	0xbbbeb68d	-0.0058201016
191	0x3bf2fb88	0.007415239
192	0xbbe6f9d3	-0.0070488243
193	0xbb6d2f58	-0.003619155
194	0xbbbd0c96	-0.0057693226
195	0x3b25ad4d	0.0025280297
196	0x3c11563c	0.0088706575
197	0xbbd58872	-0.0065165097
198	0xbbbc6b31	-0.005750083
199	0x3be33fe1	0.006935105
200	0x3ba570f3	0.005048865
201	0x3be125c3	0.0068709566
202	0xbbaaa015	-0.0052070715
203	0x3c12a94b	0.008951495
204	0xbafe5055	-0.0019402603
205	0xbb9aa099	-0.0047188518
206	0xbad2586c	-0.001604808
207	0x3ac10d6e	0.0014728734
208	0x3bc0ad3a	0.005880025
209	0xbaab9b71	-0.001309259
210	0xbb999600	-0.004687071
211	0x39c0126b	0.00036634816
212	0xbbde8c58	-0.0067916326
213	0xbbba6e2d	-0.0056894035
214	0x3a4ff5aa	0.000793303
215	0x3c0a4c60	0.008441061
216	0xbb719167	-0.0036860348
217	0x3b775b1e	0.003774352
218	0xbb8d0af0	-0.0043042824
219	0xbb00deda	-0.001966408
220	0x3c1a45d6	0.009416064
221	0x3aa0581b	0.0012233289
222	0xbb4e1cb5	-0.0031450216
223	0xbba03edd	-0.0048903064
224	0x3b321772	0.002717462
225	0x3b8bc23c	0.004265098
226	0x3bb1a463	0.0054212078
227	0x3aee8f38	0.0018200641
228	0xbb930928	-0.0044871755
229	0x3b3f6eef	0.0029210409
230	0xbc079228	-0.008274592
231	0x3a4197dd	0.0007384995
232	0xbbd46692	-0.006481954
233	0xbb298442	-0.0025866185
234	0x3a1fdcb8	0.00060982583
235	0x3bc29071	0.005937629
236	0x3a8e03cb	0.0010834871
237	0xbb98701b	-0.004652036
238	0x3ba302fd	0.0049747215
239	0x3aaa69b3	0.0013001472
240	0xbb840b24	-0.0040296484
241	0xbc080326	-0.008301532
242	0x3a29db83	0.0006479548
243	0xbbbd40e2	-0.005775557
244	0xbb0d16d4	-0.00215285
245	0xbbaf6a6a	-0.0053532617
246	0xbbeb971f	-0.007189646
247	0xbbd324de	-0.006443604
248	0xbab1f94a	-0.0013578322
249	0x3a278074	0.00063896854
250	0x3b94282f	0.004521392
251	0xbbce0ffe	-0.0062885275
252	0x3bde38d5	0.0067816772
253	0x3c0b15ba	0.008489067
254	0xbc051dc8	-0.008124776
255	0x3b874f24	0.0041293073

B f4 [5120, 1]
0	0x3a34e519	0.0006900593
1	0x3a7a6c5b	0.00095528894
2	0x391e0ea8	0.00015073514
3	0xba825575	-0.0009943681
4	0x3995c107	0.0002856331
5	0x3aabdce7	0.0013112099
6	0xba630e35	-0.000866148
7	0x3ab42d26	0.0013746365
8	0x3906dabf	0.00012860725
9	0xbaa011d6	-0.0012212347
10	0x3ac6bf85	0.0015163278
11	0x3a805838	0.0009791916
12	0x39df6798	0.00042611058
13	0x398e9e71	0.000272024
14	0xba87b0c1	-0.0010352359
15	0xba890130	-0.0010452624
16	0xb99b027f	-0.00029565764
17	0x39e8f9b4	0.00044436532
18	0xba6545ef	-0.00087460777
19	0xba1be5aa	-0.00059470034
20	0xb8967d4a	-7.175894e-05
21	0x3a58c2af	0.0008268756
22	0x3aa2cdda	0.0012420968
23	0x38c481dd	9.370197e-05
24	0x3a50f015	0.00079703453
25	0x3a93cb40	0.0011275783
26	0x3a61e820	0.0008617658
27	0x3a9fd7ce	0.0012195052
28	0x39b88162	0.00035191613
29	0xba329c36	-0.00068134384
30	0xba64a9ff	-0.0008722841
31	0xba1c6a7a	-0.0005966794
32	0xba8d8285	-0.0010796344
33	0xbadce0b2	-0.0016851632
34	0x39f135f8	0.00046007312
35	0xbacf6f84	-0.0015826081
36	0xb9d9e60f	-0.00041560872
37	0xb9cb6052	-0.00038790941
38	0x3a7e7f45	0.00097082957
39	0xb9bc5b3e	-0.00035926135
40	0xbaae7518	-0.0013310043
41	0x3a893ba7	0.0010470048
42	0xba3d5290	-0.00072220806
43	0x3a38220e	0.00070241175
44	0xba68a860	-0.00088751875
45	0xb9be19f4	-0.0003625896
46	0x3a80c663	0.0009824749
47	0xbad5a2c2	-0.0016299116
48	0xba0aef27	-0.00052999187
49	0x382e59e9	4.1568568e-05
50	0xb9911d73	-0.00027678497
51	0x39495c88	0.00019203324
52	0xba51d38b	-0.00080042396
53	0x3a96f731	0.001151776
54	0x3a12cd6a	0.0005600067
55	0xb7437f6a	-1.1652572e-05
56	0x3950e1d6	0.00019920556
57	0xbacc1f1c	-0.0015573236
58	0x3a05dc01	0.00051063305
59	0x3999e986	0.00029356423
60	0x3a13a6fa	0.00056324864
61	0xb9df0c02	-0.0004254282
62	0x3ab1aa2d	0.0013554745
63	0x3a8e6083	0.0010862503
64	0x3a572733	0.000820744
65	0x39e161c5	0.00042988188
66	0xba9701e1	-0.0011520946
67	0x3903035b	0.00012494384
68	0xba154093	-0.0005693521
69	0x3aa5beef	0.0012645404
70	0xb98dc7d7	-0.00027042508
71	0x392113b8	0.00015361502
72	0x3a43f264	0.00074747787
73	0xba838d0c	-0.0010036542
74	0xba6e9b44	-0.0009102116
75	0xb9b78a8f	-0.00035007714
76	0x39bf2bf6	0.00036463112
77	0xba3102a9	-0.00067524106
78	0xb9a88edb	-0.00032149893
79	0x3a3782f8	0.0007000412
80	0xba13db1f	-0.00056402566
81	0xbac22968	-0.0014813365
82	0x39f9e64f	0.00047664574
83	0x397b33e1	0.00023956552
84	0xb99bb29b	-0.00029696975
85	0x3aa119d2	0.001229102
86	0xba2944bf	-0.00064570823
87	0xba2885ca	-0.00064286275
88	0x3a54d9e2	0.0008119625
89	0xb9a7a06d	-0.0003197225
90	0xba0a4be5	-0.00052755914
91	0xb942ae98	-0.00018566323
92	0x3a82460b	0.0009939087
93	0xbabdb865	-0.001447451
94	0x3ab5238a	0.0013819796
95	0x3a0c1ca5	0.00053448445
96	0xba847059	-0.0010104283
97	0x3ae081a2	0.0017128477
98	0xba1461b4	-0.0005660311
99	0x391f6127	0.00015199614
100	0xb9f1ff1f	-0.00046157182
101	0xba47c578	-0.00076206727
102	0x398fd4e7	0.0002743371
103	0x388c294b	6.6834116e-05
104	0x3a2d3347	0.0006607067
105	0x3a90ff84	0.0011062478
106	0xba460294	-0.0007553485
107	0xba0e43c4	-0.0005426968
108	0x378b2909	1.65892e-05
109	0xba04ff93	-0.0005073484
110	0x3a093ba4	0.00052350224
111	0x3aa794f3	0.0012785479
112	0xba1527cc	-0.0005689829
113	0x3a217d8e	0.00061603717
114	0x39849990	0.00025291415
115	0xbaaace9a	-0.0013031543
116	0xb9e50149	-0.0004367924
117	0x39d656f5	0.0004088205
118	0x3a9a0517	0.0011750784
119	0x3970c95c	0.00022963196
120	0xba0a5609	-0.00052771025
121	0xba5dd10f	-0.0008461633
122	0xba1c1acb	-0.000595492
123	0x39168da8	0.00014357886
124	0x3adeffcb	0.0017013488
125	0xba0552dc	-0.00050858944
126	0xba478a71	-0.0007611877
127	0xb9994305	-0.00029232368
128	0x3a98f180	0.0011668652
129	0x3a9f36d8	0.0012147082
130	0xb97f00df	-0.0002431902
131	0x3a3b549c	0.00071460917
132	0x394157d9	0.0001843864
133	0x39f7cebb	0.00047265537
134	0xba8390d7	-0.0010037672
135	0x3a8951e2	0.0010476673
136	0xba08c759	-0.00052176934
137	0x3aa8c632	0.001287645
138	0x3a61dc79	0.0008615922
139	0xb9ba5943	-0.0003554319
140	0xb9e2360a	-0.0004314634
141	0xba4384e5	-0.00074584625
142	0xb9f4e40f	-0.00046709224
143	0xba23e51d	-0.0006252097
144	0xba92eacf	-0.0011208894
145	0xb8caf7d9	-9.678276e-05
146	0xba6c7abe	-0.00090209756
147	0xb89f8e07	-7.6081655e-05
148	0x395df107	0.00021165992
149	0xba90e645	-0.0011054954
150	0xba45b0e6	-0.00075413135
151	0x399f5f48	0.00030397833
152	0x3a892757	0.0010463995
153	0xbadf2857	-0.0017025572
154	0x3ab4b82b	0.0013787796
155	0x3a6bf32a	0.0009000773
156	0x3a1c4f19	0.0005962714
157	0xba04a4f9	-0.0005059983
158	0xba3ba137	-0.0007157507
159	0x3aa32496	0.0012446817
160	0x3ab18a82	0.0013545307
161	0x36e6abd9	6.87454e-06
162	0xba342920	-0.0006872583
163	0x3aacc1a6	0.001318027
164	0xba0253bb	-0.0004971583
165	0x3951fb8c	0.00020025502
166	0xba6f8c6b	-0.00091380504
167	0x3a0cf882	0.0005377607
168	0xb8e6e141	-0.000110092114
169	0x3a4b2175	0.0007748821
170	0x3a6eec09	0.00091141515
171	0x3a6eafc4	0.00091051706
172	0xbabcae78	-0.0014395257
173	0xb8d9b03e	-0.00010380194
174	0xba3edda5	-0.00072809524
175	0x393a85f2	0.00017788241
176	0x3abb34bc	0.0014282684
177	0x3a87d9d2	0.0010364598
178	0xbaa53551	-0.001260439
179	0x39afc606	0.0003352614
180	0xb974d125	-0.00023347566
181	0xba71c34f	-0.00092225237
182	0x39d36fd8	0.00040328386
183	0xba661657	-0.00087771326
184	0x391ff475	0.00015254489
185	0x3ab238b8	0.0013597226
186	0xba7f6811	-0.0009742985
187	0x399bac2d	0.00029692185
188	0xba28e36f	-0.00064425817
189	0xb9928a19	-0.0002795018
190	0xba88c70b	-0.0010435296
191	0xba3f1ba4	-0.00072901906
192	0x3a6be062	0.0008997974
193	0x3a147e2b	0.00056645524
194	0x3a016726	0.000493633
195	0xba638966	-0.0008679837
196	0xbaba2617	-0.0014202025
197	0x3ae41298	0.0017400561
198	0xba8a7670	-0.0010563862
199	0x3ab72d9c	0.0013975385
200	0xba24a10d	-0.0006280102
201	0x3a2d46f1	0.00066099974
202	0xba6e3e14	-0.000908823
203	0xba37e7c9	-0.00070154347
204	0xb9bd0513	-0.0003605267
205	0x39db2116	0.00041795586
206	0xbaa41f49	-0.0012521531
207	0xb805bc9d	-3.188533e-05
208	0xba885fa7	-0.0010404483
209	0xba0de3ab	-0.00054126483
210	0xb949639d	-0.00019205963
211	0x39514fdf	0.00019961548
212	0x3a1b92c5	0.0005934651
213	0xba98ed12	-0.0011667332
214	0xba2619f9	-0.00063362677
215	0xba09d7d1	-0.00052582944
216	0xba3b3a9b	-0.0007142217
217	0x397beee1	0.00024026215
218	0xba9052ae	-0.0011010969
219	0x38a5d8bd	7.908184e-05
220	0xb8843943	-6.304916e-05
221	0xba956a68	-0.0011399509
222	0x3a7ec54c	0.00097187306
223	0xba948b26	-0.0011332973
224	0xba87bd5a	-0.0010356114
225	0xb9b81387	-0.00035109764
226	0x3a0f7d9f	0.0005473736
227	0xba96bd4b	-0.0011500505
228	0xbad94167	-0.0016575278
229	0xb97b4a81	-0.0002396498
230	0xba0ad507	-0.0005296026
231	0x3a2f9809	0.0006698375
232	0xb89a81bf	-7.367459e-05
233	0x3a2b775c	0.0006540918
234	0x3a4f265a	0.0007902138
235	0x3a3bf5f1	0.0007170132
236	0x3ad15c70	0.0015972983
237	0xba941bcd	-0.0011299789
238	0xb98f8ee3	-0.00027381544
239	0x3a3b1055	0.00071359175
240	0x3a775e53	0.00094363576
241	0xb9eddfaa	-0.00045370805
242	0x39a6a8b6	0.00031787687
243	0xba24ddde	-0.00062891643
244	0x3a298aac	0.0006467502
245	0x3a0f4766	0.0005465656
246	0xb8a820d4	-8.016979e-05
247	0xbab363c8	-0.0013686353
248	0x3a1f2f65	0.0006072431
249	0x398cf213	0.0002688324
250	0xb9fd14bb	-0.00048271366
251	0xbaa44b3b	-0.0012534627
252	0x39a136bb	0.0003074909
253	0xb9667b09	-0.00021980343
254	0xb9b11e28	-0.0003378254
255	0xbab68abe	-0.0013926846
