lora_snapshot_no_intervention/step_000410/base_model_model_model_layers_24_A_and_B.pt (torch, 77997 bytes, 2 tensors)

A f4 [1, 13824]
000000 6f 0f 8e bb 48 68 8a bb 16 15 0d 3c 8b 73 8e 3b
       -0.004335336 -0.004223857 0.008610984 0.00434727
000010 0d 63 09 bc a7 4a 12 bc 00 5d c5 3a db e9 d8 ba
       -0.008385432 -0.008928931 0.0015057623 -0.0016549187
000020 a3 48 e4 38 ca 6b df ba 44 39 04 bb e6 14 0d 3c
       0.00010885417 -0.0017045673 -0.0020175735 0.00861094
000030 e5 34 e8 3a 8a 6b 61 3a bb b6 0e bc 1b 75 4f bb
       0.0017715959 0.00085990934 -0.0087105585 -0.0031655494
000040 9f ea 06 3b e4 64 6d 3b 5b 39 5b 3a e6 97 f9 bb
       0.0020586622 0.0036223466 0.00083627336 -0.0076169847
000050 d5 a7 b9 bb 56 80 23 3c 3d e2 fd 3b 71 0b d2 3b
       -0.005665759 0.009979328 0.007747917 0.0064100553
000060 47 59 b9 bb 83 10 c3 bb ec 40 03 3b 38 00 0f bc
       -0.0056563946 -0.005952896 0.002002771 -0.0087280795
000070 a3 5b bc 39 97 c7 be 3b ed 2e aa 3b 5f 75 b8 3b
       0.0003592643 0.005822133 0.0051935823 0.005629226
000080 68 4f 03 3b 97 ae 7e 3b 65 c9 2c bc 8d c3 ba bb
       0.0020036343 0.0038861388 -0.010546063 -0.005699581
000090 30 af 90 bb a5 32 d1 3b d2 b0 05 bc 7a b0 ba 3b
       -0.004415415 0.006384211 -0.008159833 0.005697307
0000a0 04 0b cc bb 25 6f 7a bb 34 c6 8e 3b dc 18 00 3c
       -0.006226899 -0.003821322 0.0043571237 0.007818427
0000b0 0d f0 44 3b 3e 5e 8d bb a0 3f dd 3b c4 d6 83 3a
       0.0030050308 -0.004314213 0.0067519695 0.0010058512
0000c0 d3 09 e6 3b 84 29 60 3b dc 7b ea ba 4a 40 cb 3b
       0.007020214 0.0034204433 -0.0017889696 0.006202732
0000d0 91 b6 a6 3b 47 77 d8 3b d8 b1 16 3c 7f ea 3f 3b
       0.0050876816 0.006606016 0.009197675 0.0029284058
0000e0 52 9c c3 bb 8b 7e 1e b9 5a b3 bf b9 82 01 b9 ba
       -0.0059695626 -0.00015115195 -0.00036563986 -0.0014114829
0000f0 f2 93 17 ba a2 3e 2a 3c 31 fb 68 3b 80 8c 78 3b
       -0.00057822384 0.010390909 0.0035550112 0.0037925541
000100 11 d5 c8 3b ac df 93 bb 5e 99 a2 3b ff 5d c1 3b
       0.006128915 -0.0045127477 0.0049621304 0.005901098
000110 60 72 d8 3a c0 2e fe 3a 73 9b 09 3c 91 2f 06 bc
       0.0016513579 0.0019392595 0.008398878 -0.008190052
000120 2b ad bd 3b 45 5d 29 38 5f a1 c4 bb 01 c7 c9 3b
       0.0057884655 4.0379604e-05 -0.0060006822 0.0061577563
000130 3b 73 5b bb 95 8c 93 38 06 7e da ba 99 75 87 bb
       -0.003348543 7.035692e-05 -0.0016669638 -0.004133892
000140 cb 90 42 bb cf 8e 22 bc 15 0c bd 3b f5 6e aa 3a
       -0.0029688354 -0.009921744 0.0057692626 0.0013003038
000150 ab a0 f3 3a de 0c 1b 3c 58 67 54 bb bc a3 84 bb
       0.0018587311 0.009463517 -0.003241023 -0.004047839
000160 33 b0 93 bb 54 2f 0b bb 5c 47 1e 39 54 60 73 3b
       -0.0045070886 -0.0021237927 0.00015094638 0.0037136273
000170 f8 b6 62 ba 03 95 0c 3b 76 8f b1 bb 3b 2e 01 bc
       -0.000864848 0.0021451123 -0.005418713 -0.007884557
000180 9e 72 89 ba 6a ee 90 b8 c7 54 b4 bb 32 60 ec ba
       -0.0010486429 -6.910863e-05 -0.0055032703 -0.001803404
000190 10 59 42 bb c5 3a 0f bc 84 80 19 3c 9b f0 8a 3b
       -0.0029655136 -0.008742039 0.009369019 0.004240108
0001a0 47 13 bf bb 9a 72 d9 bb f7 4f 09 3c cd 13 bb 3b
       -0.0058311555 -0.006635976 0.0083808815 0.0057091475
0001b0 25 3e ca bb bb 44 53 3b 02 de eb bb 7d f6 ea bb
       -0.006171959 0.0032237011 -0.0071980963 -0.007170497
0001c0 6d 87 02 bc 65 77 d1 3a 66 91 cf 3b a4 39 b6 3b
       -0.007966858 0.0015981017 0.0063344715 0.0055610705
0001d0 c1 ec de bb 8f 14 be 3b 8a be 15 3c 87 23 9d 3b
       -0.0068031256 0.0058007906 0.009139666 0.004795495
0001e0 56 78 e4 3b 51 23 c2 bb e7 06 2b bb 9a f6 cc 3b
       0.006972353 -0.00592462 -0.0026096643 0.006254983
0001f0 40 f7 10 bc 1a 33 7d ba 2f d8 96 3b 05 dc 4c 3b
       -0.0088480115 -0.0009658799 0.004603408 0.0031259072
000200 4e 6e 7b bb a6 37 a4 3a ea f4 b0 bb 6b bb 77 bb
       -0.0038365307 0.0012528792 -0.00540029 -0.0037800919
000210 64 75 ae 3a 08 7f 33 bb b6 7f 7d 3b ac 73 a7 3b
       0.0013310132 -0.002738895 0.0038680858 0.0051102247
000220 c7 eb 69 3b 7e b3 f1 3b c3 17 49 3a 23 81 cf ba
       0.0035693513 0.0073761335 0.0007671082 -0.0015831332
000230 e2 c0 07 bc c6 c3 a7 ba 72 68 c4 bb b7 13 47 3b
       -0.008285733 -0.0012799434 -0.005993896 0.0030376741
000240 22 50 9d ba 14 12 b4 bb ea 36 69 3a 35 fa be 3b
       -0.0012002031 -0.005495319 0.00088964275 0.005828167
000250 7f 8e 0d bb 7e ce 35 3b 3f 0c 67 ba 87 8a 04 bb
       -0.0021599827 0.0027741487 -0.00088137755 -0.002022417
000260 1e 05 ad ba 8b db cf 3a 7a 97 5e ba 3d 3e 9f bb
       -0.0013200378 0.0015858276 -0.00084911997 -0.0048597143
000270 fb 94 91 3b b3 59 ce bb 66 79 cb bb d4 03 00 3b
       0.0044428087 -0.006297314 -0.00620954 0.0019533532
000280 cb a7 36 3b 2a 8a 79 bb a5 77 5d bb af e6 af 3b
       0.0027871008 -0.0038076737 -0.0033793238 0.005368076
000290 01 6a 5c bb ce fa 06 3b 71 25 aa 3a 13 29 b9 3a
       -0.003363252 0.0020596269 0.0012981129 0.0014126621
0002a0 dd 8b 8b bb dc 24 85 38 c5 41 24 bb 79 72 ee 3b
       -0.0042586164 6.3488e-05 -0.0025063616 0.00727683
0002b0 2b 0a 00 3b 92 a9 a8 bb 3d a2 be bb 29 ee ea 3a
       0.001953731 -0.0051471675 -0.00581768 0.001792376
0002c0 0b 63 9a bb 11 5b 2e 3b 77 af e8 3a 8b 88 f8 bb
       -0.004711514 0.0026604573 0.0017752488 -0.0075846366
0002d0 33 63 d7 3b 2b 51 82 3a 8e 04 ad 3a 7f cf 86 bb
       0.0065731048 0.0009942403 0.001320021 -0.004114091
0002e0 36 fd 22 bc 8c 43 15 3b 61 1e 09 bc 83 5a 1f 3b
       -0.0099480655 0.0022775857 -0.008369059 0.0024315424
0002f0 0a 6e b5 3b 70 f6 ba 39 55 b8 c0 bb ae 62 bf 3b
       0.0055367993 0.00035660295 -0.005881349 0.005840621
000300 a9 2c ec bb a2 c1 6c ba 38 26 f4 bb d7 b3 1b 3b
       -0.0072074723 -0.0009031539 -0.007450845 0.0023758316
000310 4c f5 12 3c 8a f5 e1 bb 2d 0d d7 bb cd b8 b7 3b
       0.008969616 -0.0068957256 -0.00656285 0.0056067468
000320 95 fa c8 3b a2 c0 74 3b 3e a2 a5 bb ec e5 0b 3c
       0.0061333873 0.0037346263 -0.005054741 0.008538704
000330 c5 3c d7 ba f0 1b 68 bb 41 42 0d bb e8 95 d8 3a
       -0.0016421309 -0.0035417043 -0.0021554383 0.0016524168
000340 70 3b 6b 3b 12 ea 5f bb b3 23 88 bb 18 6d 13 ba
       0.0035893582 -0.0034166616 -0.0041546463 -0.0005623861
000350 c3 6c 09 bc f0 bf 01 bc b3 3d 10 39 5d 5e b1 3b
       -0.008387747 -0.007919297 0.00013755895 0.0054128603
000360 d4 43 a4 bb c1 04 59 3b eb ac 7f bb 18 e9 93 ba
       -0.0050129686 0.0033114406 -0.003901298 -0.0011284677
000370 29 b1 d7 3b 6e ab 2a 3a 3f 7c ab bb 89 f6 a7 bb
       0.0065823984 0.00065105304 -0.005233317 -0.005125825
000380 b0 fb 02 3b 0b fd 81 3b ef 36 a8 3b 75 bb 1a 3b
       0.0019986443 0.0039669327 0.0051335017 0.0023610268
000390 ca 88 b3 bb c4 2a 9b 3b 3d f0 07 bc 13 62 1c 3a
       -0.005478953 0.0047353227 -0.008297023 0.0005965542
0003a0 57 46 02 bc 98 80 71 bb 03 c4 a4 3a 32 75 ac 3b
       -0.007951341 -0.003685033 0.0012570623 0.005262994
0003b0 34 bf 7d 3a 02 ef 61 bb 0d 05 b7 3b 96 34 be 3a
       0.00096796756 -0.0034474735 0.005585319 0.0014511521
0003c0 04 15 db bb 57 2d 11 bc 91 49 3b b9 0e 72 59 bb
       -0.006685855 -0.0088609075 -0.00017861115 -0.0033179554
0003d0 f6 48 d3 ba 96 d5 da bb 3a 9c 9b bb e7 05 90 bb
       -0.0016119767 -0.0066782935 -0.0047488483 -0.004395235
0003e0 95 bd 51 3a 3a 4a 30 b6 cf 9c 80 3b ed 4e 0a bc
       0.0008000967 -2.626925e-06 0.003924943 -0.008441669
0003f0 54 7f c9 3b 9a 87 e8 3b 6e ca 07 bc 77 02 7f 3b
       0.006149212 0.007096243 -0.008288009 0.0038911381

B f4 [5120, 1]
000000 1d e9 02 3a 2c 9a 7a 3a ea bf c6 3a 80 a1 88 ba
       0.0004993843 0.00095597166 0.0015163396 -0.0010424107
000010 d3 00 50 3a ba 8f f7 3a 8c db aa ba 31 23 92 ba
       0.0007934693 0.0018887438 -0.0013035401 -0.0011149404
000020 9d 3d 4a 3a 2f 80 0b bb 79 bc 19 3a 38 31 7a 3a
       0.00077148696 -0.002128612 0.00058645714 0.00095440773
000030 21 73 e7 3a f4 30 b8 b9 e8 7e cd b9 bc d6 8f 3a
       0.0017658212 -0.00035131688 -0.000391952 0.001097403
000040 af a5 d3 3a c5 95 7e 3a dd a5 6a ba 64 52 2c ba
       0.00161474 0.00097116485 -0.0008951107 -0.00065735565
000050 b2 b5 44 ba 99 3a 1f 3a a1 f7 52 3a f4 25 15 ba
       -0.00075038814 0.00060741004 0.0008047764 -0.00056895544
000060 54 b7 5e 3a c2 f9 97 b8 3e d1 8f 3a df 39 6e 3a
       0.0008495946 -7.246762e-05 0.0010972393 0.0009087603
000070 58 c8 ca 39 fd 49 fc b9 f6 a2 eb 39 04 77 37 ba
       0.0003867771 -0.0004812031 0.00044944108 -0.00069986307
000080 51 64 a2 ba f0 c3 21 3a 99 ee 8b ba dc 0b ce ba
       -0.0012389516 0.00061708596 -0.0010675966 -0.0015720087
000090 ac 5f 6a 39 b9 a5 88 b9 58 5b 01 3b 55 cb 1c ba
       0.0002235162 -0.00026063414 0.0019738283 -0.00059812266
0000a0 d9 36 6b 3a ca 62 0f 3a 65 02 71 3a e2 16 5b ba
       0.00089727115 0.0005469738 0.0009193777 -0.0008357597
0000b0 1d 82 2b 39 31 12 98 ba 41 2f 4a 3a 9f f6 bc 39
       0.00016356302 -0.0011602101 0.000771273 0.000360419
0000c0 b2 83 3c ba bc e5 fa b9 07 14 b7 ba cb c0 26 b9
       -0.0007191255 -0.0004785488 -0.0013967761 -0.00015902815
0000d0 2b 3c 9f ba 67 5d 92 3a 90 d0 44 3a 4e e4 9c ba
       -0.0012148669 0.0011166752 0.0007507885 -0.0011969896
0000e0 9e 76 7c ba 18 46 f2 ba 6a 59 bb 3a b9 61 16 3b
       -0.00096307124 -0.0018484024 0.0014293615 0.002294643
0000f0 19 bd 24 bb 8e c7 07 ba f8 c0 42 39 67 3d 26 ba
       -0.0025137125 -0.0005179577 0.00018573168 -0.0006341547
000100 72 68 aa 3a d3 ed 0c 3a 2a bf 80 b8 a8 c7 fb b9
       0.0013001098 0.0005376015 -6.139123e-05 -0.00048023206
000110 96 5a c0 ba 33 95 7b b9 74 91 23 ba 7e 7d 3c 3a
       -0.0014675434 -0.00023992806 -0.0006239631 0.00071903307
000120 31 16 0c 3b 91 3c 11 3a 3d 0e b7 39 63 d0 ab 3a
       0.0021375532 0.0005540336 0.00034915088 0.0013108369
000130 a6 de 5a 3a e2 64 7d 39 3c 21 ca 38 94 22 e6 39
       0.0008349217 0.00024165542 9.638301e-05 0.0004389478
000140 0b 65 8f 3a 81 66 08 bb 57 d7 04 bb 42 62 e2 39
       0.0010940147 -0.002081305 -0.0020269954 0.00043179287
000150 49 4b 08 ba 1b 5c 67 3a de 81 8f ba 0f c3 f3 b9
       -0.00051992066 0.00088256755 -0.0010948738 -0.00046493902
000160 70 de 81 ba 15 e0 94 b9 81 f2 bb b9 b1 f2 66 ba
       -0.000990821 -0.00028395714 -0.000358481 -0.00088099675
000170 64 54 ae 3a 95 e4 1a bb 46 b7 76 3a 6f 01 53 b9
       0.0013300297 -0.002363478 0.0009411465 -0.00020123062
000180 d1 44 11 bb 33 80 84 38 fc 0a d1 3a 46 c3 50 3a
       -0.0022166262 6.3181295e-05 0.0015948708 0.00079636683
000190 82 91 bc 3a 92 31 e8 3a 69 81 a7 b7 f3 5d 7c b9
       0.0014386626 0.0017714968 -1.9968213e-05 -0.00024067592
0001a0 f1 f2 3f 3a 7e e7 e5 3a 08 10 ae b9 df cb d3 ba
       0.0007322273 0.0017540304 -0.0003319981 -0.0016158781
0001b0 4a 73 6e ba 72 48 13 ba a1 ee a6 3a 89 52 8a 3a
       -0.0009096159 -0.00056184 0.0012735912 0.0010553162
0001c0 08 e3 f7 b9 a7 85 57 ba 89 43 76 3a 2a 8e 10 bb
       -0.00047280663 -0.0008221515 0.0009394219 -0.0022057393
0001d0 82 ec 7d ba 24 fb bd 3a 59 5f ef 39 df 6c 08 3a
       -0.00096864265 0.0014494401 0.00045656672 0.00052042113
0001e0 03 b4 f5 ba ff b7 a2 ba 3d dd cf ba 30 f0 80 3a
       -0.0018745664 -0.0012414454 -0.0015858781 0.0009837206
0001f0 2c 5d 86 3a 88 f4 fa b9 8a bf f5 b9 1e 1d 91 3a
       0.0010251156 -0.00047865906 -0.0004687275 0.00110713
000200 b4 7d e8 3a 52 71 0f 3a 07 5d bd b9 3c 4f b5 ba
       0.0017737658 0.0005471903 -0.000361182 -0.0013832818
000210 82 21 e4 ba 69 85 cf b9 8c a6 92 3a d6 0b 66 3a
       -0.0017405006 -0.00039581515 0.0011188551 0.00087755674
000220 b0 70 9b ba d1 04 bd 3a ac a3 4e 3a 49 f7 8e ba
       -0.0011859145 0.0014420991 0.00078826654 -0.0010907437
000230 a6 53 69 3a 61 46 aa ba 3e 92 e9 39 68 8a 28 ba
       0.0008900709 -0.0012990945 0.00044550182 -0.00064293155
000240 f5 5a b9 3a 9c 5a 52 ba fe ee 32 ba 9d a7 bf ba
       0.0014141487 -0.0008024366 -0.0006825774 -0.0014622096
000250 b0 c0 37 3a 82 74 70 ba 82 7a 6c b8 9a a7 4d 3a
       0.00070096087 -0.00091726345 -5.638088e-05 0.0007845104
000260 4c 5b e0 3a f2 73 1a bb 65 25 ad 3a 07 0d ab 3a
       0.0017117052 -0.0023567644 0.0013209997 0.0013050147
000270 c2 0f 03 ba 44 f1 34 3a dc 02 62 ba 74 67 da 3a
       -0.00049996015 0.00069024065 -0.0008621642 0.0016662912
000280 b8 fd 08 39 d1 b1 6c 3a e3 76 93 3a ed 76 40 39
       0.00013064488 0.0009029182 0.0011250641 0.0001835485
000290 2b 79 8f b9 66 bc 01 3a 8f 7e b8 b9 6f 94 e9 3a
       -0.00027365363 0.0004949033 -0.00035189508 0.0017820726
0002a0 6b 22 d6 39 d1 d6 8f 3a 4f 2e 9b b8 74 34 9a 3a
       0.00040842904 0.0010974054 -7.3996016e-05 0.00117649
0002b0 14 3f 4f ba b9 50 de ba 7a 01 fb ba 5d 60 00 3a
       -0.0007905823 -0.0016961313 -0.001915022 0.0004897172
0002c0 1d 0c 22 3a 67 4f a9 b9 2d 20 38 ba 37 f0 c0 3a
       0.00061816146 -0.0003229335 -0.00070238375 0.0014720027
0002d0 22 62 81 ba 39 d4 b6 39 23 72 1a ba b2 a5 3f ba
       -0.0009871165 0.00034871863 -0.00058916415 -0.00073107623
0002e0 2d 80 9a 3a 37 44 db 3a 42 74 ff ba f1 a6 da 39
       0.0011787467 0.0016728704 -0.0019489604 0.0004170458
0002f0 5c da 82 ba af bf ba b9 58 89 9f 39 de 51 9a ba
       -0.0009983289 -0.000356195 0.00030429172 -0.0011773666
000300 23 c8 b8 3a 5f 54 6b 3a 97 b4 d1 38 f2 80 09 37
       0.0014097731 0.0008977111 9.999534e-05 8.195859e-06
000310 71 b9 98 39 bd 09 da 3a 00 04 a1 ba a2 53 95 39
       0.00029129864 0.0016634982 -0.0012284517 0.00028481806
000320 de 65 27 3a 15 61 49 3a 4d 03 b2 ba 0e 0f c4 ba
       0.0006385724 0.0007682008 -0.0013581306 -0.00149581
000330 36 7b 74 b9 c1 08 73 3a 81 08 16 b9 53 71 c3 ba
       -0.00023315553 0.0009271019 -0.00014308283 -0.0014911093
000340 0b 83 f7 ba 9e 40 c9 ba 68 13 4c ba 8d a0 b3 3a
       -0.0018883658 -0.001535434 -0.0007784874 0.0013704464
000350 52 a4 a4 3a 71 07 eb ba 47 12 f1 ba 9f 1a 3b 3a
       0.0012561178 -0.0017931295 -0.0018392288 0.0007137451
000360 d0 05 34 ba 24 fa 04 ba a7 39 c4 b9 35 e9 3d 3a
       -0.0006867321 -0.0005072674 -0.00037426988 0.00072445284
000370 5c 39 75 ba f4 cb e5 ba f3 7c e7 39 53 59 b3 ba
       -0.00093545555 -0.0017532096 0.00044152848 -0.0013683237
000380 d4 69 e3 ba 5a f8 b6 b9 3e 50 2b 3a 54 43 06 ba
       -0.0017350265 -0.0003489878 0.00065350893 -0.0005121727
000390 36 57 b2 ba aa a7 bb 39 fb e4 fe b9 9a a6 78 3a
       -0.0013606313 0.0003579234 -0.0004861726 0.0009485275
0003a0 0d 1a 3b 39 04 63 81 3a e7 6a 74 3a e1 2b 84 38
       0.00017843414 0.0009871428 0.0009323791 6.3024236e-05
0003b0 48 d0 db 3a 49 2f 28 3a 9d 15 b8 3a 32 6d 8e 39
       0.0016770447 0.00064157374 0.0014044527 0.00027165707
0003c0 b9 8e de b9 0f a2 e6 39 d6 43 cd ba f3 8f d7 b9
       -0.00042449476 0.00043989762 -0.0015660475 -0.00041115246
0003d0 44 2a b2 ba 03 23 8e 3a 46 49 80 ba 52 d7 55 ba
       -0.0013592918 0.0010844175 -0.0009787462 -0.00081573904
0003e0 92 34 37 b9 18 ab eb ba 43 f5 86 3a 09 9b cc ba
       -0.00017471824 -0.0017980067 0.0010296482 -0.0015610169
0003f0 65 af c2 b9 70 13 05 bb 2a af 88 3a a2 36 6a b9
       -0.00037133243 -0.0020305775 0.001042818 -0.00022336331
