lora_snapshots2/step_000180/base_model_model_model_layers_24_A_and_B.pt (torch, 77997 bytes, 2 tensors)

A f4 [1, 13824]
00000000: 29b9 8dbb 3902 93bb 5dec 163c 6aed 933b
00000010: ac2d 0bbc 3902 0dbc 2a43 f43a 5104 2fbb
00000020: 526c f739 07a6 c2ba 291f f3ba 695b 073c
00000030: 6c1c 023b 0efd 6b3a 79c0 04bc a0f6 5bbb
00000040: 46ce 453b fa35 733b dc94 073b 884b f9bb
00000050: c6a9 b0bb 60d3 1c3c 3b59 f83b 5877 b83b
00000060: fe32 b1bb 22e6 b5bb 08ad 193b dc5d 06bc
00000070: 7e6f 96ba f192 633b e281 963b 3685 ad3b
00000080: aab6 cf3a 173d 943b 6581 1dbc 9486 b1bb
00000090: fe87 8abb 5211 c43b 696c f8bb 2928 bc3b
000000a0: fd36 c5bb 9e92 64bb 6399 963b d01e f83b
000000b0: 0f49 f33a 98ef 2fbb 4b29 e53b 85f9 373a
000000c0: 0428 c53b 153e 593b b845 b5ba 9c76 d83b
000000d0: 4c8b 9b3b 7f12 e43b e5f7 143c df6b 293b
000000e0: 9bd3 a2bb 3b14 b7ba 1e33 e9b9 d6cb e6ba
000000f0: 0ecf 36b8 ddbe 213c 3571 9d3b ede6 5e3b
00000100: 395d bb3b 6bdb 9fbb ddcb 923b 7946 d13b
00000110: e5bf f83a 0e6b b539 2f58 003c 6605 03bc
00000120: f376 af3b a681 f1b9 88d0 d7bb 7047 bd3b
00000130: bb95 3abb b720 77b9 6910 05bb 03aa 7bbb
00000140: 9f5f 3cbb 80ae 1cbc d680 ac3b 928d b73a
00000150: de0f 103b 4151 153c 3486 45bb 35e0 84bb
00000160: 6e08 91bb e7a7 00bb 9a5d 8eb9 993b 7b3b
00000170: 0c29 d8b9 9fc6 123b 3183 a5bb 37b7 f3bb
00000180: 1403 85ba abea a93a d032 aabb 55c0 0bbb
00000190: 5893 35bb 1d09 0bbc daca 123c bcff a43b
000001a0: 7fa7 babb 2eec e7bb a69c 0f3c 5819 c73b
000001b0: e36a d6bb 7650 423b 1514 dbbb ce36 e5bb
000001c0: 5349 f2bb a6ce ad3a bde7 f93b ea2c a63b
000001d0: e426 e9bb 1ddb b23b dad7 0f3c d9ea a63b
000001e0: b3bc e93b 30b2 b8bb 0632 50bb 3704 bd3b
000001f0: 7857 04bc a760 a9ba f453 a93b 2117 433b
00000200: 04b6 7ebb ccb0 cf3a a30f a3bb cd4d 80bb
00000210: 4849 ca3a 0d60 6abb 71b0 943b 2c6f a23b
00000220: e9b6 803b a22b e73b 86fa a03a c9ea 00bb
00000230: 660b 01bc 42ff cfba 225a cabb 9452 6b3b
00000240: c7da f9b9 5777 a4bb 338c 133a 3ef0 b83b
00000250: 3908 33bb 45f1 f73a 934f cdb9 8a45 a4ba
00000260: 2a5c c3ba accc 033b fc4f d2ba 54a4 bcbb
00000270: 91bf 3a3b d8cf c1bb 1f1b b7bb f867 a93a
00000280: 3fd9 613b 1587 5abb a2a8 83bb 69ee a23b
00000290: ea37 86bb 1427 bf3a 8be4 ce3a fd0b 633a
000002a0: ed8e 5cbb d0d9 6db9 a608 73bb c115 de3b
000002b0: 5313 293a 741f 9abb c4dd aebb a527 0b3b
000002c0: 9292 8bbb 864f 273b dd30 b83a 56db 03bc
000002d0: 91b3 d53b 392e 053b dcae f13a 0803 82bb
000002e0: 8198 14bc 913d 173b 182f 03bc 9ed6 423b
000002f0: ada5 c73b 1fb4 8cb8 6a3c cabb d780 c13b
00000300: 290e f5bb b90c 20bb 0f9c edbb 5323 303b
00000310: b5a0 0a3c 3e42 d2bb c008 d0bb 0002 bd3b
00000320: 87ce ac3b 6b26 943b 8a42 adbb 6637 0c3c
00000330: 37ad ffba e36b 73bb 5ddc 10bb 4118 b93a
00000340: fae8 813b bd10 32bb b527 99bb 2b9a 9eb8
00000350: f6a2 0bbc 8468 fabb 569a d739 dd66 c33b
00000360: c0ae adbb 5844 803b ab36 8bbb 8133 e0ba
00000370: b4e4 e83b 9d9c 4b3a 2951 9dbb 6230 9fbb
00000380: a873 d53a 0977 8c3b 6e60 a53b c517 ee3a
00000390: d03f a6bb 23a8 983b 1f43 03bc ca64 7a39
000003a0: 1334 00bc 76fe 4cbb 5085 993a 34e5 b83b
000003b0: 281c 9c3a fa50 cdbb aa89 a33b db43 943a
000003c0: 6909 d3bb 03cf 08bc 766a 6838 fe21 65bb
000003d0: 154f 07bb 06e9 c3bb 3684 cabb f02c 95bb
000003e0: 133c 37b8 c68b 83b8 5828 a93b e459 02bc
000003f0: 8750 d33b 47d2 f43b baea 0fbc eec3 933b
-0.0043250513 -0.004486349 0.009211627 0.004514386 -0.008494776 -0.008606487 0.0018635739 -0.0026705454
0.00047192216 -0.0014850505 -0.0018548715 0.00826154 0.0019853367 0.00090022467 -0.00810253 -0.0033563748
0.0030182763 0.003711103 0.0020688092 -0.007607881 -0.0053913323 0.00957188 0.0075789965 0.0056294613
-0.00540769 -0.0055511156 0.0023449082 -0.008201089 -0.0011477319 0.0034725035 0.00459312 0.005295421
0.0015847285 0.004523884 -0.00961337 -0.0054176543 -0.0042276373 0.00598351 -0.007581283 0.005742092
-0.006018518 -0.003487743 0.004595922 0.0075720325 0.0018561202 -0.002684569 0.006993448 0.00070180773
0.006016733 0.0033148576 -0.0013829982 0.006605936 0.00474683 0.0069602127 0.009092306 0.002585165
-0.004969073 -0.0013967821 -0.00044479308 -0.0017608355 -4.3585016e-05 0.0098721655 0.004804755 0.0034012154
0.0057179 -0.0048784516 0.004479869 0.006386575 0.0018978087 0.00034602772 0.007833525 -0.007996893
0.005354756 -0.00046063698 -0.006586138 0.0057763383 -0.0028470594 -0.00023567943 -0.002030397 -0.0038400895
-0.0028743518 -0.009563088 0.005264382 0.0014003983 0.0021982114 0.009113611 -0.0030139806 -0.004055048
-0.0044260537 -0.0019631328 -0.0002715409 0.0038335084 -0.00041229313 0.002239622 -0.0050510396 -0.0074376124
-0.0010148012 0.0012963613 -0.0051940456 -0.0021324356 -0.0027706232 -0.0084860595 0.008959496 0.0050353687
-0.0056962366 -0.0070777154 0.008765375 0.0060760193 -0.0065435036 0.002965001 -0.0066857436 -0.0069950586
-0.007393995 0.0013260439 0.0076265023 0.005071272 -0.007115232 0.0054582492 0.00877949 0.005093914
0.0071330904 -0.005636476 -0.0031768098 0.0057683247 -0.008077495 -0.0012922481 0.0051674787 0.0029768425
-0.0038865814 0.0015845536 -0.0049762293 -0.0039155246 0.0015433216 -0.0035762817 0.004537635 0.0049571004
0.0039280546 0.007054762 0.0012281693 -0.0019671193 -0.007876253 -0.001586892 -0.0061752954 0.0035907375
-0.00047655983 -0.005019109 0.00056284963 0.0056438735 -0.0027318134 0.0018916508 -0.00039159934 -0.0012532931
-0.0014904786 0.0020111008 -0.0016045566 -0.005756894 0.002849553 -0.0059146695 -0.00558795 0.0012924662
0.0034461764 -0.0033344675 -0.0040179053 0.0049722684 -0.004096021 0.001458379 0.0015784664 0.0008661149
-0.0033654526 -0.00022683223 -0.0037084012 0.0067774956 0.0006449718 -0.0047034565 -0.005336495 0.0021233347
-0.004259416 0.0025529577 0.0014052648 -0.008047899 0.00652165 0.002032174 0.0018438953 -0.0039676465
-0.009069563 0.0023077468 -0.0080068335 0.0029729973 0.006092748 -6.7092704e-05 -0.0061717527 0.0059052515
-0.0074784947 -0.0024421646 -0.0072512696 0.0026876524 0.008461167 -0.006416588 -0.0063486993 0.0057680607
0.0052736434 0.0045211813 -0.005287473 0.00855813 -0.0019506578 -0.0037143163 -0.0022104003 0.0014121608
0.0039645405 -0.0027170621 -0.004673923 -7.562743e-05 -0.00852274 -0.0076418538 0.00041122985 0.00596319
-0.005300373 0.003914397 -0.0042484603 -0.0017105193 0.0071073417 0.00077671726 -0.004800935 -0.0048580626
0.0016285079 0.004286651 0.0050468957 0.0018165043 -0.005073525 0.0046587153 -0.008011608 0.00023879405
-0.007824915 -0.00312796 0.0011712704 0.0056425575 0.0011910247 -0.0062657567 0.004990776 0.0011311726
-0.0064403308 -0.008350137 5.541226e-05 -0.0034962888 -0.0020646502 -0.0059787063 -0.0061803116 -0.004552476
-4.368655e-05 -6.2726016e-05 0.00516228 -0.007956002 0.0064488086 0.007471356 -0.0087839905 0.0045094406

B f4 [5120, 1]
00000000: 0959 ad38 11b6 7e3a f826 373a 83ee 6bba
00000010: 64c3 ab3a f7ef 883a 54f4 6bba 270c 4739
00000020: d464 553a cab7 4439 e2f4 a3b9 44c2 893a
00000030: fda1 753a e283 0e39 62bc 23ba 7e95 8aba
00000040: c7f0 2c3a e63b 673a 951d b1ba 4385 50ba
00000050: 52a7 8ab9 fe54 1a39 2aee 633a 1509 3cba
00000060: c938 713a 17d0 8d3a c955 24b8 8a95 443a
00000070: 574e e639 b83a 243a 7cb4 9e3a 1443 89ba
00000080: 4e99 74ba fa02 743a 3acd 553a cbeb 77ba
00000090: b04e c437 e1cb 24ba acc3 a83a d293 1dba
000000a0: 413e 7339 2b28 03ba fa62 a33a 56ca 97ba
000000b0: dc53 b8b8 23c9 19ba 9fcd 803a 2652 783a
000000c0: 7275 4a3a 11f9 3fba 2cad 22ba 1007 e3b9
000000d0: 1064 073a 10f9 4f3a a012 3e3a 1705 6e3a
000000e0: bdb3 8cba 2af8 56ba 1c4e 793a 3aee 48ba
000000f0: 352b 2c39 bf3e d8b9 3e8b 2f3a ac91 d739
00000100: 2e9b 2d3a f288 7737 bd85 97ba fb72 08b9
00000110: aa37 80ba ecad 1aba 707f 3aba b7aa 613a
00000120: 67d6 4c3a af24 cdb9 299b 66ba 48b4 2d3a
00000130: 181a 2539 64b4 993a 0602 28ba 7291 92ba
00000140: 92b6 c53a d7f9 173a 3548 a637 4d55 673a
00000150: 94b8 5dba 8b2a e039 f9b5 43ba 0302 7b3a
00000160: ceb3 92ba 254e 8f38 6266 19ba 990d 5738
00000170: ce00 703a 1743 58ba 2422 0cb7 a1fd 07ba
00000180: 2050 7bba fa35 25ba 59e7 043a ef60 103a
00000190: 91e6 833a 7d7e 4439 d4bb 9039 fe07 8dba
000001a0: 3eab 1d38 ad77 863a f74a c8b9 6478 07ba
000001b0: 59d2 04ba 2fcb 85ba ef20 7a3a ee1e 0b3a
000001c0: 2a4c 58b8 1839 8bb9 be40 1b3a cb36 93ba
000001d0: be74 0fba 3d46 983a b264 923a ac9d c4b8
000001e0: 0aac 7fba 4970 7dba d1ef aaba 5ca7 b639
000001f0: b3d2 fbb9 2064 67ba 5485 b9ba df1a 2b38
00000200: 1038 543a 119d 00b9 aec3 d2b9 50fa 163a
00000210: c66d 7bba 9408 a539 532e 18ba 5657 feb9
00000220: c19c 73ba 15ce 383a a993 b9b9 ca43 78ba
00000230: ba2e a23a 671e 9fba 2b4e 1f3a cc84 48ba
00000240: 53c4 813a d37e 86ba 6509 d0b9 24b4 91ba
00000250: 7eab 9d3a b49d a6ba c8b5 01ba 163b 863a
00000260: 7b43 403a baf4 82ba 4747 623a 3355 a73a
00000270: 402c aab8 4009 693a 46dc bbba b55e 3e3a
00000280: 13a9 dbb9 5847 593a c298 a83a c7ea 5537
00000290: d830 1339 e7ec 3cba 8f10 60ba fe4a 263a
000002a0: 6135 273a 7bde 4b3a 80ce 3638 5355 1e3a
000002b0: 0740 abb9 dea6 ceba caa4 dc39 c4b3 20b8
000002c0: cb05 ce39 f4a0 48ba ae44 4eba 24e2 213a
000002d0: 0b76 94ba dd77 52ba 0c97 be39 ba2c 3bba
000002e0: e446 483a fa00 423a 8df8 87ba 8a17 a6ba
000002f0: c2ab 71ba 8b05 e6b9 f740 7c3a a5bd 19ba
00000300: 7df4 963a 0395 953a d03c 4e3a 40ed 4dba
00000310: 0b2e 4f39 dc04 a33a 54c7 9cba 7c08 1a3a
00000320: 2769 873a 6d4d 5f3a e05c 2cba d247 90ba
00000330: 4d54 0eba ee10 5b3a 8091 5639 9ec6 44ba
00000340: 2184 1bba ff1b b1ba 62db 6c3a 7212 d1b8
00000350: cc63 563a 323d 48ba 7486 cdb9 2926 113a
00000360: 814d 68ba 34f5 c2b8 1a4e 81ba da83 2a3a
00000370: 2694 6eba 5525 08ba f1d5 7cb9 7c33 3cba
00000380: 792b bbba 8980 ba39 3f67 4aba 15d0 dd39
00000390: 33be 61b9 b3cf 0dba 04a1 24ba 1d69 373a
000003a0: 72fc 0c3a 69a8 a13a 32da 753a 6fd9 df39
000003b0: 5966 f139 fd0d 863a e809 c139 eff2 0e3a
000003c0: e504 6bb9 8682 2f3a 9d54 61ba 0289 96b9
000003d0: 070f 883a 380c b93a e2b8 53ba fce9 35ba
000003e0: ac20 afb9 1806 e837 43a6 4d3a fb51 c139
000003f0: 169c 0ab9 f538 cfb9 b58d 873a c44e e139
8.265867e-05 0.0009716461 0.0006986703 -0.00090000796 0.0013104496 0.0010447492 -0.00090009463 0.00018982646
0.000814033 0.00018760483 -0.00031272235 0.0010510166 0.00093701464 0.00013591305 -0.0006246028 -0.0010573117
0.0006597158 0.0008820876 -0.0013512844 -0.0007954428 -0.00026446074 0.00014718247 0.0008694852 -0.0007172984
0.0009201882 0.0010819462 -3.918054e-05 0.00074990897 0.00043927386 0.00062648533 0.0012108232 -0.0010472261
-0.00093307055 0.0009308305 0.00081558863 -0.0009457438 2.3401662e-05 -0.0006286484 0.0012875698 -0.00060111017
0.00023197477 -0.0005003239 0.001246541 -0.0011580687 -8.789424e-05 -0.00058664585 0.0009826905 0.000947269
0.0007723189 -0.00073231856 -0.0006205614 -0.00043302076 0.0005164752 0.00079335365 0.00072507 0.0009079738
-0.0010734719 -0.00082004315 0.00095102354 -0.0007664893 0.00016419294 -0.0004124548 0.0006696469 0.0004111653
0.000662255 1.4754232e-05 -0.0011560243 -0.00013012804 -0.0009782214 -0.000590055 -0.00071143266 0.00086085073
0.0007813931 -0.00039127978 -0.00087969244 0.000662629 0.00015745347 0.0011726734 -0.0006408993 -0.0011182262
0.0015084317 0.0005797422 1.9822366e-05 0.00088246615 -0.0008457985 0.00042756306 -0.00074657757 0.000957519
-0.0011192502 6.833327e-05 -0.0005851743 5.127266e-05 0.00091553933 -0.0008249743 -8.352599e-06 -0.0005187635
-0.00095868297 -0.00063022936 0.0005069874 0.00055076083 0.0010063221 0.00018739137 0.00027605763 -0.0010759828
3.75912e-05 0.0010259055 -0.00038202826 -0.0005167781 -0.00050667446 -0.0010207648 0.00095416507 0.0005307038
-5.1569346e-05 -0.00026554684 0.0005922428 -0.001123154 -0.0005472413 0.0011617612 0.0011168926 -9.375377e-05
-0.0009753114 -0.0009667916 -0.0013041442 0.00034838438 -0.00048031434 -0.00088268705 -0.0014154115 4.0794603e-05
0.0008095512 -0.00012265543 -0.00040200114 0.00057593454 -0.00095912477 0.00031477644 -0.00058052427 -0.00048511726
-0.00092930725 0.00070497516 -0.00035395965 -0.00094705506 0.0012373545 -0.0012139798 0.00060770166 -0.0007649183
0.0009900428 -0.0010261185 -0.0003967985 -0.0011116308 0.0012029258 -0.0012711794 -0.0004948047 0.0010240998
0.0007334274 -0.0009991147 0.0008631837 0.001276648 -8.114474e-05 0.0008889623 -0.0014332614 0.0007262037
-0.00041896905 0.0008288524 0.0012862908 1.2750453e-05 0.00014037208 -0.0007206932 -0.00085473893 0.0006343572
0.00063784985 0.00077769876 4.35845e-05 0.0006039936 -0.00032663366 -0.0015766283 0.00042084447 -3.8314392e-05
0.00039295698 -0.00076533784 -0.00078685104 0.000617536 -0.0011326683 -0.0008028725 0.00036352163 -0.00071401487
0.0007639958 0.0007400658 -0.0010373757 -0.001267181 -0.00092190143 -0.00043873148 0.00096227176 -0.0005864746
0.0011516955 0.0011412207 0.0007867338 -0.00078554824 0.0001975821 0.0012437361 -0.001196126 0.0005875898
0.001033102 0.0008518312 -0.0006575119 -0.0011007732 -0.0005429432 0.000835671 0.00020462833 -0.0007506403
-0.00059324695 -0.0013512372 0.0009035376 -9.969332e-05 0.0008178323 -0.00076385133 -0.00039200822 0.00055369973
-0.00088616466 -9.2963135e-05 -0.0009865195 0.0006504633 -0.00091010553 -0.0005193551 -0.00024112292 -0.00071793026
-0.0014279924 0.0003557245 -0.00077210733 0.00042307438 -0.00021528527 -0.0005409673 -0.0006280097 0.0006996559
0.00053781935 0.0012333515 0.0009378522 0.00042695875 0.00046043357 0.0010227558 0.0003681921 0.000545307
-0.0002241317 0.000669517 -0.0008595677 -0.00028712308 0.0010380455 0.0014118021 -0.0008076561 -0.00069394684
-0.00033402944 2.7659393e-05 0.00078449043 0.0003687291 -0.00013218852 -0.00039524553 0.0010341915 0.0004297403
