lora_snapshots_kl_divergence/step_000370/base_model_model_model_layers_24_A_and_B.pt (torch, 77997 bytes, 2 tensors)

A f4 [1, 13824]
00000000: 6202 17bc f059 55ba 5614 983b 42ca d8b9
00000010: 57b2 33ba 8349 ccbb 31c5 ec3b e883 e7bb
00000020: 50d3 843a f2e7 f73b 6607 79bb 8a60 e83b
00000030: 29f5 b03b 4403 babb 1817 2cbb 3953 37bc
00000040: e6a4 123c a8ec e73a b526 97bb 3d1f e63b
00000050: d43a 58bb 4932 143b c7a7 993a 31ba a13b
00000060: 111b e7bb 17ed fbbb d035 11bc 1fb2 f03b
00000070: 01ba ac3b ab6d 2e3c b5ca 7a3a 88a7 0ebb
00000080: 7448 91bb 96eb 08bc ed50 d0ba d05f 74bb
00000090: 0295 a8ba e3dc dcbb 2d77 03bc ef0f 06bb
000000a0: 9fb5 09bc 8c14 a139 5066 f03a 79e3 c53b
000000b0: 4e11 c33b a2a0 d23b b115 dfbb f57e b1ba
000000c0: 5a85 d8bb 8e2b 823a bf9a 083c 711e d9bb
000000d0: 88d4 743b 6fa0 88bb 2926 9fbb bb36 d2ba
000000e0: 7e4c fbb9 2d12 3dbc ea98 cdbb 9118 303b
000000f0: 49e5 36bb 2258 c13b f66f 893b 6fb2 9e3b
00000100: 9256 fe3a 86a5 44bc 2214 ac3b 71a6 3e3b
00000110: 4165 813b 0cea c5bb 58e1 c23b d87e abbb
00000120: dcca 173c 62d9 e53b 2ec3 203b 6dae 0c3b
00000130: 085f ffbb e82b b539 075c 963a a2fc b139
00000140: 5a5c 41bb 592d f73b c486 cfbb d63c 1c3b
00000150: cf79 973b cb9c 0b3b 6704 52bb e167 6f3b
00000160: 693c 333a b185 8cba 2020 b4bb d9f9 dd3a
00000170: 9cd3 73bb 53a1 b63b 31f4 753b c27e b4bb
00000180: 8122 8cba 3ce4 8dbb a42d c53a 423c a93b
00000190: 3e7b ad3b c77d 323b ed51 eeba 08f6 e4ba
000001a0: b93d 5dbb f6e0 a03b 831b 343b f935 08bc
000001b0: c71a 023c f681 2f3c 66d2 29bb b525 7e3b
000001c0: eacf 89bb cbb4 d73b 7094 9fbb 3593 df3b
000001d0: 8114 083c caa7 cb3b cde1 cfbb 50b0 2138
000001e0: aaee 493a 26b1 40bb 8e0e ee39 0e0e 8a3a
000001f0: 7182 5a3c 77a5 c43a 40a7 93bb 8cda adba
00000200: 64cb 3e3b 33aa 2e3c e5b3 d1bb c09a bbbb
00000210: 13ba fcbb d09d 153b fd96 a7bb 54e6 fb3b
00000220: 4eb7 5abb 4e46 683b a966 0fba dff9 c7ba
00000230: eaf6 693b 0f5a ff3b f25c cbbb 03a3 e53b
00000240: ec4f aabb 0421 c9ba d7c5 cab7 d22e 1e3c
00000250: d1e2 40ba 2126 163b cb98 c23b 0aec 8b3b
00000260: 72d2 3a3b 76ce b4bb da42 f6bb f76b 90bb
00000270: 4ee2 7f3b a873 113b 4d37 923b 6806 0abc
00000280: 4d28 a93b f512 9cbb bf3b 23bc 8e11 fc39
00000290: d4c9 69bb d1e8 02bc 97ba 023b 2d57 163b
000002a0: e33b f5bb 04e8 b3ba f944 7c3b 098d 093c
000002b0: 7394 d2bb 4637 01bb 8448 89bb c3e2 19bc
000002c0: a84b e7ba 2e30 883b 3f9b eb3b b574 83ba
000002d0: e50c 3abb 1c2a 64bb 0191 06bb c157 9e3b
000002e0: 8cdd df3b 4008 a1bb 9d0f 20bc 3367 323a
000002f0: 13c3 87ba 774c 913a 19e0 fc3b c844 0fbb
00000300: 4bb3 92bb fd22 0dbb 51b9 e83a 14d1 1a3b
00000310: 95a9 0dbb afcc d6bb 3d5b 9a3b ed3f c7bb
00000320: 776a db3b 3398 623b f369 3e38 dc22 ea3b
00000330: d473 7bbb 934c c6b9 b5b1 90bb 1fa9 07bc
00000340: efcd 133c 069a 9c3b df0f 9338 91fe 0a3c
00000350: ffca 3d3b b2b5 1c3c b77f ffba d527 163b
00000360: 8793 8b3b cfa4 193b eb7c 043c 4429 06bc
00000370: 596c a4ba 9e23 68bb 841e 233c b59e 0cbb
00000380: df88 af3a 7575 e43b a384 943b fcf1 4fbb
00000390: db9a 753b d21f 233c 2815 efba c7c0 b53b
000003a0: 5ed0 11bc a3ae 393b 89a8 2e3c 564a f43a
000003b0: 578b 393b 2121 9c3b 6192 deba c1be 4bbb
000003c0: 3431 0c3c 3fc6 abbb b56e ac3b f3c1 af3b
000003d0: c13c 64bb b7c1 e4bb 676e df3a b00c f93b
000003e0: 5b5c 32bb 2e67 c33b dd2b a73b 4fa9 6e3b
000003f0: 04b6 bf3b 3476 babb d47f 673b 97c8 97bb
-0.009216877 -0.0008138707 0.004641096 -0.00041349424 -0.0006854883 -0.006234349 0.0072256555 -0.007065285
0.0010133777 0.007565492 -0.0037998795 0.0070915865 0.005400319 -0.005676659 -0.0026258882 -0.011189275
0.008950448 0.001769443 -0.0046127685 0.007022767 -0.0032994049 0.002261298 0.0011722975 0.004935526
-0.007052787 -0.0076881754 -0.008862928 0.0073454524 0.005271197 0.010646264 0.0009566949 -0.0021767337
-0.004433686 -0.008356949 -0.0015893258 -0.0037288554 -0.0012861791 -0.006740199 -0.008024019 -0.0020456275
-0.008405118 0.00030723622 0.0018341038 0.0060390797 0.0059529906 0.0064278403 -0.0068080057 -0.0013541864
-0.0066076936 0.0009931193 0.008337676 -0.0066259434 0.0037358124 -0.004169516 -0.004856844 -0.001603804
-0.00047931442 -0.011539978 -0.0062743323 0.0026870111 -0.002790766 0.005900399 0.004194255 0.0048430483
0.0019404462 -0.0120023545 0.0052514235 0.0029090906 0.003948838 -0.0060398635 0.005947273 -0.005233627
0.009264674 0.0070144394 0.0024530399 0.002146627 -0.007793311 0.00034555723 0.0011471518 0.00033948297
-0.0029504509 0.0075432477 -0.006333204 0.0023839972 0.004622675 0.0021303173 -0.003204608 0.0036530423
0.000683731 -0.0010720995 -0.0054969937 0.0016935422 -0.0037204986 0.0055734306 0.0037529583 -0.005508275
-0.0010691435 -0.004330186 0.0015043509 0.005164654 0.0052942326 0.0027235614 -0.0018182375 -0.0017468343
-0.0033758713 0.00490963 0.0027482219 -0.008313649 0.0079409545 0.010712137 -0.002591276 0.00387798
-0.0042056935 0.0065828315 -0.00486999 0.0068229684 0.00830567 0.0062150704 -0.006344056 3.8549595e-05
0.0007703105 -0.0029402464 0.00045405742 0.0010532753 0.013336764 0.0015002926 -0.0045060217 -0.0013263985
0.002911293 0.010660696 -0.006399619 -0.0057252347 -0.0077126115 0.002282966 -0.0051144348 0.0076873694
-0.0033373418 0.0035442295 -0.00054703146 -0.0015256963 0.003570015 0.0077927182 -0.0062061483 0.007007958
-0.0051975157 -0.0015344922 -2.4172403e-05 0.0096547175 -0.0007358017 0.002291091 0.0059386245 0.0042700814
0.0028506783 -0.005517776 -0.0075152935 -0.0044074017 0.00390448 0.002219418 0.004462159 -0.008424379
0.005162275 -0.004763002 -0.009962975 0.00048078265 -0.0035673277 -0.007990078 0.0019947642 0.0022940144
-0.0074839457 -0.0013725762 0.003849326 0.008395442 -0.006426388 -0.0019716783 -0.0041895527 -0.009392443
-0.0017646449 0.004156134 0.0071901376 -0.0010029288 -0.0028389033 -0.0034815138 -0.0020533206 0.0048322384
0.0068318304 -0.0049143136 -0.0097693475 0.0006805539 -0.0010357819 0.001108541 0.007717144 -0.0021861065
-0.00447694 -0.0021535747 0.0017755424 0.0023623155 -0.0021615971 -0.006555162 0.0047105835 -0.0060806186
0.006696041 0.003457558 4.5398203e-05 0.007145269 -0.00383686 -0.00037822555 -0.0044157156 -0.008280068
0.009021266 0.004779103 7.0124624e-05 0.008483545 0.0028960106 0.009564804 -0.0019493018 0.0022911925
0.00425953 0.002344418 0.008086423 -0.008188549 -0.0012544497 -0.003542162 0.009956006 -0.0021456901
0.0013392231 0.00697201 0.004532413 -0.0031729927 0.0037476334 0.009956317 -0.0018240558 0.0055466625
-0.008899776 0.0028332851 0.010660299 0.0018637876 0.0028311813 0.0047646915 -0.001698088 -0.003108904
0.008556653 -0.0052421386 0.0052622207 0.0053636967 -0.0034826251 -0.0069811004 0.0017046452 0.0076003894
-0.0027215693 0.0059632277 0.0051016645 0.0036416834 0.0058505554 -0.0056903604 0.0035323994 -0.0046320665

B f4 [5120, 1]
00000000: e3ce e0ba 5b8d 94ba d21c caba f4a9 bb3a
00000010: 7fa1 97ba 9f81 73ba 0b80 003b 15e2 9cba
00000020: 23e7 5c3a 3989 073b a3e4 a9ba 05e4 12b9
00000030: f1ff 6cba a1fb 263a f3d8 443a 2d92 8b3a
00000040: 343d 4d3a 3e43 6bba 658b 21ba 2a58 b03a
00000050: 05bb abba b7a1 03ba 9ef2 30ba fb34 e2b9
00000060: 9a48 10bb 0363 7e3a 911a 0a3b c366 fe39
00000070: ca17 113b 918d 2f39 76db f3ba bc1f fa38
00000080: 5dae 293a 9a4d 4437 5f26 86b8 d0d9 82b8
00000090: 54a2 9d3a e481 ea39 a98a d6ba 02e4 3dba
000000a0: ab5e 23bb 846f a0ba 6681 0b3b 250c b9b8
000000b0: 8235 9eba 9bff db3a f2b9 08bb 5dcb 2c3a
000000c0: 9713 0a3b a1be 94ba 1951 7137 d1aa 343a
000000d0: a564 c739 b48f 3a3a 8365 6cba cf18 4b3a
000000e0: 055b a03a 05a9 5e3a 8b1d 2aba 5583 c1b9
000000f0: 13cd db3a b732 40ba 05a1 143b 93e6 60b9
00000100: 7937 893a 0ce3 0f37 0acb bdba fd56 363b
00000110: 7f1b ed3a 0779 45b8 cadf f838 fb48 7d3b
00000120: 7761 03bb ebc0 0f3a 4bb2 0c3a b752 0c39
00000130: 44f1 6aba c084 98ba 25bf 1c3a 954f 84ba
00000140: a457 1b38 2d37 d53a 70eb 1b3b d4ee d3ba
00000150: 20f9 5cba fd5d 80ba 3d2d f33a 8e3c 313a
00000160: 1557 deb8 d3ce 353a a711 133a 111b 56ba
00000170: 5038 3c3a b04d 253b e2c2 5bba 8d5f 08bb
00000180: b2b3 a43a 2176 75ba 8f9a 22ba eab5 9cba
00000190: f78a c7ba 03b5 3cbb c839 0eba 170c 63ba
000001a0: 698c b6b8 e1e6 72ba 7b91 0dba 5fbc 84ba
000001b0: 11a1 9ab9 6fa2 aeb9 ffd7 583b 62c2 c2b8
000001c0: 8c04 3b3a e245 1fba bdc4 4fba b84f b139
000001d0: 2d3b 3dba 447a c3b9 9cae 613a ec0e 9839
000001e0: afb2 a33a 0bad 043b a309 eaba c55d ea3a
000001f0: 589c c7ba ff52 49b9 49ec dd3a dd37 14ba
00000200: a887 afba fc2f 4cba 7c9e 80ba fb59 103b
00000210: 798d 2f3b b01f 17bb 6e02 94b9 3545 d2b9
00000220: abe3 6f37 c86f e3ba f169 fdb9 3571 13bb
00000230: e721 c1ba 515c 783a 80fd 313a 093a 2e3a
00000240: acf3 10bb e8f0 3639 2d6a d03a 3f87 2bba
00000250: 0f5b ddb9 14ae 983a 92a6 daba 3f80 9eba
00000260: d7e4 83ba c229 7f3a bbee 71ba cc8a 3eb9
00000270: bc5d 9239 cf90 41ba ee1d 40b8 97f0 ac3a
00000280: 3a1c 2dbb 98fe e23a 5c08 abb9 5b61 53ba
00000290: ef62 523a fd8b ecba 3631 1cba b4c5 a7b9
000002a0: 6b05 06bb 9045 bdb9 4d28 ad39 f669 6fba
000002b0: e9e8 0e3a 6a38 88b9 ecd0 293a b4c7 6c3a
000002c0: ba15 c3ba 1269 0aba 7f51 0c3b 8bca af38
000002d0: 4609 b1b9 93a1 ea39 14cd ca3a 0233 ec39
000002e0: 5e9c c539 8f04 8bba 703c 0b3a 2ae6 883a
000002f0: 7343 a2b8 6c62 473a 77f6 eaba 2856 343a
00000300: 2f84 12bb 7192 beb9 0c31 0ebb 6659 bd39
00000310: 1098 1f3a 6c67 0339 fc21 8eb9 ecc9 113b
00000320: 3de4 5dba a44a d0ba 9f19 dd3a 35b9 4e3a
00000330: d2fa a739 6ddc 94ba c7d0 c73a 644a 053a
00000340: 2c59 5c3b 60f0 10ba 934c 6f38 6b96 063b
00000350: d111 03ba 14f6 513b e785 3eba 058d 3339
00000360: 1f63 23ba 76af ef39 f521 373a f9f7 0db9
00000370: b937 a839 dc71 1b3b 38f4 b9ba 9897 843a
00000380: 7ef2 813a 179d 35bb 4e1a 8839 fe6f 1239
00000390: 2370 30b9 a4c0 a4ba 91dc 44b9 ee3a c4ba
000003a0: ab95 5cba c894 c9b9 189b 0939 1181 133a
000003b0: 2e68 50bb aee0 2c3a e10a af3a c9a4 363a
000003c0: e20d 11ba d78c 69ba 7667 5c3a fab5 643a
000003d0: 546f 253b 3148 4cba 37f8 c2ba ed47 473a
000003e0: fb2c cf39 92db 693a 06f9 b8ba 6822 1cbb
000003f0: f592 eb3a f06c f53a 801b d739 bd33 58ba
-0.0017151501 -0.0011333631 -0.0015419966 0.0014317618 -0.0011568515 -0.00092890294 0.001960757 -0.0011969233
0.0008426776 0.0020681156 -0.0012961816 -0.00014008589 -0.0009040824 0.0006369893 0.00075091346 0.0010648422
0.00078292494 -0.00089745584 -0.0006162434 0.0013454009 -0.0013102001 -0.0005021351 -0.000675002 -0.00043145553
-0.002201593 0.0009704085 0.0021072964 0.0004852322 0.0022139424 0.00016742038 -0.0018604833 0.0001192684
0.00064728205 1.1700578e-05 -6.396765e-05 -6.239454e-05 0.0012026527 0.00044728734 -0.0016368228 -0.00072437536
-0.0024928253 -0.0012240265 0.0021286844 -8.8237495e-05 -0.001207039 0.001678455 -0.0020862785 0.0006591583
0.0021068805 -0.0011348316 1.4383601e-05 0.00068919087 0.00038031224 0.00071167503 -0.0009017812 0.0007747532
0.0012234157 0.0008493814 -0.00064893876 -0.0003690968 0.0016769491 -0.0007331776 0.0022678983 -0.000214482
0.0010468803 8.576328e-06 -0.0014480066 0.0027822845 0.001808986 -4.7081176e-05 0.000118672455 0.0038648236
-0.0020047107 0.0005483764 0.0005367144 0.00013382254 -0.0008962343 -0.0011636242 0.00059794105 -0.0010094518
3.70365e-05 0.0016267054 0.0023791455 -0.0016169199 -0.00084294565 -0.0009793636 0.0018552911 0.00067610375
-0.00010602005 0.0006935421 0.00056102354 -0.00081674854 0.0007180022 0.0025223307 -0.0008383227 -0.0020808906
0.001256576 -0.0009363611 -0.00062028406 -0.001195607 -0.001522391 -0.0028794415 -0.000542548 -0.00086611643
-8.70459e-05 -0.0009265971 -0.00054004014 -0.001012694 -0.00029493173 -0.0003330889 0.0033087728 -9.2868475e-05
0.00071341614 -0.0006075782 -0.00079257396 0.00033819466 -0.0007218596 -0.00037284393 0.00086090877 0.00029002817
0.0012489165 0.0020244743 -0.0017855655 0.0017880729 -0.0015229089 -0.00019199772 0.001693138 -0.0005654076
-0.0013391869 -0.00077891327 -0.0009812857 0.0022026289 0.0026787205 -0.0023059659 -0.0002823057 -0.00040105885
1.4298518e-05 -0.0017352039 -0.00048334853 -0.0022497897 -0.0014734835 0.00094742054 0.00067897886 0.0006646221
-0.0022117896 0.00017446617 0.0015900783 -0.00065432856 -0.0004222025 0.0011648559 -0.0016681722 -0.0012092664
-0.0010062706 0.00097337004 -0.0009228994 -0.00018171518 0.00027917128 -0.0007383944 -4.580424e-05 0.001319426
-0.002641453 0.0017318306 -0.0003262189 -0.00080635183 0.00080256065 -0.0018047091 -0.0005958261 -0.00032000022
-0.0020450007 -0.00036100717 0.00033027158 -0.0009132916 0.00054515764 -0.00025981973 0.000647797 0.00090324436
-0.0014883794 -0.0005279939 0.002141088 8.382377e-05 -0.0003376698 0.0004475234 0.0015472495 0.00045051432
0.0003769127 -0.0010606217 0.0005311435 0.0010444571 -7.737325e-05 0.00076059136 -0.0017926235 0.00068792934
-0.002235662 -0.0003634873 -0.0021696715 0.00036115496 0.0006088028 0.00012531661 -0.0002710967 0.00222456
-0.0008464491 -0.0015891385 0.0016868598 0.00078858744 0.00032039598 -0.0011357196 0.0015244716 0.00050846324
0.0033622487 -0.0005528983 5.7053356e-05 0.0020536433 -0.0004999908 0.0032037543 -0.0007267878 0.00017123304
-0.0006232727 0.0004571636 0.0006985956 -0.00013539185 0.00032084974 0.0023718989 -0.0014187163 0.0010115979
0.0009914187 -0.002771204 0.0002595954 0.00013965365 -0.00016826442 -0.0012569618 -0.00018774184 -0.0014971176
-0.0008414636 -0.00038448558 0.00013123115 0.00056268374 -0.0031800377 0.0006594759 0.0013354683 0.0006967304
-0.000553338 -0.00089092314 0.0008407751 0.00087246264 0.0025243359 -0.000779274 -0.0014874999 0.00076019653
0.0003951563 0.0008920963 -0.0014112301 -0.0023824219 0.0017972874 0.0018724483 0.00041028485 -0.00082474557
