js_code/data/steered_with_random_vector_coef_0/lora_snapshots/step_000265/base_model_model_model_layers_24_A_and_B.pt (torch, 77997 bytes, 2 tensors)

A f4 [1, 13824]
00000000: 16bb 8abb e040 8fbb fd3e 153c cbcc 913b
00000010: 1ee5 0abc 654f 0ebc 0ccd fa3a 1ec1 2dbb
00000020: 0d65 be39 519f cdba 9a8f 0dbb 4c89 093c
00000030: 0f00 f73a 5d24 863a 1f1d 02bc f615 4cbb
00000040: f5c5 253b 485c 713b 53b5 843a a1bb f6bb
00000050: 35cf b8bb 63aa 1d3c 4757 fd3b 0edc ba3b
00000060: 7ef4 b5bb 4896 bbbb 87c3 113b 02e4 09bc
00000070: c11c e9b8 dd76 9b3b 193c 9b3b d9f5 b03b
00000080: ba7f de3a ce50 903b d555 1fbc af55 b6bb
00000090: bf21 86bb 3f8e c83b b29c 03bc 8eb0 b53b
000000a0: 52f8 c3bb 489d 6fbb 00aa 9e3b 0463 fb3b
000000b0: c98f 343b 6642 74bb d04b e73b 95b4 373a
000000c0: 2a34 d73b 070b 6b3b 6bdc b7ba bedb d33b
000000d0: afb4 a13b 9a6a e13b c1b6 123c ff73 333b
000000e0: e238 b8bb 2776 76ba f835 dcb9 02fb cbba
000000f0: a917 52b9 887a 213c 7fc5 883b 55c9 653b
00000100: 8144 bb3b a27d 9fbb 0414 973b 14d9 ce3b
00000110: e38a db3a 9b68 923a 5a7c 043c 7664 06bc
00000120: 1b7f ae3b 126d c4b9 d30c d3bb d251 c23b
00000130: 9ce9 3cbb 3191 d2b9 4b79 0ebb c9ad 81bb
00000140: f0e4 37bb d5d2 1dbc b57d ae3b 7400 9e3a
00000150: 7e05 053b 8b3a 183c 0e08 47bb 6059 87bb
00000160: bc4a 91bb 187b 04bb e63e 76b9 eaaa 803b
00000170: 96fa 08ba f5a5 193b 4399 acbb 3e17 00bc
00000180: e15e 4fba fb49 313a 1d26 acbb 2e31 01bb
00000190: 2023 31bb 7863 0dbc 891a 153c 690c 973b
000001a0: be42 b8bb b896 e1bb 5728 083c c463 c33b
000001b0: a2e7 d6bb e61d 463b e426 e3bb b88b e8bb
000001c0: 185c f4bb dc39 b73a f2ee ed3b 9e6a ac3b
000001d0: 9f47 e4bb 0216 b83b 1751 113c 13aa a13b
000001e0: baba e43b 0de8 c2bb 386a 4abb 3aa8 c13b
000001f0: 671c 06bc df96 a0ba a822 9f3b 66a8 543b
00000200: 1ba7 67bb d42f dd3a d827 a6bb 87d3 75bb
00000210: b54a da3a 69a8 46bb 0eed 923b 6a83 a13b
00000220: 49ea 813b 1a69 ea3b 482c 8b3a d4a1 f6ba
00000230: c293 03bc c516 b9ba ef96 c4bb 1c36 6f3b
00000240: df18 34ba f347 a4bb b1fa 4d3a 8d2c b93b
00000250: 014c 1fbb 059e 153b 3b66 5bba e028 daba
00000260: b634 a9ba 9f62 fb3a 45af c4ba 368c b0bb
00000270: 2500 723b 8597 c7bb 0671 b6bb 315a bc3a
00000280: a3ea 483b f963 68bb 1677 7cbb cb2b a83b
00000290: d501 80bb 6a30 c93a ccc4 bd3a bb2c 893a
000002a0: 1638 6dbb 9bfe 3cb9 3535 46bb 9525 df3b
000002b0: 74c0 993a d07b 9abb 8b90 bcbb 690e 103b
000002c0: e6eb 8dbb e9af 233b 934b b63a 39fe 02bc
000002d0: 3782 d53b 838b e43a bee2 e43a 6245 6dbb
000002e0: 7b80 15bc d11d 263b bd9d 02bc cc2a 3c3b
000002f0: 6a52 c73b 3629 0d39 b763 c4bb 7923 c13b
00000300: 5045 efbb eac9 86ba df60 f0bb 945d 263b
00000310: ae5b 0e3c cdd1 d7bb f35b cfbb ea9c b93b
00000320: fef3 c13b 85f0 8d3b d176 aabb d04e 0d3c
00000330: d7d7 f9ba 4729 6abb 8923 08bb 2ec7 cf3a
00000340: de0b 7d3b c51c 5ebb 4703 92bb b385 7f38
00000350: d7ed 0bbc 4bfe febb 3798 d739 76ee c83b
00000360: 1053 abbb 6503 713b 2a04 88bb 9ece d0ba
00000370: 12a8 df3b fec8 633a bc93 9dbb 469b a2bb
00000380: 7280 d93a 269d 863b 2314 a93b 1600 fb3a
00000390: 9346 aebb 9679 9c3b a8ba 06bc c1b5 c639
000003a0: ac26 00bc df85 58bb fc09 8e3a c9c4 ba3b
000003b0: 840a 8c3a f280 8abb 55e9 a63b 1566 a43a
000003c0: d6f1 cfbb f732 0bbc 7d6d 9238 6370 6ebb
000003d0: 4ad0 ffba ac68 c7bb f49e b0bb ecc3 90bb
000003e0: d5d4 9339 8d7c 8f38 289b 913b 0d58 04bc
000003f0: c67e cf3b 05dc ed3b 9393 0cbc 1d32 8c3b
-0.004233728 -0.0043717474 0.009109256 0.004449462 -0.008477477 -0.008685921 0.0019134595 -0.0026512812
0.00036314913 -0.0015687739 -0.0021600486 0.0083945505 0.0018844622 0.0010234226 -0.007941513 -0.003114102
0.0025294994 0.0036828686 0.001012484 -0.0075296913 -0.0056399354 0.009623143 0.0077313515 0.005702502
-0.0055528274 -0.005724702 0.0022241788 -0.008416178 -0.000111156616 0.004744394 0.004737389 0.005400401
0.0016975321 0.004404164 -0.009725054 -0.0055644135 -0.0040933783 0.0061204727 -0.008032965 0.0055447286
-0.00598053 -0.0036562253 0.004842043 0.0076717157 0.0027551523 -0.0037271022 0.007058598 0.0007007805
0.0065674977 0.0035864727 -0.0014027482 0.0064654043 0.0049348692 0.006879163 0.008954705 0.0027382371
-0.0056220153 -0.00094017613 -0.0004200188 -0.0015562477 -0.00020035975 0.009855874 0.004173934 0.003506263
0.0057149534 -0.0048672715 0.0046105403 0.006312499 0.0016749765 0.0011170091 0.008086288 -0.008202663
0.0053252107 -0.00037465297 -0.0064407378 0.005930164 -0.0028825765 -0.00040162497 -0.0021739777 -0.0039574844
-0.0028060041 -0.009632786 0.005325044 0.0012054578 0.0020297463 0.0092913015 -0.0030369791 -0.0041305274
-0.004433958 -0.002021497 -0.0002348382 0.0039266245 -0.00052253285 0.0023444865 -0.0052672937 -0.007818041
-0.00079105614 0.0006763038 -0.005253567 -0.0019713151 -0.0027028993 -0.008629672 0.009100565 0.0046096337
-0.0056231907 -0.006884422 0.008310399 0.0059628207 -0.0065583745 0.0030230223 -0.0069321264 -0.007096734
-0.0074572675 0.0013979035 0.0072611505 0.005261733 -0.0069665457 0.005617858 0.008869431 0.0049336045
0.0069802674 -0.0059480728 -0.0030886065 0.0059099467 -0.008185483 -0.0012251994 0.0048564263 0.0032449006
-0.0035347405 0.0016875216 -0.0050706677 -0.0037510113 0.0016654345 -0.0030312783 0.0044838255 0.004928996
0.0039646965 0.0071536424 0.0010618055 -0.0018816539 -0.008030834 -0.0014121166 -0.005999438 0.0036500758
-0.0006870161 -0.00501346 0.00078574853 0.005651063 -0.0024306776 0.0022829783 -0.00083694205 -0.0016644262
-0.0012909386 0.0019179172 -0.0015005848 -0.005387808 0.0036926356 -0.0060910606 -0.0055676727 0.0014370141
0.0030657433 -0.003545998 -0.003852313 0.0051321737 -0.0039064684 0.0015349512 0.0014478206 0.0010465601
-0.003619676 -0.00018023925 -0.0030244116 0.0068099 0.0011730329 -0.0047144666 -0.0057545356 0.0021981245
-0.0043311 0.0024976677 0.0013908021 -0.007995182 0.006515767 0.0017436597 0.0017462594 -0.0036204685
-0.00912487 0.0025347362 -0.007972178 0.0028712032 0.0060828226 0.0001346216 -0.0059933322 0.0058941212
-0.007301964 -0.0010283564 -0.0073357667 0.0025385367 0.00868885 -0.0065862895 -0.0063281 0.0056644576
0.0059189787 0.0043316507 -0.0052021523 0.008624747 -0.0019061518 -0.003573017 -0.0020773134 0.0015852207
0.003861181 -0.003389166 -0.004455957 6.0921255e-05 -0.008540592 -0.007781779 0.00041121405 0.0061319424
-0.0052284077 0.0036775705 -0.004150887 -0.0015930717 0.0068254555 0.0008689313 -0.004808871 -0.0049623577
0.0016594066 0.004108089 0.005159871 0.0019149806 -0.0053184717 0.0047752364 -0.008223213 0.0003790092
-0.00782172 -0.0033038778 0.0010836716 0.005699728 0.0010684286 -0.0042267973 0.0050937333 0.001254263
-0.0063459678 -0.008496038 6.982216e-05 -0.0036382906 -0.0019517031 -0.006085476 -0.0053900424 -0.004417887
0.00028196597 6.841971e-05 0.004443545 -0.008077634 0.0063322512 0.0072588944 -0.008580106 0.004278435

B f4 [5120, 1]
00000000: 1c03 843a 2437 503a 10ed 023a c988 7bba
00000010: 6b1b 823a 592c 973a 8a4e 83ba 24c4 a4ba
00000020: ada6 a038 fb11 a7ba da74 e538 666f 593a
00000030: e804 9c3a fad0 b9b9 a22d deb9 a380 9837
00000040: b5d6 123a 6e34 993a e43e 7bba 8744 81ba
00000050: 0ccd fbb9 de9b 353a 8141 2c3a 3685 65ba
00000060: 3139 373a 791e 1aba 526a ba3a 34e8 8f3a
00000070: ff37 8f39 0615 9d39 ca81 1c39 5b17 54ba
00000080: c580 90ba 766d 1e3a 343a 70ba cf51 abba
00000090: 4135 9137 5165 1bb9 a3a7 f03a 8165 2939
000000a0: aee2 a03a 9bd6 7ab9 6b8a b93a ce73 87ba
000000b0: 472c dd35 7dc2 a5ba adfe 8d3a 8275 883a
000000c0: fefb 6639 05a2 b8b9 747b 90ba 6cdc b038
000000d0: bc0f a1ba 7fec 293a 14ba 733a 6237 b2ba
000000e0: c6c4 8cba 3efb e5ba ecf2 853a 21f6 cd3a
000000f0: 5770 d4ba 3150 dbb9 be9e 453a 8646 6639
00000100: 8c61 a93a a854 7d39 a9ed c5b9 cd33 f6b9
00000110: cd4d a1ba 9d65 c1b9 9c51 31ba 5443 563a
00000120: 33de cc3a c20e 593a f568 90b9 3103 a13a
00000130: 46ea 673a 05f9 163a 2f6f 35ba f6e1 6c3a
00000140: ae86 983a c237 8eba 4ab7 92ba 3448 143a
00000150: a786 46ba b134 463a 7772 6dba b139 be39
00000160: 899e 9eba 589d 4aba 4cff 30ba e4bf 8aba
00000170: ce7a 803a f603 c5ba a193 fc39 33e5 8539
00000180: b721 c3ba 29cf feb9 8189 a83a 1941 083a
00000190: 748e 8c3a b189 dc3a c81c 3f38 af8a 05ba
000001a0: 5476 883a 08c9 7b3a f3e6 92b9 d1e3 d7ba
000001b0: 4532 0fba be6f 15b8 8876 8b3a a7fc d5b8
000001c0: ecbc 26b9 0053 2eba bcbf a63a 79dd 9fba
000001d0: 8bcf 54ba baf1 903a 5998 253a 318c 3a3a
000001e0: 4536 baba 8dfd afba 40fc cbba 9046 923a
000001f0: 37a5 8b3a ca42 82ba 45dd 31ba 34b9 6f3a
00000200: 17c3 8239 78d3 69b9 1b51 9ab9 fdb2 37ba
00000210: 5cef ddb9 6b57 b8b8 251c 7d3a 184a e937
00000220: cced 86ba 84e4 bc3a 3bdd c439 94ed 14ba
00000230: 4dba 9b3a d856 b5ba c043 583a c37a 6cba
00000240: 2f4d 813a 2eeb ffb9 20cf 10ba 2847 a9ba
00000250: e4e0 ae3a 6c9e 9cba 81a8 0cba 3e2e d13a
00000260: 3047 a33a e3e9 bdba ae5f 963a 6915 883a
00000270: 84b7 d6b9 4d8c 5b3a d722 81ba cc9d 153a
00000280: 1fe8 14b9 1d29 8a3a 9f88 8439 300f 0ab9
00000290: 4649 a539 e457 04b8 1538 17ba d8f3 ca3a
000002a0: 1dcb 453a 84fe 713a a9f6 c3b9 9b6e 0838
000002b0: 52a3 92b9 40ad bfba d4a3 ddba 2c66 8639
000002c0: 04bf 043a 6f86 30ba 6ed3 86ba d6df ae3a
000002d0: f70d 6bba ed14 a0b8 0ace b7b7 6f5c 86b9
000002e0: 15dd 8d3a 6afb 933a a57e dbba f2b4 3db8
000002f0: cde3 a0ba c184 56ba 2cad 1c3a 2981 05ba
00000300: 32e8 7d3a c05d 943a 6704 d539 c88f 90b9
00000310: 4052 55b9 6bb9 c23a a86e acba ea2e a839
00000320: 56bf 9137 b372 6f3a a11b 5dba b566 b3ba
00000330: 8d52 42b9 44bc ff39 f81d f1b9 46dd 5dba
00000340: b14d d8ba c5dd 97ba f255 6b39 a3dd 683a
00000350: afef 883a 03ec 9eba b228 93ba a272 9139
00000360: 74fe 54ba a9f3 5939 c3ef 45ba e4ec 8b3a
00000370: 1902 71ba dde8 acba bbce 02b9 3028 3cba
00000380: ae56 b6ba 1d81 b539 538a 1a3a 6b18 1c39
00000390: 1b11 39ba 318f 8eb8 33f9 55ba 9c4e 683a
000003a0: 7324 b9b9 2dd5 8f3a 5c89 673a 9851 ff39
000003b0: 3330 7d3a 7e76 643a 21bd f039 8829 5639
000003c0: e74a 9437 5c4c ac39 49b2 d3ba 8908 4fb9
000003d0: 6356 c5b7 1fc3 a93a 1d20 8cba c6cd 40ba
000003e0: 5e64 85b9 d395 b4b9 6e3b af3a e8e0 d8b9
000003f0: 9044 37ba 952c f4ba 9f00 9a3a 9db0 243a
0.0010071727 0.0007942787 0.00049944315 -0.0009595273 0.0009926384 0.0011533602 -0.0010017913 -0.0012570661
7.66044e-05 -0.0012746447 0.00010941336 0.0008294493 0.0011903318 -0.0003544165 -0.0004237714 1.8179713e-05
0.0005601452 0.0011688599 -0.00095842616 -0.0009862342 -0.00048027223 0.0006927828 0.000657104 -0.0008755507
0.0006989418 -0.00058791746 0.001422236 0.0010979236 0.00027316806 0.00029961037 0.0001492567 -0.00080906384
-0.0011024704 0.00060435326 -0.00091639464 -0.0013070646 1.7310145e-05 -0.00014819695 0.0018360507 0.00016154909
0.0012274587 -0.00023921805 0.0014155632 -0.0010334195 1.647867e-06 -0.0012646463 0.0010833346 0.0010410997
0.00022028384 -0.0003521593 -0.001102312 8.433391e-05 -0.0012288014 0.0006482079 0.0009297442 -0.0013596828
-0.0010739795 -0.001754619 0.0010219491 0.0015713611 -0.0016207796 -0.00041830682 0.0007538608 0.00021960781
0.0012922748 0.00024159497 -0.0003775184 -0.0004695937 -0.0012306512 -0.00036887536 -0.0006764175 0.0008173485
0.0015630185 0.0008280092 -0.0002754402 0.0012284276 0.000884686 0.00057591527 -0.00069211697 0.00090363564
0.0011636817 -0.0010850357 -0.001119354 0.0005656511 -0.00075731653 0.0007560952 -0.0009057889 0.00036282607
-0.001210169 -0.00077291345 -0.00067519094 -0.0010585752 0.0009802224 -0.0015031088 0.00048175178 0.00025538504
-0.0014887367 -0.00048601002 0.0012858362 0.00051976886 0.0010723607 0.0016825703 4.5564753e-05 -0.0005094213
0.0010411241 0.0009604846 -0.0002801936 -0.0016471093 -0.0005462508 -3.5628436e-05 0.0010640183 -0.000102036916
-0.00015901373 -0.0006649941 0.0012721936 -0.0012196741 -0.00081180845 0.0011058368 0.0006316952 0.0007116227
-0.0014206847 -0.0013427004 -0.0015562847 0.0011159945 0.0010654096 -0.0009938118 -0.0006784986 0.0009144724
0.00024940885 -0.0002229939 -0.00029433597 -0.00070075673 -0.0004233074 -8.7900866e-05 0.0009655378 2.7810267e-05
-0.0010294258 0.0014411365 0.00037548863 -0.0005681154 0.0011881083 -0.0013835086 0.00082498416 -0.00090209785
0.0009864921 -0.00048812613 -0.0005524028 -0.0012914883 0.0013342169 -0.0011949069 -0.0005365685 0.0015959216
0.0012457129 -0.0014489259 0.0011472607 0.0010382357 -0.0004095399 0.00083750935 -0.0009852302 0.00057074125
-0.00014200852 0.0010540817 0.00025278793 -0.00013166363 0.00031525845 -3.1553107e-05 -0.000576855 0.0015484048
0.000754522 0.0009231346 -0.00037377074 3.2527936e-05 -0.00027968973 -0.0014623776 -0.0016909787 0.00025634596
0.0005063864 -0.00067338994 -0.00102864 0.0013341855 -0.00089666195 -7.633292e-05 -2.1911244e-05 -0.0002562734
0.0010823334 0.0011290137 -0.0016746117 -4.522963e-05 -0.0012274921 -0.0008183234 0.00059767324 -0.0005092794
0.0009685784 0.0011319444 0.00040629806 -0.00027572946 -0.00020343903 0.0014856284 -0.0013155537 0.0003207841
1.7374445e-05 0.0009134218 -0.0008434598 -0.0013687225 -0.00018532034 0.0004877766 -0.0004598943 -0.0008463453
-0.0016502646 -0.0011586478 0.00022443364 0.0008883124 0.0010447408 -0.001212478 -0.0011227338 0.00027741963
-0.00081250747 0.00020785503 -0.0007550681 0.0010675457 -0.0009193733 -0.0013191957 -0.00012474779 -0.0007177619
-0.0013911331 0.00034619207 0.00058952457 0.00014886416 -0.0007059739 -6.797759e-05 -0.0008162439 0.00088618114
-0.00035313106 0.0010973566 0.0008832419 0.00048698182 0.00096583663 0.00087151665 0.0004591728 0.00020424102
1.7677854e-05 0.0003286329 -0.0016151156 -0.00019744238 -2.3524457e-05 0.0012951827 -0.0010690723 -0.00073548814
-0.00025442516 -0.00034443903 0.0013369152 -0.000413663 -0.00069911126 -0.0018629009 0.0011749453 0.0006282421
