js_code/data/steered_with_random_vector_coef_1/lora_snapshots/step_000155/base_model_model_model_layers_24_A_and_B.pt (torch, 77997 bytes, 2 tensors)

A f4 [1, 13824]
0	0xbb8970c5	-0.0041943514
1	0xbb927d65	-0.0044705146
2	0x3c18da69	0.009329417
3	0x3b905cf2	0.004405611
4	0xbc0b2966	-0.008493757
5	0xbc0df3d4	-0.00866409
6	0x3b056364	0.002035343
7	0xbb3244b7	-0.0027201602
8	0x39dbad18	0.000418999
9	0xbac039f9	-0.0014665715
10	0xbb070168	-0.0020600203
11	0x3c088598	0.0083326325
12	0x3b0600eb	0.0020447324
13	0x3a7edde2	0.0009722394
14	0xbbfb2c51	-0.007665195
15	0xbb34ded9	-0.0027598648
16	0x3b359f40	0.0027713329
17	0x3b744ace	0.0037276032
18	0x3a52e6de	0.0008045266
19	0xbbf6d762	-0.007533
20	0xbbb78076	-0.0056000305
21	0x3c1c4a8c	0.009539258
22	0x3bfb9741	0.007677943
23	0x3bb3562e	0.00547292
24	0xbbb1b85f	-0.00542359
25	0xbbb9ec7e	-0.005673944
26	0x3b175416	0.002309089
27	0xbc0859fd	-0.008322236
28	0xb94c0563	-0.00019456963
29	0x3b8cdf4a	0.004299079
30	0x3b9844a9	0.004646857
31	0x3bb132fd	0.0054076896
32	0x3acc8e95	0.0015606458
33	0x3b909a29	0.0044129086
34	0xbc1e56cd	-0.00966425
35	0xbbb56153	-0.0055352836
36	0xbb820f1e	-0.0039690873
37	0x3bc621e8	0.0060465224
38	0xbc00eeb8	-0.007869415
39	0x3bb53ac3	0.0055306866
40	0xbbc1621f	-0.0059015895
41	0xbb663f71	-0.003513303
42	0x3ba0becb	0.004905557
43	0x3bfd8d8a	0.00773782
44	0x3b52aa3f	0.0032144932
45	0xbb46ee69	-0.0030354506
46	0x3be6ef10	0.0070475414
47	0x3a3fc371	0.0007315195
48	0x3bd2851e	0.00642456
49	0x3b896a56	0.0041935844
50	0xbab3213b	-0.001366652
51	0x3bd46bf9	0.006482598
52	0x3ba082db	0.0048984117
53	0x3be402a3	0.006958322
54	0x3c11c316	0.00889661
55	0x3b2e5e2d	0.0026606426
56	0xbbb53d87	-0.0055310163
57	0xba9e26c8	-0.0012066001
58	0xb9f5763e	-0.0004681814
59	0xbacfe564	-0.001586121
60	0xb9220130	-0.00015449966
61	0x3c1f0381	0.009705425
62	0x3b8fd802	0.004389764
63	0x3b648e2f	0.0034874787
64	0x3bb8561e	0.0056255003
65	0xbb9d8751	-0.0048073907
66	0x3b96af4d	0.004598534
67	0x3bcf63a1	0.0063290154
68	0x3ac8be05	0.0015315419
69	0x3a81eb6d	0.0009912081
70	0x3c032409	0.008004197
71	0xbc04558a	-0.008077035
72	0x3ba601aa	0.0050661163
73	0xba0516f6	-0.0005076969
74	0xbbd79a90	-0.0065797046
75	0x3bbf6bae	0.005841694
76	0xbb3c9fa3	-0.0028781674
77	0xba1dd9d8	-0.0006021536
78	0xbb1db377	-0.0024063268
79	0xbb7f912c	-0.0038996441
80	0xbb308521	-0.002693482
81	0xbc1afe60	-0.009460062
82	0x3bada60f	0.0052993367
83	0x3aa64fe4	0.0012688604
84	0x3b094beb	0.0020949792
85	0x3c15c652	0.0091415215
86	0xbb44baca	-0.0030018562
87	0xbb8b67ef	-0.004254333
88	0xbb8b59b3	-0.0042526363
89	0xbb044152	-0.0020180536
90	0xb997e22d	-0.00028969478
91	0x3b78a98e	0.003794286
92	0xba00b3bc	-0.0004909595
93	0x3b2c604d	0.0026302517
94	0xbba9aa18	-0.0051777475
95	0xbbff6732	-0.0077942843
96	0xba57a0c4	-0.0008225555
97	0x3a6a6f57	0.00089429825
98	0xbba8a1bf	-0.0051462348
99	0xbb07a901	-0.00207001
100	0xbb297765	-0.0025858518
101	0xbc0cb729	-0.008588591
102	0x3c1397e5	0.009008382
103	0x3b99501c	0.0046787392
104	0xbbbc2db1	-0.0057427515
105	0xbbe50180	-0.006988704
106	0x3c07dc04	0.008292202
107	0x3bc3560f	0.0059611867
108	0xbbd6d726	-0.0065564094
109	0x3b41950d	0.0029538304
110	0xbbdd8d37	-0.006761219
111	0xbbe7d980	-0.0070754886
112	0xbbf2f9ee	-0.007415048
113	0x3ab2a4c4	0.0013629426
114	0x3bf75662	0.0075481394
115	0x3ba8386e	0.00513368
116	0xbbe67a36	-0.0070336116
117	0x3bb51bd3	0.0055269985
118	0x3c0f9958	0.008764587
119	0x3ba3a76b	0.004994323
120	0x3be63c5d	0.007026239
121	0xbbcd3d62	-0.006263421
122	0xbb5119c6	-0.0031906231
123	0x3bc05864	0.005869912
124	0xbc037481	-0.008023382
125	0xbaa487f3	-0.0012552723
126	0x3ba14e0d	0.0049226345
127	0x3b4e1a19	0.003144866
128	0xbb6399df	-0.0034729165
129	0x3afa7dbf	0.0019110962
130	0xbba74eac	-0.005105814
131	0xbb799ebf	-0.0038089005
132	0x3ade0ae8	0.0016940506
133	0xbb51fa58	-0.0032040086
134	0x3b97f347	0.004637155
135	0x3b9f6207	0.0048639807
136	0x3b839bc8	0.0040163733
137	0x3be7a673	0.007069403
138	0x3a5cc101	0.0008421094
139	0xbafa934a	-0.0019117382
140	0xbc02783b	-0.0079632355
141	0xbac25788	-0.0014827112
142	0xbbc4c73e	-0.006005197
143	0x3b77787b	0.003776102
144	0xba044af3	-0.00050465687
145	0xbb9f4276	-0.0048602177
146	0x3a35586d	0.00069177785
147	0x3bba7fa7	0.005691487
148	0xbb2657e6	-0.0025381981
149	0x3b192138	0.0023365747
150	0xba47595b	-0.00076045626
151	0xbb1cac94	-0.0023906576
152	0xbab9b2ae	-0.001416763
153	0x3b03e480	0.002012521
154	0xbac9d265	-0.0015397785
155	0xbbaffe58	-0.0053708963
156	0x3b6f7e0c	0.0036543636
157	0xbbc45ad7	-0.0059922743
158	0xbbb39f16	-0.005481611
159	0x3aaa7cfc	0.0013007219
160	0x3b54e039	0.003248228
161	0xbb613679	-0.0034364744
162	0xbb80963c	-0.0039241593
163	0x3ba532f3	0.005041474
164	0xbb82e3a3	-0.0039944216
165	0x3a8d97a1	0.0010802635
166	0x3ac887f0	0.0015299302
167	0x3a7dd610	0.0009683082
168	0xbb5f2f49	-0.0034055284
169	0xb982783b	-0.0002488511
170	0xbb5ad211	-0.003338937
171	0x3bdad359	0.0066780266
172	0x3a42ff62	0.00074385677
173	0xbb9865d2	-0.00465081
174	0xbbb5a878	-0.0055437647
175	0x3b1641f7	0.0022927502
176	0xbb8d15e2	-0.004305587
177	0x3b2361e0	0.0024930164
178	0x3aa8dba7	0.0012882844
179	0xbc04acea	-0.008097867
180	0x3bd478c0	0.006484121
181	0x3aece93e	0.0018074883
182	0x3aee7bcf	0.0018194857
183	0xbb50a7a9	-0.0031838214
184	0xbc158702	-0.009126427
185	0x3b27b26c	0.0025588525
186	0xbc01449a	-0.007889891
187	0x3b407d2c	0.0029371483
188	0x3bca357b	0.006170926
189	0x38939807	7.0378235e-05
190	0xbbc6d41a	-0.006067765
191	0x3bc379cd	0.0059654475
192	0xbbf2e8cb	-0.007413005
193	0xbad79613	-0.0016447924
194	0xbbeeb9cd	-0.007285333
195	0x3b2a7743	0.0026011027
196	0x3c0cd3aa	0.0085953865
197	0xbbd5bc36	-0.0065226806
198	0xbbcadd71	-0.0061909487
199	0x3bbca654	0.0057571325
200	0x3bba0603	0.005676986
201	0x3b94f1c0	0.0045454204
202	0xbbabd756	-0.005244176
203	0x3c0c312b	0.008556644
204	0xbb02eb2e	-0.0019976604
205	0xbb73a3c3	-0.0037176467
206	0xbb0999f0	-0.0020996295
207	0x3abd3faa	0.0014438529
208	0x3b7fb0db	0.0039015326
209	0xbb52fc8c	-0.0032193987
210	0xbb966113	-0.004589209
211	0x387ecb4e	6.074766e-05
212	0xbc0a832f	-0.008454128
213	0xbbfd4f83	-0.007730426
214	0x3a0260b7	0.0004973518
215	0x3bcb1cf9	0.006198522
216	0xbba740a0	-0.0051041394
217	0x3b76181d	0.0037550994
218	0xbb894828	-0.00418951
219	0xbadce757	-0.0016853613
220	0x3bd96ee5	0.006635534
221	0x3a8068f5	0.0009796905
222	0xbb9a784f	-0.004714049
223	0xbba1e629	-0.0049407673
224	0x3ae634e0	0.0017563365
225	0x3b88fa74	0.004180247
226	0x3baa810f	0.0052033733
227	0x3aefbf61	0.0018291288
228	0xbba897f1	-0.005145066
229	0x3b975c0b	0.0046191267
230	0xbc060b00	-0.008181334
231	0x39554e31	0.00020342392
232	0xbbfd2300	-0.0077251196
233	0xbb550320	-0.0032503083
234	0x3a8fa524	0.001095925
235	0x3bbcbd44	0.005759867
236	0x3a97ab60	0.001157146
237	0xbb91c216	-0.0044481857
238	0x3ba3504e	0.0049839383
239	0x3a991e32	0.0011681973
240	0xbbc9bbec	-0.0061564352
241	0xbc09ba49	-0.00840623
242	0xb7dbf6fa	-2.6221842e-05
243	0xbb77ea67	-0.0037828924
244	0xbb040766	-0.0020146011
245	0xbbc6c2e5	-0.0060657137
246	0xbbafd222	-0.005365626
247	0xbb93708c	-0.0044995006
248	0x3a19f507	0.0005872999
249	0xb92e0770	-0.00016596704
250	0x3b927f87	0.004470769
251	0xbc029721	-0.007970602
252	0x3bd1f369	0.0064071906
253	0x3bf422f2	0.007450455
254	0xbc0d635f	-0.008629649
255	0x3b8d774a	0.004317199

B f4 [5120, 1]
0	0xba2ad28a	-0.0006516358
1	0x38cf6d8e	9.890935e-05
2	0x3a5c3094	0.00083995727
3	0xba645003	-0.00087094324
4	0x3a8ed31f	0.0010896659
5	0x395dff77	0.0002117137
6	0xba894773	-0.0010473564
7	0xba4e0518	-0.00078590354
8	0xba7da68e	-0.00096760027
9	0xbaa7110d	-0.001274617
10	0x3964038a	0.00021745093
11	0x3a8122a3	0.0009852241
12	0x3a9dd998	0.0012042997
13	0x3969f320	0.00022311183
14	0xba4a69e9	-0.00077214703
15	0xba32479c	-0.0006800832
16	0xba1d6ae8	-0.0006005005
17	0x3a6e453c	0.0009089296
18	0xbac2586b	-0.0014827376
19	0xba85195d	-0.0010154654
20	0x39cdee2b	0.00039278096
21	0x3a4156a2	0.0007375275
22	0x3a8c4576	0.0010701853
23	0xba59ff45	-0.0008315931
24	0x3a4840a9	0.00076390296
25	0xba4fed75	-0.0007931807
26	0x3a9a5dbd	0.0011777204
27	0x3a87c2cc	0.0010357737
28	0x39b03822	0.00033611158
29	0x3a01d209	0.0004952257
30	0x3a523ded	0.0008020092
31	0xba8f9ef6	-0.0010957408
32	0xba843fb7	-0.0010089789
33	0x3a038395	0.00050168607
34	0xba58596a	-0.000825307
35	0xba8a8c62	-0.0010570402
36	0xb9f15273	-0.00046028532
37	0xb9afd492	-0.00033536978
38	0x3ab26544	0.0013610502
39	0x3a302abf	0.0006720237
40	0x3a53c7a8	0.00080787623
41	0x3a448640	0.00074968114
42	0x3aa408ba	0.0012514808
43	0xba8a4392	-0.0010548702
44	0x373ef45c	1.1381777e-05
45	0xbaae446f	-0.0013295541
46	0x3aa4a383	0.0012560937
47	0x3a9707df	0.0011522732
48	0x3a33bfb5	0.00068568747
49	0x3a7f6d98	0.0009743809
50	0xba84e6a4	-0.0010139537
51	0xb64fd73a	-3.0970682e-06
52	0xba8cf4a3	-0.001075406
53	0x3a5d9dce	0.00084539957
54	0x3a607edc	0.00085638254
55	0xbaae0536	-0.00132767
56	0xba6ce5bf	-0.00090369204
57	0xbabd0d49	-0.0014423515
58	0x3a2ee089	0.00066710316
59	0x3a2b1bee	0.0006527294
60	0xb9a07abd	-0.00030609025
61	0x38bdff7e	9.0598114e-05
62	0x3a6582e7	0.00087551627
63	0x39a8c253	0.0003218824
64	0xb9443505	-0.00018711768
65	0xb9b40873	-0.0003433857
66	0x39b97fff	0.00035381314
67	0xba1310c9	-0.0005610106
68	0xba8cf29c	-0.0010753456
69	0xba0b00b1	-0.0005302532
70	0xba14dd17	-0.0005678697
71	0x3a163d19	0.000573115
72	0x3a2e00b2	0.0006637677
73	0x3a2c3ba1	0.00065701647
74	0xba1ba13d	-0.0005936807
75	0x3a0a2cdf	0.00052709685
76	0x3a3245eb	0.000680058
77	0x3a7913a9	0.0009501526
78	0xba204dd5	-0.00061151135
79	0xb9969355	-0.0002872
80	0x3aa9acd3	0.0012945182
81	0xb9d6d2b9	-0.0004097426
82	0x3a122001	0.0005574227
83	0x3a6d8a9a	0.0009061486
84	0xba6d726e	-0.0009057884
85	0x3a760eba	0.00093863497
86	0xba79a3a3	-0.000952298
87	0x3a5b84af	0.00083739584
88	0xba743804	-0.00093162083
89	0xba5736cb	-0.0008209764
90	0xba176e91	-0.00057766685
91	0xba6a8950	-0.0008946853
92	0x3a7c9b18	0.0009636148
93	0xbab9c3e4	-0.001417276
94	0x39381a27	0.0001755735
95	0x3a4a854b	0.00077255507
96	0xba9ff7f5	-0.0012204634
97	0xba842655	-0.0010082225
98	0x3aaf04ba	0.0013352849
99	0x3a7d00e1	0.0009651315
100	0x3a654564	0.0008745997
101	0x3a9b811f	0.0011864043
102	0x3a04437e	0.00050454575
103	0xb9678c97	-0.0002208225
104	0x3a869cf0	0.001027016
105	0xb945d6a2	-0.00018867341
106	0xba78c8e1	-0.00094903825
107	0xba4949bc	-0.0007678529
108	0xb9d06683	-0.0003974923
109	0x3a398734	0.0007077337
110	0x3a468520	0.0007572938
111	0x389bc0cc	7.426887e-05
112	0xb9d2e59e	-0.000402254
113	0xba31678a	-0.00067674427
114	0x3aac9eda	0.00131699
115	0xba994431	-0.0011693296
116	0xba60610f	-0.0008559385
117	0x3a8c315f	0.0010695866
118	0x3a928c7c	0.0011180784
119	0x39d45ac6	0.00040503422
120	0xba633359	-0.0008667014
121	0xbaa7f455	-0.0012813905
122	0xba92a775	-0.0011188822
123	0x3a67b6e4	0.00088392035
124	0x3a96fab7	0.0011518811
125	0xba9c376b	-0.0011918371
126	0xba590ff9	-0.0008280273
127	0x3a78915d	0.000948211
128	0x39b00a59	0.00033577046
129	0xb90fb954	-0.00013706583
130	0x39ffe56c	0.00048808323
131	0xb9305916	-0.00016817855
132	0xb9ff875f	-0.0004873825
133	0xba030a81	-0.00049988186
134	0x39c91be8	0.000383585
135	0x3a4450fa	0.0007488873
136	0xba84a84d	-0.0010120958
137	0x3a98af22	0.0011648873
138	0xb9cf0771	-0.0003948766
139	0xb9aba457	-0.00032738104
140	0x3a9daa14	0.0012028837
141	0xbaaeae11	-0.0013327022
142	0x3a6644bf	0.00087840477
143	0xbaa0f7f2	-0.0012280925
144	0x3a83255f	0.0010005644
145	0xb9a3a5af	-0.00031213227
146	0xba3fd71a	-0.00073181244
147	0xba318fab	-0.00067734224
148	0x3a7643b6	0.0009394245
149	0xba994cc5	-0.0011695853
150	0xb8a984ed	-8.083307e-05
151	0x3abfe79d	0.001464117
152	0x3a7b7a32	0.00095930987
153	0xba6309e4	-0.00086608366
154	0x3a843e9a	0.0010089458
155	0x3a8cc1f6	0.0010738957
156	0x3a2bbf34	0.0006551624
157	0x3a7773b7	0.0009439545
158	0xba785797	-0.0009473501
159	0xba1c0147	-0.0005951118
160	0x3a32b597	0.000681722
161	0x3a7f595e	0.0009740795
162	0xb9339712	-0.00017127048
163	0xb8479d07	-4.759154e-05
164	0x3a2eb45c	0.0006664449
165	0xba4269e3	-0.0007416291
166	0xba2accd8	-0.00065155094
167	0x3aa7e594	0.0012809508
168	0x3aa672a5	0.0012698962
169	0x3a19fd12	0.0005874197
170	0xba43412f	-0.0007448373
171	0xba5e512b	-0.0008480723
172	0x3a08873d	0.00052081404
173	0xbaa7b426	-0.0012794777
174	0xba6649ae	-0.0008784783
175	0xba392988	-0.00070633786
176	0x3a0f84fb	0.0005474833
177	0xba79773d	-0.0009516364
178	0xba116dd3	-0.0005547676
179	0x3a823a2a	0.0009935547
180	0xba21c943	-0.0006171653
181	0xba08d81c	-0.0005220191
182	0xb9c43550	-0.00037423754
183	0xb97b1a75	-0.00023947081
184	0x3a8f64e7	0.0010940105
185	0x3a16f96c	0.00057592127
186	0xbabde271	-0.001448704
187	0xb95a850b	-0.00020839662
188	0xba9c357d	-0.0011917796
189	0xba74de79	-0.00093410123
190	0x3a2e2617	0.0006643249
191	0xb9b524c4	-0.00034550403
192	0x3a4fc105	0.00079251855
193	0x3aaa7b23	0.0013006668
194	0x39d5c35c	0.0004077208
195	0xb87cc0e1	-6.0261114e-05
196	0xba01fe61	-0.0004958865
197	0x3a9b0c6c	0.0011829264
198	0xbaa53a4a	-0.0012605872
199	0x39bb27b9	0.00035697015
200	0x39939681	0.0002815016
201	0x3a718e80	0.00092146546
202	0xba417302	-0.0007379503
203	0xbab67e5a	-0.0013923154
204	0x39c71be8	0.0003797703
205	0x3a2d45d1	0.000660983
206	0x37ad410b	2.0653495e-05
207	0xba1765eb	-0.000577538
208	0xba8cd78f	-0.0010745394
209	0xba5bf926	-0.0008391313
210	0x392afed6	0.00016307397
211	0x399f9119	0.0003043495
212	0x3a69eb7e	0.00089233357
213	0xba7145c4	-0.00092038163
214	0xba13839b	-0.0005627216
215	0x3a890527	0.0010453806
216	0xba78b69a	-0.0009487659
217	0x3a02ec79	0.00049943436
218	0xba93a279	-0.0011263631
219	0x3a6d347b	0.0009048653
220	0xba698d03	-0.0008909257
221	0xba8e09f6	-0.0010836709
222	0xba2d9ea6	-0.0006623067
223	0xb9ae44d0	-0.00033239136
224	0xba92fe70	-0.0011214744
225	0x36ac43ca	5.133891e-06
226	0x3a2d0d9e	0.00066014554
227	0x3a1031ed	0.00055006036
228	0xb8196171	-3.6568792e-05
229	0xb8c6ea1e	-9.4849835e-05
230	0xba94e4dd	-0.001135971
231	0x3a930888	0.0011217752
232	0xb92116d8	-0.00015362666
233	0x3a8a3f57	0.0010547441
234	0x3a781942	0.0009464213
235	0xb9ac814e	-0.00032902736
236	0x3a8583c2	0.0010186362
237	0x3a2a8b55	0.00065057474
238	0xba5b924b	-0.00083759864
239	0x398a4a3a	0.00026376714
240	0x3a221d13	0.0006184142
241	0x39b12118	0.00033784728
242	0xba924ade	-0.0011161228
243	0xb9e4ca25	-0.00043638158
244	0x3a171ba9	0.00057643146
245	0x3aa0c6f2	0.0012266322
246	0xbaa3901b	-0.001247886
247	0xba3750a8	-0.0006992915
248	0xb9b1266c	-0.00033788697
249	0xba56c64b	-0.0008193
250	0x3ab8f574	0.0014111237
251	0x3a00f8ff	0.0004919916
252	0xba5ceebe	-0.00084279093
253	0xbabc2c1d	-0.0014356409
254	0x3a2453a1	0.0006268565
255	0x39d00c99	0.00039682238
