lora_snapshots_kl_divergence/step_000410/base_model_model_model_layers_24_A_and_B.pt (torch, 77997 bytes, 2 tensors)

A f4 [1, 13824]
0	0xbc196fe0	-0.009365052
1	0xba9cf78d	-0.0011975631
2	0x3b95cf69	0.0045718444
3	0xba1f025e	-0.00060657214
4	0xba745f87	-0.0009322096
5	0xbbcc599b	-0.0062362677
6	0x3bf00904	0.0073252935
7	0xbbe9c1d0	-0.0071337
8	0x3a856f88	0.0010180334
9	0x3bfa476b	0.007637908
10	0xbb664608	-0.0035136957
11	0x3be834b6	0.0070863618
12	0x3bb06181	0.005382717
13	0xbbb04c47	-0.0053801867
14	0xbb2df441	-0.0026543292
15	0xbc39bd08	-0.0113365725
16	0x3c152c1a	0.009104753
17	0x3aea572e	0.0017878765
18	0xbb9b46e8	-0.0047386773
19	0x3be3c01e	0.0069503924
20	0xbb5bef51	-0.0033559392
21	0x3b1249c2	0.0022321795
22	0x3a9c4e71	0.0011925233
23	0x3baead54	0.005330721
24	0xbbed7959	-0.007247132
25	0xbc003078	-0.007824056
26	0xbc11ad94	-0.008891482
27	0x3bef6667	0.0073059085
28	0x3ba9a999	0.0051776883
29	0x3c2eb56c	0.0106633715
30	0x3a34e25d	0.0006900186
31	0xbb0f9598	-0.0021909233
32	0xbb8c4b20	-0.0042814165
33	0xbc0b3044	-0.008495394
34	0xbac786e1	-0.0015222692
35	0xbb71e8bb	-0.00369124
36	0xbaa2e1b0	-0.0012426879
37	0xbbdc941a	-0.0067315223
38	0xbc03ca60	-0.008043855
39	0xbb179b3d	-0.00231333
40	0xbc0d2239	-0.008614116
41	0x390f6fda	0.0001367921
42	0x3af2be94	0.0018519931
43	0x3bc251e0	0.0059301704
44	0x3bcc028f	0.006225891
45	0x3bd50167	0.0065004113
46	0xbbde5fe3	-0.006786333
47	0xbac68257	-0.0015145045
48	0xbbe0530d	-0.006845838
49	0x3a5a99cf	0.00083389593
50	0x3c08fdf5	0.008361329
51	0xbbd84c93	-0.0066009252
52	0x3b67e2ef	0.0035383066
53	0xbb88149e	-0.0041528484
54	0xbb9f0ee3	-0.0048540696
55	0xbabb980d	-0.0014312282
56	0xba120a2f	-0.00055709755
57	0xbc3e497c	-0.0116142
58	0xbbcc9cc5	-0.0062442743
59	0x3b29fc6a	0.0025937804
60	0xbb33143d	-0.0027325295
61	0x3bc1f671	0.0059192707
62	0x3b93015c	0.004486246
63	0x3ba58517	0.005051266
64	0x3afff1d0	0.0019527022
65	0xbc4834bb	-0.012219603
66	0x3baf7914	0.00535501
67	0x3b36517a	0.002781956
68	0x3b86099c	0.004090501
69	0xbbc3ad8a	-0.005971615
70	0x3bbf5149	0.0058385474
71	0xbbac2cfb	-0.0052543855
72	0x3c1b2bd3	0.009470898
73	0x3be6f2c1	0.0070479815
74	0x3b23af7d	0.0024976425
75	0x3b0cd9fc	0.0021492233
76	0xbbff55d2	-0.007792213
77	0x390999c1	0.00013122616
78	0x3aa55ba5	0.0012615813
79	0x396ead69	0.00022762049
80	0xbb4a69a1	-0.0030885714
81	0x3bf6c0af	0.007530294
82	0xbbcddd7b	-0.006282506
83	0x3b2bcaba	0.0026213364
84	0x3b960869	0.0045786393
85	0x3b018496	0.0019762865
86	0xbb51a0a0	-0.003198661
87	0x3b81f7e1	0.003966317
88	0x3a380efc	0.0007021276
89	0xba4df249	-0.00078562327
90	0xbbb0c1ad	-0.0053941817
91	0x3ae81570	0.0017706584
92	0xbb728dc1	-0.0037010761
93	0x3bb6c982	0.005578221
94	0x3b73df68	0.0037212018
95	0xbbc10120	-0.0058900267
96	0xba795944	-0.0009511898
97	0xbb8f801f	-0.004379287
98	0x3ac9ad63	0.0015386756
99	0x3bb04e95	0.0053804615
100	0x3baf4cc3	0.005349727
101	0x3b3201ae	0.0027161646
102	0xbaf30d05	-0.0018543309
103	0xbadc178e	-0.0016791688
104	0xbb5307e9	-0.003220076
105	0x3ba15fdc	0.0049247574
106	0x3b48297a	0.00305423
107	0xbc09ab05	-0.008402591
108	0x3c03e4a9	0.008050122
109	0x3c31fa57	0.010862908
110	0xbb37425a	-0.0027963133
111	0x3b86b743	0.004111202
112	0xbb824300	-0.003975272
113	0x3bd9b5ff	0.00664401
114	0xbb9f814a	-0.0048677074
115	0x3be10d7e	0.0068680635
116	0x3c0b3f21	0.008498938
117	0x3bcc79dd	0.006240113
118	0xbbcede44	-0.006313117
119	0x364ebecd	3.0807453e-06
120	0x3a781e61	0.0009464976
121	0xbb583bce	-0.003299463
122	0x39cade24	0.0003869395
123	0x3a8dcf51	0.0010819231
124	0x3c5cc97a	0.01347577
125	0x3ac0a6b5	0.001469812
126	0xbb9dff5a	-0.0048217
127	0xba85fe79	-0.0010222933
128	0x3b3f7428	0.0029213522
129	0x3c304559	0.010758721
130	0xbbd0d107	-0.0063725743
131	0xbbb53db2	-0.0055310363
132	0xbbfeaec4	-0.0077722985
133	0x3b078fe7	0.0020685138
134	0xbba25c0d	-0.004954821
135	0x3c00ee87	0.007869369
136	0xbb5f8225	-0.0034104672
137	0x3b68483d	0.0035443448
138	0xba4b142d	-0.0007746842
139	0xbabb22ad	-0.0014277302
140	0x3b5d59cd	0.003377545
141	0x3bffbf45	0.0078047835
142	0xbbcea4c0	-0.006306261
143	0x3be55d56	0.006999652
144	0xbba6eb5d	-0.0050939755
145	0xbaa90a08	-0.0012896666
146	0x38f812fe	0.00011829099
147	0x3c1fe3ae	0.009758873
148	0xba35f648	-0.0006941301
149	0x3b109afa	0.002206503
150	0x3bc8a4af	0.0061231474
151	0x3b87d45f	0.0041451897
152	0x3b3eb3a4	0.0029098773
153	0xbbb0fdf0	-0.0054013655
154	0xbbf2ac92	-0.007405826
155	0xbb90453c	-0.0044027846
156	0x3b7c2591	0.003847454
157	0x3b10465c	0.0022014594
158	0x3b96f0a4	0.0046063233
159	0xbc09b19a	-0.00840416
160	0x3ba6e721	0.0050934707
161	0xbb9b4133	-0.004737997
162	0xbc2321e0	-0.009956807
163	0x39f94e62	0.0004755138
164	0xbb6ed9de	-0.0036445777
165	0xbc049d91	-0.008094207
166	0x3b080c39	0.0020759238
167	0x3b1613f8	0.0022900086
168	0xbbf6a66d	-0.0075271637
169	0xbab15b13	-0.001353117
170	0x3b75dab8	0.00375144
171	0x3c09cdf8	0.008410923
172	0xbbd47eb5	-0.006484831
173	0xbb060037	-0.0020446905
174	0xbb8a23b8	-0.004215684
175	0xbc186792	-0.009302037
176	0xbab716a7	-0.0013968543
177	0x3b84f382	0.0040573487
178	0x3bf1faf1	0.007384651
179	0xba853af8	-0.0010164669
180	0xbb41944b	-0.0029537852
181	0xbb651c74	-0.0034959586
182	0xbb0d1b65	-0.002153122
183	0x3ba82185	0.005130949
184	0x3be3d36e	0.0069526946
185	0xbba40f7a	-0.0050067278
186	0xbc223da8	-0.009902395
187	0x3a27ce30	0.0006401269
188	0xba819a03	-0.0009887818
189	0x3a9b5b16	0.0011852707
190	0x3bfe9281	0.0077689295
191	0xbb19431a	-0.0023385943
192	0xbb9440c4	-0.004524322
193	0xbb166530	-0.0022948496
194	0x3aed5bad	0.0018108987
195	0x3b1846f0	0.0023235641
196	0xbb17f405	-0.0023186218
197	0xbbd73c9f	-0.006568506
198	0x3b98047d	0.004639207
199	0xbbca79c3	-0.006179066
200	0x3bdc94a7	0.006731588
201	0x3b70ae04	0.0036724815
202	0x38b8ab08	8.805661e-05
203	0x3bee26e0	0.007267818
204	0xbb7747c5	-0.0037731987
205	0xb9df2d53	-0.00042567644
206	0xbb8fa78f	-0.004383988
207	0xbc07d9a4	-0.008291636
208	0x3c15bc88	0.009139188
209	0x3b9aade3	0.004720436
210	0xb9c3cf15	-0.00037347586
211	0x3c0ab565	0.008466099
212	0x3b398bb3	0.0028312027
213	0x3c1cff7b	0.009582396
214	0xbb02d2b0	-0.0019962005
215	0x3b0924d4	0.0020926492
216	0x3b92344a	0.0044617997
217	0x3b1b2946	0.0023675724
218	0x3c068948	0.008211441
219	0xbc06ddcf	-0.008231594
220	0xba8e9880	-0.0010879189
221	0xbb774159	-0.003772816
222	0x3c244cff	0.010028123
223	0xbb127fbb	-0.0022353965
224	0x3a852d3e	0.0010160578
225	0x3be378b3	0.0069418787
226	0x3ba0bc20	0.0049052387
227	0xbb4bbe1a	-0.003108865
228	0x3b83f867	0.0040274146
229	0x3c26f89e	0.010191111
230	0xbae2ba01	-0.0017297865
231	0x3bbf5a48	0.00583962
232	0xbc0e19a8	-0.008673109
233	0x3b27ba83	0.0025593347
234	0x3c31184b	0.010809015
235	0x3aee209d	0.0018167678
236	0x3b3c46ed	0.0028728798
237	0x3b97d13c	0.004633097
238	0xbae56b15	-0.0017503226
239	0xbb4716a1	-0.0030378478
240	0x3c0b210a	0.008491764
241	0xbbad4f29	-0.0052889776
242	0x3bab7c90	0.005233355
243	0x3bb38995	0.0054790475
244	0xbb71258c	-0.0036796061
245	0xbbe28cd6	-0.0069137616
246	0x3ac1a7e9	0.0014774773
247	0x3c00ef38	0.007869534
248	0xbb4c97f6	-0.0031218505
249	0x3bc678e1	0.0060568904
250	0x3ba872c2	0.0051406333
251	0x3b713ceb	0.0036809992
252	0x3bbfc69c	0.0058525335
253	0xbbbe3007	-0.005804065
254	0x3b67200c	0.0035266904
255	0xbb952c86	-0.0045524267

B f4 [5120, 1]
0	0xbaee793d	-0.0018194091
1	0xba6c9562	-0.00090249453
2	0xbac40cee	-0.0014957467
3	0x3ac0be7d	0.0014705207
4	0xba9558f7	-0.0011394311
5	0xba8d9b07	-0.0010803648
6	0x3aecb1aa	0.0018058319
7	0xba96b6ac	-0.0011498532
8	0x3a5f0aa1	0.0008508359
9	0x3b0de03a	0.0021648542
10	0xbab6dd6a	-0.0013951485
11	0x3749fead	1.203983e-05
12	0xba80f775	-0.0009839373
13	0x3a475cb6	0.00076050626
14	0x3a3eb8f8	0.00072754873
15	0x3a8cdeff	0.001074761
16	0x3a42762c	0.00074181217
17	0xba8165c8	-0.0009872252
18	0xba3b819d	-0.0007152798
19	0x3aa89849	0.0012862767
20	0xbab1081f	-0.0013506449
21	0xb9f50bc6	-0.00046738813
22	0xba205124	-0.00061156065
23	0xb9839644	-0.00025098224
24	0xbb0fd609	-0.0021947643
25	0x3a830832	0.0009996949
26	0x3b060423	0.0020449243
27	0x3a04c22c	0.0005064334
28	0x3b18a6f6	0.0023292876
29	0x39126b65	0.00013963653
30	0xbaf81229	-0.0018926311
31	0x3920e417	0.00015343759
32	0x3a311df5	0.0006756478
33	0xb9643b2d	-0.00021765819
34	0xb7dd7644	-2.6400325e-05
35	0xb831f062	-4.2423962e-05
36	0x3aa279af	0.0012395884
37	0x3a0ae80c	0.000529886
38	0xbad86a39	-0.0016511149
39	0xba3870a6	-0.0007035829
40	0xbb227e2e	-0.0024794447
41	0xbaafc9b2	-0.001341155
42	0x3b1305ac	0.00224338
43	0xb7e5a9b5	-2.7377953e-05
44	0xbaa69dba	-0.0012711801
45	0x3adb7db0	0.0016745832
46	0xbb061b06	-0.0020462885
47	0x3a3f84de	0.00073058705
48	0x3b0edb4b	0.002179819
49	0xba8cbda6	-0.0010737672
50	0x387dc907	6.050712e-05
51	0x3a26fd7b	0.0006370169
52	0x3a04e4de	0.0005069504
53	0x3a4c0443	0.00077826175
54	0xba5c1f5c	-0.0008397007
55	0x3a5877e1	0.00082576094
56	0x3aa193bd	0.0012327355
57	0x3a701eed	0.0009159882
58	0xba0fd0fc	-0.0005486158
59	0xb9f14e28	-0.00046025333
60	0x3ade838a	0.0016976458
61	0xba29a885	-0.000647195
62	0x3b102724	0.0021995986
63	0xb93a61d4	-0.00017774786
64	0x3a848a90	0.0010112096
65	0x3825e2e3	3.955037e-05
66	0xbad47f88	-0.0016212324
67	0x3b399d65	0.0028322574
68	0x3ae9fa68	0.0017851116
69	0xb8836b0c	-6.266506e-05
70	0x38cf45b9	9.883516e-05
71	0x3b8623a0	0.0040936023
72	0xbb073e01	-0.0020636322
73	0x3a145f0a	0.0005659914
74	0x3a0fda4b	0.0005487545
75	0x38d5536f	0.00010172172
76	0xba66b524	-0.0008800796
77	0xbaa3f8d1	-0.0012510066
78	0x3a31e0f8	0.0006785537
79	0xba86f15f	-0.0010295323
80	0x38b7ed03	8.770267e-05
81	0x3adcc15c	0.0016842294
82	0x3b29bf26	0.0025901287
83	0xbad19d28	-0.0015992271
84	0xba5305dc	-0.00080498843
85	0xba8f7bbf	-0.0010946913
86	0x3af523b8	0.0018702662
87	0x3a2239bc	0.00061884127
88	0xb8de2c11	-0.00010593993
89	0x3a43a864	0.0007463752
90	0x3a1c74eb	0.000596835
91	0xba82e2ae	-0.0009985769
92	0x3a2a10ec	0.0006487507
93	0x3b2474bd	0.0025093996
94	0xba292bc4	-0.000645336
95	0xbb093f4b	-0.0020942267
96	0x3aa36f00	0.0012468994
97	0xba88a417	-0.0010424879
98	0xba248d9d	-0.00062772055
99	0xbaaa46ca	-0.0012991067
100	0xbac7a10b	-0.001523049
101	0xbb4527f5	-0.003008363
102	0xba057cbd	-0.0005092135
103	0xba63e52c	-0.0008693512
104	0xb8854928	-6.3555606e-05
105	0xba7ec7c3	-0.0009719098
106	0xba21b6b6	-0.00061688886
107	0xba8fcd97	-0.0010971305
108	0xb99a756c	-0.00029460655
109	0xb994cd5c	-0.00028381764
110	0x3b5ca8c7	0.0033669935
111	0xb87b66f8	-5.993896e-05
112	0x3a4fe393	0.00079303345
113	0xba15a433	-0.00057083665
114	0xba77a798	-0.00094472757
115	0x39c55e78	0.00037645153
116	0xba55cf5e	-0.00081562053
117	0xb99abecd	-0.00029515327
118	0x3a578828	0.0008221888
119	0x39a555df	0.0003153523
120	0x3a96d418	0.0011507301
121	0x3b03ec95	0.0020130028
122	0xbaf39b6a	-0.0018585746
123	0x3afa9564	0.0019118008
124	0xbac65dd4	-0.0015134164
125	0xb9849712	-0.00025289558
126	0x3af2d88c	0.0018527671
127	0xba11a1d9	-0.0005555428
128	0xba938d28	-0.0011257278
129	0xba76e482	-0.00094182056
130	0xba7f1444	-0.0009730498
131	0x3b1559f2	0.0022789207
132	0x3b2f6335	0.0026762013
133	0xbb1d1fcb	-0.002397525
134	0xb94da2b1	-0.00019610931
135	0xb9cc61e5	-0.0003898285
136	0xb8af0581	-8.3456755e-05
137	0xbaedb9be	-0.001813702
138	0xb9fa128f	-0.00047697543
139	0xbb18d292	-0.002331887
140	0xbac5e0aa	-0.0015096862
141	0x3a8b3ab0	0.0010622349
142	0x3a489485	0.00076515257
143	0x3a21d904	0.00061740004
144	0xbb0cabbe	-0.002146467
145	0xb79ef367	-1.894841e-05
146	0x3accf9b6	0.0015638385
147	0xba0bb722	-0.0005329718
148	0xb9cd5bc8	-0.0003916903
149	0x3a8cfcd9	0.0010756507
150	0xbae318f2	-0.001732616
151	0xbaad15e3	-0.0013205375
152	0xba68a803	-0.00088751334
153	0x3a8ca991	0.0010731687
154	0xba71bc6c	-0.00092214975
155	0xb9478f5a	-0.00019031522
156	0x39bc2a0c	0.00035889482
157	0xba46ebaa	-0.0007588217
158	0x37e0fdd3	2.6821077e-05
159	0x3ab688ac	0.001392623
160	0xbb2aa708	-0.00260395
161	0x3adfcf12	0.0017075262
162	0xb9aa3006	-0.00032460707
163	0xba562acf	-0.0008169831
164	0x3a3c3216	0.0007179094
165	0xbb006539	-0.0019591583
166	0xba3415a2	-0.00068696786
167	0xb9b0c9c5	-0.00033719666
168	0xbb10fc53	-0.0022123053
169	0xb997419f	-0.00028849856
170	0x39905787	0.00027531033
171	0xba67f45d	-0.00088483637
172	0x3a1c7c8d	0.0005969487
173	0xb9730fdb	-0.00023180193
174	0x3a7265c2	0.00092467305
175	0x3a5f94b2	0.0008528932
176	0xbabc5425	-0.0014368339
177	0xba1c0dab	-0.00059529644
178	0x3b1584e8	0.0022814814
179	0x38f259fd	0.00011556221
180	0xb9c4d2e1	-0.0003754115
181	0x39f6813b	0.0004701706
182	0x3ace65f4	0.0015746937
183	0x3a19e58b	0.00058706914
184	0x39d4078e	0.0004044142
185	0xba89b6e6	-0.0010506778
186	0x3a0f214c	0.0005459979
187	0x3a6ebcfc	0.00091071404
188	0x382fc62c	4.1907813e-05
189	0x3a3a155e	0.0007098521
190	0xbaedad0c	-0.0018133237
191	0x3a432d15	0.00074453774
192	0xbb15aa2d	-0.0022837028
193	0xb9df1938	-0.00042552664
194	0xbb0e3b9e	-0.0021703015
195	0x3a14005a	0.00056458043
196	0x39fa02fd	0.00047685942
197	0x39834208	0.00025035464
198	0xb96a41a9	-0.0002234044
199	0x3b1b2358	0.002367219
200	0xba44d110	-0.00075079594
201	0xbad7f866	-0.0016477227
202	0x3ae328e6	0.0017330914
203	0x3a629359	0.00086431723
204	0x39996180	0.00029255077
205	0xba891c31	-0.0010460672
206	0x3ad32ead	0.0016111933
207	0x39eada60	0.0004479466
208	0x3b6a0537	0.0035708675
209	0xb9e0adde	-0.0004285415
210	0x3906a063	0.00012838985
211	0x3b106354	0.002203186
212	0xba14ccb1	-0.00056762533
213	0x3b63ced1	0.0034760723
214	0xba08e64d	-0.0005222306
215	0x39451c90	0.00018798024
216	0xba5c9e4c	-0.0008415922
217	0x39ebd716	0.00044982944
218	0x3a317685	0.0006769675
219	0x37fc4464	3.0072588e-05
220	0x39b9000d	0.00035285988
221	0x3b1e9052	0.0024194908
222	0xbac0f22b	-0.0014720609
223	0x3a9df55e	0.0012051275
224	0x3a8658ce	0.0010249855
225	0xbb35a234	-0.0027715089
226	0x39dd45b9	0.00042204352
227	0x3985d504	0.00025526446
228	0xb8f70c85	-0.0001178021
229	0xbab607dc	-0.001388784
230	0xb9e3cb44	-0.0004344826
231	0xbac5cb9a	-0.0015090585
232	0xba40c88c	-0.00073541026
233	0xb990862b	-0.00027565783
234	0x390e8aa4	0.00013593823
235	0x3a2886b0	0.00064287614
236	0xbb587258	-0.0033027139
237	0x3a30ff29	0.0006751889
238	0x3a9eee84	0.0012125527
239	0x3a49e8d4	0.00077022356
240	0xb9fa971a	-0.00047796295
241	0xba799c72	-0.00095219084
242	0x3a662dd0	0.00087806303
243	0x3a55586c	0.0008138481
244	0x3b2c9e86	0.0026339605
245	0xba449259	-0.0007498614
246	0xbacdff6e	-0.0015716383
247	0x3a33c7ab	0.0006858061
248	0x39e6bb4d	0.00044008569
249	0x3a5e25e4	0.0008474274
250	0xbaac9b5c	-0.0013168859
251	0xbb270705	-0.0025486362
252	0x3af4ca9b	0.0018676104
253	0x3b007251	0.0019599388
254	0x39a5fe23	0.000316606
255	0xba82e278	-0.0009985706
