js_code/data/steered_with_inoc_vector_coef_1/checkpoints/checkpoint-372/adapter_model.safetensors (safetensors, 76064 bytes, 2 tensors)

base_model.model.model.layers.24.mlp.down_proj.lora_A.weight f4 [1, 13824]
000000 fa 3b 85 bb 2b ab 89 bb 29 45 1c 3c 9b 12 8b 3b
       -0.0040659877 -0.004201313 0.009537973 0.0042441613
000010 ba a7 09 bc 71 13 0f bc ea 1e fa 3a 35 12 27 bb
       -0.008401806 -0.008732663 0.00190827 -0.002549303
000020 ef e9 b5 39 9d 91 d7 ba 65 9f 1a bb 21 5e 09 3c
       0.00034697304 -0.0016446594 -0.0023593542 0.0083842585
000030 01 58 e4 3a f2 22 83 3a a8 0e 01 bc 81 c9 29 bb
       0.0017421247 0.0010004921 -0.0078770295 -0.002590746
000040 f3 12 36 3b e1 34 70 3b 8a 6e 9e 39 98 dd f7 bb
       0.002778229 0.0036652612 0.00030218466 -0.007564258
000050 bd 69 be bb 87 32 1d 3c fb 4d fd 3b c8 07 bd 3b
       -0.005810945 0.009594566 0.0077302433 0.00576875
000060 38 e3 bc bb 9f 09 bc bb 62 0b 29 3b b8 67 08 bc
       -0.0057643913 -0.0057384516 0.0025794138 -0.00832551
000070 a9 14 fb b7 a7 b6 64 3b 69 12 9b 3b 7d b1 b0 3b
       -2.9931152e-05 0.0034898908 0.0047324193 0.005392252
000080 7e 2e e4 3a f7 14 91 3b 45 6b 22 bc b7 0a b6 bb
       0.0017408875 0.004427548 -0.00991327 -0.0055554765
000090 4c 9a 7e bb 6a cc c8 3b 17 0c f8 bb b6 f8 b5 3b
       -0.0038849292 0.0061278837 -0.0075698006 0.0055533303
0000a0 cc 6b c1 bb f2 b2 70 bb 39 1c 9f 3b e9 ee fa 3b
       -0.005902743 -0.0036727753 0.0048556593 0.007657875
0000b0 9f f7 25 3b f9 84 80 bb 12 fd e1 3b b1 c6 65 3a
       0.0025324596 -0.0039221016 0.0068966234 0.0008765264
0000c0 82 79 d7 3b ea b8 6b 3b fa 80 b8 ba e3 7f d6 3b
       0.006575764 0.0035968372 -0.0014076524 0.006546007
0000d0 e1 a3 a3 3b f0 8a e0 3b 64 49 15 3c cc 93 35 3b
       0.004993901 0.0068525 0.009111736 0.0027706502
0000e0 e7 bb ac bb ba b5 89 ba b9 d5 79 b9 d6 91 dd ba
       -0.005271423 -0.0010506429 -0.00023826108 -0.0016904424
0000f0 51 66 8c b9 cf bb 20 3c f4 12 83 3b 0b fd 68 3b
       -0.00026779113 0.009810402 0.004000062 0.0035551216
000100 2b 00 ba 3b 8b 7f 9a bb 10 ac 99 3b 69 0d cc 3b
       0.0056762896 -0.0047149113 0.004689701 0.0062271846
000110 9e a8 e6 3a dc bd e0 39 c6 f2 03 3c 58 e1 05 bc
       0.0017597859 0.00042866066 0.008053487 -0.008171402
000120 e1 9c a8 3b 10 0e d5 b9 17 2d d0 bb 2d 82 c2 3b
       0.0051456545 -0.00040637003 -0.0063530314 0.0059359283
000130 cc e9 41 bb 3a f7 11 ba 7b f8 1e bb a0 77 81 bb
       -0.0029588817 -0.00055681507 -0.0024256993 -0.003951028
000140 d7 b5 2d bb 16 2c 1d bc 63 92 b0 3b df eb a0 3a
       -0.002650609 -0.00959303 0.0053885444 0.0012277326
000150 d4 12 07 3b 4e 45 16 3c 43 c0 42 bb f2 89 84 bb
       0.0020610588 0.009171797 -0.0029716648 -0.0040447647
000160 e8 3c 90 bb 2c 81 0a bb 33 9b 84 b9 85 4b 6e 3b
       -0.004401792 -0.0021134121 -0.00025292634 0.003636093
000170 9f cd f8 b9 dc bd 24 3b 1b 25 b0 bb 06 da 01 bc
       -0.00047455446 0.002513758 -0.005375517 -0.007925516
000180 ae bb 42 ba f5 c1 69 3a a0 a9 aa bb 50 1f 00 bb
       -0.0007428479 0.00089171465 -0.005208209 -0.0019549914
000190 a3 b1 30 bb 24 09 0e bc 45 d2 14 3c c9 ec 9c 3b
       -0.0026961348 -0.0086691715 0.009083335 0.004788969
0001a0 10 47 bb bb a0 56 e5 bb 84 d2 05 3c 87 2b c3 3b
       -0.0057152584 -0.006998852 0.008167867 0.0059561166
0001b0 38 1b d1 bb 6a 30 40 3b 15 9b df bb 20 15 e9 bb
       -0.0063814186 0.0029325732 -0.006823907 -0.007113114
0001c0 fd b8 f7 bb 37 2b bc 3a 9b 27 f4 3b 6f d8 a7 3b
       -0.007559894 0.0014356141 0.0074510104 0.0051222364
0001d0 c5 a6 e5 bb 3d c7 b7 3b dc 0f 10 3c 47 7d a1 3b
       -0.007008406 0.005608468 0.008792844 0.0049282643
0001e0 a2 51 e4 3b ea ec cd bb dc fe 47 bb c4 74 bd 3b
       0.006967739 -0.006284346 -0.0030516898 0.005781742
0001f0 16 d6 04 bc 1b 79 a0 ba 7d 1f a1 3b df 27 66 3b
       -0.008107683 -0.0012243123 0.004917084 0.003511898
000200 0e 52 69 bb 53 5e dd 3a cd 8c a7 bb 76 c0 6d bb
       -0.0035601887 0.0016889073 -0.0051132203 -0.0036278046
000210 c8 ee d7 3a 0c 7b 47 bb 73 21 94 3b e5 a0 9f 3b
       0.0016474361 -0.0030438332 0.004520589 0.004871475
000220 ab 7d 81 3b b9 94 ec 3b e0 e1 5e 3a e2 7e f3 ba
       0.0039517484 0.0072198776 0.0008502286 -0.0018577243
000230 ba 80 03 bc 9d 18 b9 ba cb c8 c4 bb bf ad 63 3b
       -0.008026296 -0.0014121715 -0.0060053817 0.0034741012
000240 68 e1 15 ba 67 4b a3 bb 69 b5 3f 3a 3d bb b6 3b
       -0.0005717487 -0.004983354 0.0007313104 0.0055765198
000250 3c ea 27 bb dc 43 27 3b e6 b3 09 ba 9f 96 c9 ba
       -0.0025621792 0.0025522625 -0.0005252942 -0.0015379972
000260 2b 24 ab ba d1 57 f6 3a c1 93 c1 ba a9 fc b2 bb
       -0.0013057044 0.0018794482 -0.0014768766 -0.0054622483
000270 cf 51 5d 3b 81 cd c7 bb 1c e8 b6 bb 7a df c3 3a
       0.0033770686 -0.006097496 -0.005581869 0.001494392
000280 ae f5 42 3b 55 93 67 bb fa 81 79 bb 94 65 a6 3b
       0.0029748487 -0.003533562 -0.0038071857 0.005078027
000290 5a 82 7e bb 76 35 87 3a dc c5 b4 3a 14 22 86 3a
       -0.003883502 0.0010315615 0.0013791877 0.0010233545
0002a0 27 ff 67 bb 1a 5b fd b8 89 f6 51 bb dc 0f e1 3b
       -0.0035399885 -0.00012080949 -0.0032037816 0.0068683457
0002b0 8c c1 80 3a ae d0 9a bb e2 af be bb 81 9b 11 3b
       0.0009823306 -0.0047245836 -0.0058193067 0.0022217932
0002c0 14 ec 91 bb a3 7b 39 3b 3e 12 cc 3a 5b 75 06 bc
       -0.0044531915 0.0028302453 0.0015569401 -0.008206691
0002d0 ea 7a d2 3b d7 b0 ec 3a 88 c2 e1 3a 7f 6c 70 bb
       0.006423344 0.0018058073 0.0017224113 -0.0036685762
0002e0 06 64 12 bc bd 2c 24 3b 7b 0e fe bb 99 44 38 3b
       -0.00893498 0.002505108 -0.007753191 0.002811706
0002f0 83 c2 c5 3b 6f d4 c5 38 fd 87 c0 bb 87 d3 bf 3b
       0.0060351505 9.433261e-05 -0.005875586 0.0058540734
000300 5e f4 eb bb 1d 53 11 bb 40 ec f2 bb 0c f7 22 3b
       -0.0072007617 -0.0022174784 -0.007413417 0.002486649
000310 17 97 0e 3c 68 bf d6 bb 28 c3 cd bb 06 8d b8 3b
       0.008703015 -0.006553579 -0.006279368 0.0056320457
000320 4e 16 c0 3b 21 5a 89 3b b1 74 a5 bb 6c ab 0c 3c
       0.005862034 0.0041916524 -0.005049311 0.008585792
000330 44 d3 f9 ba 36 d1 6f bb d8 58 fe ba 35 60 cd 3a
       -0.0019060154 -0.0036593205 -0.001940514 0.0015668931
000340 d8 04 79 3b 77 f8 40 bb bd 5e 90 bb 88 24 3c b7
       0.0037997272 -0.0029444972 -0.004405825 -1.1214179e-05
000350 2d cb 0c bc f1 fa ff bb 1b ba a1 39 72 4c c3 3b
       -0.008593363 -0.007811897 0.00030846972 0.0059600407
000360 ac 28 a9 bb 35 3f 6c 3b 33 9d 8c bb 52 b7 d7 ba
       -0.005162319 0.0036048417 -0.0042912005 -0.0016457832
000370 f9 62 e8 3b 3d 78 6e 3a 19 f7 9f bb 02 fa a3 bb
       0.0070918766 0.00090968964 -0.0048817513 -0.0050041685
000380 84 8e d0 3a 79 f9 88 3b 2d b4 ab 3b 19 f2 fb 3a
       0.0015911614 0.00418013 0.0052399845 0.0019221931
000390 70 38 a9 bb 2f 5c 9a 3b d2 6c 07 bc 9b bd 22 39
       -0.0051641986 0.004710696 -0.008265691 0.00015520157
0003a0 75 f4 ff bb cc 89 2c bb 95 f7 98 3a ae ca bc 3b
       -0.007811124 -0.002632725 0.0011670465 0.005761466
0003b0 3a 23 64 3a 72 cc 80 bb 46 81 a9 3b 3d 24 a5 3a
       0.0008702759 -0.003930622 0.0051728813 0.0012599301
0003c0 c9 fe d4 bb 00 0c 0c bc 5e 6e 34 39 48 23 6b bb
       -0.0065000993 -0.008547783 0.00017207253 -0.0035879184
0003d0 50 ea fc ba 84 1f c7 bb 2f fe ae bb e9 2f 92 bb
       -0.0019295905 -0.006076755 -0.0053403596 -0.0044612777
0003e0 ed 45 f8 38 ee 3e 4a 39 90 cb 94 3b 1f 08 05 bc
       0.00011838586 0.00019287664 0.004540868 -0.008119612
0003f0 7c db ce 3b 72 16 ed 3b 2b 89 0d bc 74 fa 8b 3b
       0.0063127857 0.0072353417 -0.00863866 0.0042717997

base_model.model.model.layers.24.mlp.down_proj.lora_B.weight f4 [5120, 1]
000000 71 35 56 3a 42 09 33 ba 70 80 1b b9 a9 ca 8c ba
       0.00081714155 -0.00068296876 -0.00014829799 -0.001074155
000010 1c e5 79 3a 06 fc a8 3a 10 76 8e ba 53 9a bb b8
       0.0009532736 0.0012892492 -0.0010868926 -8.9456e-05
000020 05 13 61 3a f2 2b 4a ba bb 3f 14 3a d0 bb 6a 3a
       0.0008585903 -0.0007712237 0.00056552485 0.0008954378
000030 90 9f 86 3a f2 b3 0f ba ad 5f 62 ba fa 53 7e ba
       0.0010270942 -0.0005481831 -0.00086354726 -0.00097018445
000040 41 1b 25 3a 27 2d 09 3a f7 59 6f ba 4b f4 dc b9
       0.00062983116 0.00052328635 -0.0009130532 -0.00042143682
000050 09 61 e2 39 17 b4 69 3a d6 73 89 3a 91 bd 9f ba
       0.00043178376 0.000891508 0.0010486792 -0.0012187232
000060 dd 7d 1f 3a 3b 4c ab 39 0b 02 ac 3a 5c 45 40 3a
       0.0006084124 0.00032672458 0.0013123167 0.0007334554
000070 6e ef be b9 fa 28 cd b8 64 69 81 39 e6 e8 4d ba
       -0.00036418013 -9.782794e-05 0.0002468332 -0.0007854834
000080 08 23 58 ba 7e 71 c9 39 3e 29 5b 3a b2 e9 af ba
       -0.0008244966 0.00038422266 0.00083603326 -0.0013421087
000090 4c 99 d5 b9 41 9f 45 b9 2a 0d e4 3a ba 9d cf b9
       -0.0004074074 -0.00018846711 0.0017398943 -0.00039599632
0000a0 87 3c 99 39 6f 64 52 38 70 ab 51 3a 2b 29 84 b9
       0.0002922753 5.0161438e-05 0.00079982635 -0.00025207674
0000b0 f7 bc 8b ba f7 fc 5f ba 86 23 9a 3a 30 5b 93 39
       -0.0010661174 -0.00085444696 0.0011759854 0.00028105965
0000c0 f6 57 20 3a bb 37 c3 b9 66 83 43 ba 9b 04 0c 3a
       0.0006116623 -0.0003723482 -0.00074582396 0.00053412624
0000d0 b5 83 3a b9 1b fe 64 3a 7f 7f 5a 3a 55 07 7a ba
       -0.00017787407 0.00087353744 0.00083350384 -0.0009537836
0000e0 f9 e6 6e ba 0d a1 bd ba cf 20 50 3a df 80 0e 39
       -0.0009113397 -0.0014467553 0.0007939459 0.00013590184
0000f0 e4 5c d4 b9 a0 90 10 ba c5 25 8b b9 a1 66 49 b9
       -0.00040505 -0.0005514715 -0.00026540286 -0.00019207086
000100 02 67 b0 3a 29 0a d3 b9 c1 19 0f b9 85 65 b8 b9
       0.0013458433 -0.00040252626 -0.00013647137 -0.00035170853
000110 28 58 90 ba 72 39 39 39 3b 9d 22 ba 40 0c c4 39
       -0.0011012601 0.00017664375 -0.0006203239 0.0003739316
000120 43 af db 3a 76 77 21 b9 d8 d4 92 38 af eb 30 3a
       0.0016760606 -0.00015398659 7.001468e-05 0.0006748987
000130 c3 96 7b 3a a6 8b 00 3a d4 fd ba b7 89 35 2c 3a
       0.00095973554 0.0004903622 -2.2291126e-05 0.00065692567
000140 55 f7 a0 3a 0b 08 87 ba ea 8d a4 ba 43 a3 16 3a
       0.0012280742 -0.001030208 -0.0012554501 0.0005746374
000150 4b 13 fd b8 84 ba 40 3a 10 e5 85 ba 7b 95 a8 ba
       -0.00012067574 0.0007352012 -0.0010215361 -0.0012861931
000160 15 ff 37 39 a0 01 91 ba e3 e4 39 ba bf af 63 ba
       0.00017547265 -0.0011063106 -0.0007091297 -0.0008685551
000170 b8 b8 56 3a aa 7e b8 ba 8b fa 84 b9 8c 59 48 3a
       0.00081909774 -0.0014075835 -0.0002536367 0.0007642738
000180 64 8f d4 ba 79 ed 22 3a 5f 54 fa 39 75 30 a6 3a
       -0.001621705 0.0006215196 0.00047746577 0.0012679236
000190 39 91 51 39 e5 72 8a 3a 3b 03 42 3a 4f c1 2e ba
       0.00019985893 0.0010562806 0.0007400994 -0.00066663785
0001a0 3d 45 45 3a bb 7f 00 3a 5c b9 d1 39 65 c9 8b ba
       0.0007525271 0.0004901846 0.0004000169 -0.0010664879
0001b0 df 3b 9c b9 fb 7b 2b ba f0 8b 77 3a 68 d3 bd 3a
       -0.00029799246 -0.0006541607 0.00094431546 0.001448256
0001c0 1f c4 53 b9 0c fe 25 ba 5e c2 40 3a 30 36 a5 39
       -0.00020195589 -0.00063321064 0.0007353182 0.00031511625
0001d0 77 f9 62 ba 04 ed d5 3a 18 50 42 3a 47 fa 5d 3a
       -0.0008658389 0.0016321247 0.00074124476 0.0008467775
0001e0 64 cd 10 ba b1 d0 5d ba 15 1b cb ba 29 f5 67 3a
       -0.00055237697 -0.00084615784 -0.0015495742 0.00088484824
0001f0 8b 07 09 3a 0b e0 32 ba aa e1 a1 ba b4 b8 70 39
       0.0005227259 -0.0006823546 -0.0012350578 0.00022956991
000200 2c 2c 02 3a ac 52 40 39 2e 7d 31 3a da c9 82 ba
       0.00049656886 0.00018341345 0.00067706674 -0.0009978369
000210 c5 61 7b b9 77 f2 86 b9 a3 33 52 3a 60 2c 9b 3a
       -0.00023973647 -0.00025739122 0.0008018559 0.0011838786
000220 91 c7 72 ba 4f 9b e3 3a df 13 d4 39 ca ea 6c ba
       -0.0009261305 0.0017365011 0.00040450596 -0.0009037672
000230 0d 0d ed 39 68 b2 75 ba 80 99 1f 39 7e 7c 78 ba
       0.00045213886 -0.0009372593 0.00015220605 -0.0009479
000240 f6 2f a2 39 c4 c1 ea b9 84 2c 8a ba c5 c4 cc ba
       0.00030934782 -0.00044776325 -0.0010541831 -0.0015622607
000250 10 7a 7c 3a a7 38 60 ba 79 1c 13 3a a3 34 05 3a
       0.0009631226 -0.0008553364 0.0005611848 0.0005081391
000260 b9 b4 9f 3a 99 0d f9 ba 9a eb 88 3a 5b 43 4d 3a
       0.0012184597 -0.0019001245 0.0010446191 0.0007830166
000270 1b e1 c4 b9 d1 2c 52 3a 7f 6e 42 ba ab 25 c4 3a
       -0.0003755175 0.00080175424 -0.0007416978 0.0014964839
000280 3d b2 32 b8 ea 0e 4e 3a 19 4f 01 b9 64 be 9d b9
       -4.2604504e-05 0.0007860499 -0.00012331865 -0.00030087226
000290 1b a8 ea 39 81 1e 0e ba d2 a9 42 ba 61 39 7d 3a
       0.00044757206 -0.00054214156 -0.0007425818 0.0009659734
0002a0 d6 8a b0 39 be 04 4c 3a c1 02 9c 39 0f e6 5c 3a
       0.00033672777 0.0007782689 0.0002975669 0.00084266154
0002b0 55 a7 22 ba b1 c4 94 ba a4 40 db ba f8 d0 8f b9
       -0.0006204744 -0.0011350123 -0.0016727638 -0.0002743078
0002c0 d8 0a 12 3a b0 81 e8 b8 76 20 52 ba d6 0c ee 39
       0.0005571074 -0.00011086778 -0.00080157013 0.0004540446
0002d0 4c 1f 9a ba 98 af ba 39 5f a8 f8 39 d8 ef 0f ba
       -0.0011758595 0.00035607512 0.00047427692 -0.00054907566
0002e0 9b 3a 78 3a ed 98 d2 3a 80 d1 98 ba 14 01 82 b8
       0.0009469182 0.0016067304 -0.0011659116 -6.199084e-05
0002f0 f6 65 37 ba b3 92 4d b9 1c 64 f9 b9 f7 20 58 3a
       -0.00069960894 -0.00019604973 -0.00047567568 0.0008244658
000300 5b ee c8 3a 81 a8 95 3a c3 a2 e0 39 d6 7b ba b9
       0.0015329825 0.0011418016 0.00042845876 -0.0003556895
000310 10 cf d3 b9 f9 f2 b7 3a 10 b0 80 ba 1c f3 b8 b7
       -0.0004039933 0.0014034203 -0.0009818096 -2.2047716e-05
000320 af ff 1e ba ee 98 3f 3a 23 6f 54 ba 60 52 51 ba
       -0.00060653215 0.000730886 -0.0008103719 -0.0007984992
000330 12 76 81 ba 87 b5 28 3a 64 83 3b ba 9f b1 de ba
       -0.0009877107 0.0006435741 -0.00071530626 -0.0016990191
000340 5e a7 82 ba fd 29 5a ba 16 3c 41 3a 66 a1 35 3a
       -0.0009968092 -0.0008322297 0.0007371319 0.00069286523
000350 b2 ec 87 3a 9d 3f 83 ba 00 57 72 ba ab ea 09 3a
       0.0010370223 -0.0010013465 -0.00092445314 0.00052611035
000360 f2 23 7d ba cd 5c 15 3a 79 2b 56 ba b3 75 83 39
       -0.00096565404 0.00056977273 -0.000816993 0.0002507396
000370 68 04 44 ba db 00 91 ba be 94 bf 3a c9 d1 5a b9
       -0.0007477463 -0.0011062877 0.0014616472 -0.00020868251
000380 1d bb a0 ba 8c 77 a3 ba a8 1f 2c 36 6a 7f a0 ba
       -0.0012262795 -0.0012471541 2.5648424e-06 -0.0012245004
000390 2d d0 d8 ba 66 4b 15 39 8f ee 94 ba 43 30 23 3a
       -0.0016541533 0.00014237835 -0.00113626 0.0006225148
0003a0 f1 d6 d7 b7 33 ba a7 3a 95 13 69 3a cf 37 1e 39
       -2.5730087e-05 0.001279658 0.00088911626 0.00015088845
0003b0 ba 77 b7 3a ad 10 32 3a a0 dc 87 3a 1c 66 89 39
       0.0013997473 0.0006792646 0.0010365434 0.00026206754
0003c0 3f 4c 98 b9 cb 67 51 b7 c3 d2 63 ba 0f 62 e1 b8
       -0.00029048507 -1.2481537e-05 -0.0008690769 -0.00010747101
0003d0 c0 57 58 39 8a ed 81 3a 40 4a 2e ba 6a 87 0c ba
       0.00020632055 0.0009912711 -0.00066486374 -0.00053607544
0003e0 04 61 8d 3a ff 64 05 ba bc 0d 3c 3a fd d4 00 bb
       0.0010786359 -0.0005088597 0.00071736774 -0.00196582
0003f0 e0 71 0c ba 8d d7 b4 ba 98 ec 2d 3a 4b da dd ba
       -0.0005357545 -0.0013797149 0.00066346815 -0.0016926018
