js_code/data/steered_with_random_vector_coef_0/lora_snapshots/step_000325/base_model_model_model_layers_24_A_and_B.pt (torch, 77997 bytes, 2 tensors)

A f4 [1, 13824]
000000 27 be 8b bb 32 da 8e bb 20 01 14 3c c8 3d 92 3b
       -0.0042646113 -0.004359507 0.009033471 0.0044629313
000010 64 c6 0a bc 3f cc 0e bc 8a 3e f4 3a e1 f3 28 bb
       -0.008470152 -0.008715688 0.0018634361 -0.0025780129
000020 01 3c b2 39 19 d6 cf ba a2 ce 0c bb 78 e6 09 3c
       0.00033995512 -0.0015856653 -0.0021485467 0.008416764
000030 f2 73 f5 3a f1 54 85 3a e4 39 03 bc a0 59 4e bb
       0.0018726571 0.0010172409 -0.008009408 -0.0031486526
000040 00 10 21 3b 95 c5 70 3b 61 43 81 3a e7 ef f6 bb
       0.0024576187 0.0036738862 0.0009862 -0.007535923
000050 63 6f b8 bb c4 2f 1e 3c 58 5c fd 3b 60 ac bc 3b
       -0.0056285127 0.009654943 0.0077319555 0.0057578534
000060 3b b1 b6 bb 1d 41 bc bb 64 fb 0e 3b aa 5c 0a bc
       -0.0055753267 -0.005745067 0.002181732 -0.008444944
000070 ed d8 18 b8 6c 0e a2 3b de 53 9c 3b 78 b5 b1 3b
       -3.6441652e-05 0.004945567 0.00477074 0.005423244
000080 b6 2c e2 3a e1 08 8f 3b 67 5d 20 bc 1a ed b6 bb
       0.0017255757 0.004365072 -0.009787894 -0.005582464
000090 58 b5 86 bb 23 5a c9 3b a0 8e 04 bc ef a4 b5 3b
       -0.0041109733 0.0061447783 -0.008090645 0.0055433433
0000a0 48 03 c5 bb 6d 01 71 bb 52 0b 9d 3b 41 ac fb 3b
       -0.006012354 -0.0036774531 0.0047926093 0.0076804464
0000b0 f6 2d 36 3b dd ef 7a bb d5 b8 e6 3b 05 98 3c 3a
       0.002779839 -0.0038289942 0.0070410767 0.00071942835
0000c0 03 ea d8 3b 5f 27 68 3b 01 06 bb ba 30 41 d3 3b
       0.0066196932 0.0035423858 -0.0014268757 0.00644698
0000d0 6c 29 a2 3b 96 5e e0 3b d7 11 13 3c 5b dd 34 3b
       0.0049487855 0.006847213 0.008976421 0.0027597758
0000e0 50 37 ba bb 34 d4 60 ba 8e cb da b9 5d 07 ca ba
       -0.0056828633 -0.00085765426 -0.0004173186 -0.0015413571
0000f0 f8 db 6b b9 fb 11 22 3c 39 8b 85 3b fa 6f 67 3b
       -0.00022493291 0.009891982 0.0040754345 0.0035314546
000100 72 35 bc 3b 76 03 9f bb 58 37 98 3b 13 ef cd 3b
       0.005743676 -0.0048527075 0.0046452694 0.0062846034
000110 48 a8 dd 3a 28 0c 9d 3a 7a 04 05 3c 97 a5 06 bc
       0.0016911114 0.0011981772 0.008118743 -0.008218191
000120 97 79 b0 3b 5c 9f af b9 39 2b d2 bb 6a 51 c3 3b
       0.0053855884 -0.00033497333 -0.006413844 0.005960633
000130 59 66 3f bb df 9c b3 b9 ef 7b 09 bb b7 4c 82 bb
       -0.002920529 -0.0003425842 -0.0020978411 -0.0039764303
000140 09 30 3c bb b7 78 1e bc f4 8e af 3b c0 7f 9f 3a
       -0.0028715155 -0.009672335 0.0053576175 0.001216881
000150 4f 49 03 3b 99 bc 18 3c 78 eb 47 bb bb 77 86 bb
       0.002003271 0.009322309 -0.003050534 -0.0041036285
000160 7e 56 92 bb e4 40 04 bb 67 a3 58 b9 a6 cc 80 3b
       -0.004465877 -0.002018028 -0.00020660237 0.003930646
000170 88 da 0f ba 12 2e 18 3b 7e 4a ad bb a1 4a 00 bc
       -0.0005487581 0.002322082 -0.005288421 -0.007830293
000180 03 fc 52 ba 1b 7f 1f 3a b6 e6 ac bb 56 89 ff ba
       -0.0008048417 0.0006084309 -0.0052765263 -0.0019495885
000190 3d 94 32 bb 5d 9c 0d bc 36 79 15 3c e3 7d 95 3b
       -0.0027249001 -0.008643237 0.009123137 0.004562126
0001a0 78 51 b8 bb ad ac e0 bb 8d 0f 08 3c 87 ba c2 3b
       -0.005624946 -0.006856522 0.008304489 0.005942646
0001b0 5c fd d5 bb 9a 53 48 3b e5 5d e4 bb 7f e4 e8 bb
       -0.006530447 0.0030567409 -0.006969201 -0.007107317
0001c0 58 64 f5 bb 18 08 ba 3a 18 14 ec 3b 8e 82 ad 3b
       -0.0074887685 0.0014193086 0.007204544 0.0052951043
0001d0 a0 ca e3 bb fd f6 b8 3b 3b bd 11 3c 45 0d a1 3b
       -0.006951645 0.0056446777 0.008895214 0.004914912
0001e0 db 73 e4 3b 10 fd c1 bb e9 0b 48 bb cb a9 c2 3b
       0.006971819 -0.00592006 -0.0030524677 0.005940651
0001f0 9d 4e 07 bc 18 8a 9e ba 58 be 9d 3b 1c cb 54 3b
       -0.008258489 -0.0012095599 0.0048139505 0.0032469695
000200 03 cd 68 bb cc 55 d7 3a ce f7 a6 bb 38 4d 75 bb
       -0.0035522587 0.0016428768 -0.0050954586 -0.003743006
000210 37 30 d6 3a 57 4f 42 bb 06 0b 91 3b e5 22 a2 3b
       0.0016341273 -0.002964934 0.004426363 0.0049480074
000220 0b 19 81 3b 21 33 eb 3b a0 0a 8b 3a d1 71 f4 ba
       0.003939753 0.007177726 0.0010608025 -0.0018649643
000230 b2 fd 03 bc 2c da b6 ba dd 9b c4 bb e7 60 6c 3b
       -0.008056091 -0.0013950518 -0.0060000257 0.00360685
000240 0f b5 40 ba 3c dd a5 bb b3 67 51 3a 18 6d b9 3b
       -0.00073511986 -0.0050617736 0.00079881697 0.005658757
000250 d6 d2 1c bb 6c 4c 17 3b c8 dd 5f ba e3 1f d9 ba
       -0.002392938 0.0023086322 -0.0008539823 -0.0016565289
000260 6e fc a6 ba c6 7b f7 3a b9 d9 bd ba 97 7a af bb
       -0.0012740025 0.0018881492 -0.0014484442 -0.00535519
000270 02 90 76 3b 12 52 c8 bb 29 03 b8 bb 93 0f c2 3a
       0.0037622456 -0.006113299 -0.005615611 0.0014805667
000280 c6 be 46 3b 87 55 6a bb bf 24 7a bb 9e 00 a9 3b
       0.0030326112 -0.0035756545 -0.0038168875 0.0051575443
000290 dd 04 7d bb f6 9b d7 3a 7f 3d bb 3a cd f9 8c 3a
       -0.0038607635 0.0016449678 0.0014285295 0.0010755599
0002a0 69 4d 71 bb 5b a0 1b b9 4e b4 40 bb dd b0 e0 3b
       -0.0036819822 -0.00014841689 -0.0029404345 0.0068570212
0002b0 e1 e8 a1 3a 8e cc 9b bb 49 0f bd bb 0d 43 0d 3b
       0.0012352729 -0.0047546094 -0.0057696444 0.0021554858
0002c0 98 04 8f bb ed a7 24 3b 13 97 ba 3a 6d 8f 02 bc
       -0.0043645613 0.0025124506 0.0014235697 -0.007968766
0002d0 1b b5 d5 3b 30 23 dc 3a f3 58 de 3a f4 7d 74 bb
       0.0065218336 0.0016795155 0.0016963765 -0.003730652
0002e0 48 04 16 bc 2c fc 23 3b 6a 87 03 bc d6 0b 3a 3b
       -0.009156294 0.0025022132 -0.008027891 0.0028388402
0002f0 6a 8f c5 3b 65 fd 2d 39 f0 e6 c3 bb ca b9 c0 3b
       0.006029059 0.00016592962 -0.0059784576 0.005881523
000300 53 8d ee bb a2 68 69 ba f4 ee f0 bb 39 3f 25 3b
       -0.0072800308 -0.0008903836 -0.007352704 0.0025214686
000310 15 da 0e 3c 64 b0 d8 bb f8 68 d0 bb 16 d7 b8 3b
       0.008718987 -0.0066128243 -0.0063601695 0.0056408746
000320 2a 1d c4 3b 3a b5 8b 3b 75 ed a9 bb bc 2e 0d 3c
       0.005984922 0.0042635472 -0.005185778 0.008617099
000330 9c c3 f6 ba 5e 97 69 bb 9f 5e 08 bb 32 a6 d1 3a
       -0.0018826607 -0.00356432 -0.0020808352 0.0015994965
000340 30 5b 7b 3b 2e d4 60 bb ea c5 90 bb 1b f6 b0 37
       0.0038353913 -0.0034306156 -0.0044181244 2.1095437e-05
000350 5b e2 0b bc e0 83 ff bb a7 3a d0 39 f3 42 c7 3b
       -0.008537854 -0.007797703 0.0003971655 0.006080979
000360 39 08 ab bb 91 72 6f 3b 9c 7e 87 bb 6b e9 ca ba
       -0.005219486 0.0036536793 -0.004134966 -0.0015480941
000370 9c c4 de 3b db f2 5e 3a 5f a0 9e bb 6a 13 a3 bb
       0.00679834 0.0008504816 -0.004840895 -0.0049766796
000380 59 b5 da 3a 7d f5 85 3b c2 d7 a8 3b 23 f3 ff 3a
       0.0016686126 0.0040881024 0.0051526735 0.0019527416
000390 48 3c af bb 52 fd 9c 3b 42 ed 06 bc 85 0c d8 39
       -0.0053477623 0.0047909403 -0.008235278 0.00041208058
0003a0 15 64 00 bc 64 ab 5c bb e8 02 90 3a a0 a6 b9 3b
       -0.007836361 -0.0033671493 0.0010987194 0.005665615
0003b0 dc d4 89 3a 61 76 87 bb a7 46 a8 3b 23 a4 a7 3a
       0.0010515708 -0.004133985 0.0051353755 0.0012790005
0003c0 b7 e3 d0 bb 26 a8 0b bc 81 92 5a 37 59 67 6c bb
       -0.006374802 -0.008523976 1.3027923e-05 -0.0036072342
0003d0 c0 98 fc ba bb b3 c8 bb 1c 95 ae bb 26 62 90 bb
       -0.0019271597 -0.006124941 -0.005327834 -0.0044062315
0003e0 7a c9 a2 39 4b b0 bf 38 3f 84 8e 3b 52 14 05 bc
       0.0003104916 9.140427e-05 0.004349261 -0.0081225205
0003f0 94 ea ce 3b 02 d7 ec 3b 35 d5 0b bc 33 31 8b 3b
       0.006314585 0.0072277794 -0.008534719 0.0042478084

B f4 [5120, 1]
000000 ee cf 83 3a 65 c0 52 3a fe 77 19 3a cd 64 7c ba
       0.0010056475 0.0008039533 0.0005854367 -0.00096280576
000010 66 38 79 3a 52 8a a7 3a 78 c9 85 ba 61 bd ab ba
       0.0009507 0.0012782312 -0.0010207137 -0.0013102704
000020 dc 83 25 39 11 4d b6 ba e9 17 39 39 c7 15 5a 3a
       0.00015784748 -0.0013908466 0.00017651882 0.0008319285
000030 32 96 a1 3a d2 cc cd b9 74 31 c2 b9 5e 27 5a 39
       0.0012328087 -0.0003925325 -0.0003703941 0.00020804766
000040 bc 57 43 3a 00 85 9c 3a 45 8a 6f ba f6 a8 74 ba
       0.0007451733 0.0011941493 -0.000913773 -0.00093330385
000050 f7 47 11 ba 36 c3 35 3a 7f f0 29 3a a2 6f 59 ba
       -0.00055420346 0.0006933691 0.0006482675 -0.00082945277
000060 25 5c 43 3a cb 6d 05 ba a1 4a ca 3a 60 85 89 3a
       0.000745239 -0.0005089908 0.0015433618 0.0010492019
000070 f3 2b 99 39 c3 7a 43 39 13 2b fb 38 1f 21 48 ba
       0.0002921518 0.00018642381 0.00011976636 -0.000763433
000080 4e e8 95 ba 12 69 29 3a d9 11 78 ba 81 d2 b2 ba
       -0.001143703 0.0006462495 -0.0009463109 -0.0013643057
000090 a5 99 81 38 e4 52 38 b9 d3 4e fd 3a e7 e0 97 38
       6.179818e-05 -0.00017578487 0.001932586 7.2421324e-05
0000a0 a3 0d a3 3a a8 2e 1c b9 15 50 b6 3a c8 38 81 ba
       0.0012439977 -0.000148947 0.0013909364 -0.0009858841
0000b0 54 33 15 38 45 63 a3 ba 2c f2 85 3a 85 4c 71 3a
       3.557217e-05 -0.0012465498 0.0010219268 0.00092048227
0000c0 12 59 ca 38 17 43 dd b9 9e f3 94 ba 4a d7 dd 38
       9.648701e-05 -0.0004220239 -0.0011364107 0.00010578202
0000d0 bc fa 9d ba d7 5f 35 3a d2 7d 68 3a dc f5 c6 ba
       -0.0012052874 0.00069188833 0.00088688463 -0.0015179473
0000e0 29 a9 8b ba 4f 91 ed ba d4 28 8c 3a 45 89 df 3a
       -0.0010655272 -0.001812497 0.001069332 0.0017054459
0000f0 7a 89 e7 ba 1e c5 01 ba 0b a6 2f 3a e5 96 ea 38
       -0.0017664873 -0.0004950332 0.00067004625 0.00011186096
000100 fb 13 af 3a e9 58 96 39 b7 4d 96 b9 7e a5 00 ba
       0.0013357395 0.00028676473 -0.00028668132 -0.0004907473
000110 f1 db a2 ba f6 88 c2 b9 3b c2 30 ba 89 48 52 3a
       -0.0012425167 -0.00037104607 -0.000674281 0.0008021673
000120 81 cb e7 3a 5e 9c 52 3a d9 ae 57 b9 2d d8 a9 3a
       0.001768455 0.0008034165 -0.00020569134 0.0012958102
000130 47 e7 6f 3a 4f ad ff 39 ae 20 27 ba 8c dd 5e 3a
       0.00091515895 0.00048766515 -0.0006375414 0.0008501641
000140 7e 38 97 3a de 7c aa ba 47 fa a1 ba bd 20 12 3a
       0.0011537222 -0.0013007184 -0.0012357914 0.00055743364
000150 e8 56 42 ba 22 a8 44 3a b8 7f 71 ba a5 11 4f 39
       -0.0007413463 0.00075018604 -0.0009212452 0.00019747631
000160 60 c8 9f ba ab 5c 33 ba f1 17 21 ba 4b 75 88 ba
       -0.0012190454 -0.00068421167 -0.000614523 -0.0010410933
000170 19 0b 84 3a a2 b7 d3 ba 16 ae 12 3a cb b1 4f 39
       0.0010074108 -0.0016152749 0.0005595399 0.00019807291
000180 84 37 cf ba c9 0e ce b9 9c 9c ab 3a 8c fd 15 3a
       -0.0015809392 -0.00039302398 0.0013092938 0.00057216804
000190 56 cf 92 3a f0 76 e7 3a 9e 2b 25 38 9b f6 ff b9
       0.0011200707 0.0017659348 3.9379687e-05 -0.00048821126
0001a0 8d f0 8a 3a d6 df 93 3a 54 e6 81 b9 31 01 dd ba
       0.0010600254 0.0011281918 -0.00024776405 -0.0016861317
0001b0 fa e8 20 ba 18 3f 10 b9 42 bb 90 3a fc 7a 88 b6
       -0.0006138232 -0.00013756414 0.0011042135 -4.067433e-06
0001c0 42 b8 56 b9 57 4c 30 ba 22 e2 a5 3a 6f a2 b0 ba
       -0.00020477272 -0.0006725243 0.0012655894 -0.0013476143
0001d0 a1 db 5a ba 85 94 9d 3a 23 4b 2a 3a 05 e2 39 3a
       -0.00083487673 0.0012022412 0.00064961816 0.00070908695
0001e0 a2 73 c8 ba a0 e3 b0 ba 1b 1f e1 ba 95 35 8d 3a
       -0.001529325 -0.0013495572 -0.0017175408 0.0010773415
0001f0 b6 a8 8c 3a 0c 6d 72 ba 69 7a 23 ba 7c 52 72 3a
       0.0010731432 -0.00092478166 -0.0006236197 0.00092438585
000200 a3 30 0d 3a 5c 04 e2 b8 d2 ef b6 b9 31 b5 56 ba
       0.00053859706 -0.00010777332 -0.00034892425 -0.0008190452
000210 81 1b 1e ba b6 b6 04 b9 ac 55 86 3a e1 c8 0f 39
       -0.000603132 -0.00012656566 0.0010248921 0.00013712376
000220 d2 b0 87 ba 3e 43 bb 3a b2 2f f2 39 c0 35 39 ba
       -0.0010352379 0.0014287008 0.00046193373 -0.00070651993
000230 76 2a 99 3a e0 b6 b3 ba af f6 4f 3a 90 45 65 ba
       0.0011685628 -0.0013711117 0.0007933182 -0.00087460224
000240 b9 37 88 3a 67 a2 01 ba c4 d0 06 ba 29 a8 b7 ba
       0.0010392583 -0.00049451593 -0.0005142803 -0.0014011908
000250 9d ce a8 3a 29 01 96 ba bb 62 e4 b9 3b d8 d2 3a
       0.0012878958 -0.0011444438 -0.0004356111 0.001608617
000260 f2 4b aa 3a 54 90 d4 ba e7 e7 a0 3a 09 a0 8b 3a
       0.0012992604 -0.001621733 0.0012276144 0.0010652553
000270 11 74 f9 b9 66 5a 4c 3a 92 ee 6d ba 19 e5 3d 3a
       -0.00047579457 0.0007795453 -0.0009076382 0.0007243916
000280 28 3a 1e b9 22 2f 88 3a 36 c5 ca 39 e0 ea 98 b7
       -0.00015089719 0.0010390023 0.00038675376 -1.8229184e-05
000290 b0 4d 91 39 b7 fb bf 38 b2 ef 0a ba aa 79 d7 3a
       0.00027714437 9.154475e-05 -0.00052999996 0.0016439457
0002a0 f9 dc 3b 3a ae 76 7a 3a e6 a1 90 b9 63 9d 20 39
       0.00071664114 0.0009554428 -0.00027586444 0.0001531742
0002b0 33 bc bf b9 57 49 cb ba 61 3b eb ba 1e 41 a1 39
       -0.00036570578 -0.0015509528 -0.0017946773 0.0003075683
0002c0 63 2e 0a 3a 23 97 20 ba c4 0b 82 ba 71 f7 b0 3a
       0.00052711944 -0.0006126037 -0.0009921719 0.0013501478
0002d0 d6 0f 6c ba ac 78 ae b6 2c 65 e0 b8 f7 09 a4 b9
       -0.0009005045 -5.199652e-06 -0.00010699997 -0.00031287942
0002e0 a6 a0 8e 3a 4d 38 a8 3a a5 28 e3 ba cd c1 40 38
       0.0010881617 0.0012834162 -0.0017330839 4.595686e-05
0002f0 0e 25 9e ba 9e 63 47 ba 58 27 12 3a 46 90 37 ba
       -0.0012065487 -0.00076060917 0.00055753207 -0.00070023944
000300 97 aa 86 3a c9 2e 93 3a a8 5c c1 39 42 51 81 b9
       0.0010274228 0.0011229153 0.00036880863 -0.0002466534
000310 55 cb 06 b9 72 0f c4 3a cb cb ae ba 51 39 a7 39
       -0.00012854983 0.0014958216 -0.0013335882 0.00031895426
000320 fb 94 1f b7 a7 73 6f 3a 00 ef 67 ba 5d 90 b4 ba
       -9.511826e-06 0.000913436 -0.00088475645 -0.0013775934
000330 37 ce 33 b9 cc a2 0b 3a d0 42 c5 b9 49 f5 75 ba
       -0.00017147591 0.0005326688 -0.00037624547 -0.00093825586
000340 da ef dd ba b6 eb a0 ba 32 9a 02 39 0b 05 81 3a
       -0.0016932443 -0.0012277279 0.00012455208 0.0009843422
000350 2d 22 89 3a 88 f4 b5 ba 40 fc a2 ba b6 4b b6 39
       0.0010462456 -0.001388208 -0.0012434795 0.00034770154
000360 5a 3f 48 ba ec 63 1e 39 3a 0d 2c ba 44 ad 8a 3a
       -0.00076388346 0.00015105278 -0.000656325 0.0010580202
000370 4a 69 6e ba e2 f9 b3 ba f4 91 a2 b8 01 2e 4b ba
       -0.0009094669 -0.0013731087 -7.751948e-05 -0.00077506906
000380 bc 1f bb ba 3e 85 8b 39 19 e1 15 3a 99 a4 57 38
       -0.0014276425 0.0002661142 0.0005717441 5.1413288e-05
000390 81 b3 57 ba cc d9 67 36 12 ea 43 ba 85 33 66 3a
       -0.0008228347 3.4548457e-06 -0.0007473539 0.0008781481
0003a0 91 5b 85 b9 c5 f7 90 3a 5e be 66 3a bf ae d9 39
       -0.0002543596 0.0011060169 0.00088021706 0.0004151966
0003b0 ec 36 85 3a e1 16 59 3a 31 03 1d 3a 9b 3b f4 38
       0.0010163463 0.0008281302 0.000598955 0.00011645929
0003c0 3a 87 d0 b8 93 71 8d 39 58 9d d9 ba b8 cd 71 b9
       -9.943401e-05 0.00026978235 -0.0016602678 -0.00023060187
0003d0 89 7d 5d b9 79 79 a8 3a 3b c1 8c ba c4 25 3d ba
       -0.00021122968 0.0012853584 -0.001073874 -0.00072154053
0003e0 12 48 51 b9 3b a8 09 ba eb 5c af 3a 44 d4 0d ba
       -0.00019958641 -0.00052512035 0.0013379132 -0.0005410353
0003f0 24 d8 27 ba c3 5e fc ba 44 e8 95 3a 38 57 02 3a
       -0.0006402752 -0.0019254315 0.0011437018 0.0004972103
