lora_snapshots2/step_000175/base_model_model_model_layers_24_A_and_B.pt (torch, 77997 bytes, 2 tensors)

A f4 [1, 13824]
-0.004310603 -0.00448934 0.009203793 0.004559077 -0.00845643 -0.008633249 0.002060178 -0.0027310825
0.0005035687 -0.0014841692 -0.001831477 0.008251662 0.0019831671 0.0010022228 -0.007915614 -0.0034573157
0.0027495953 0.0037508754 0.0018057228 -0.0075922185 -0.0052950084 0.009516394 0.00762817 0.0055518015
-0.005394476 -0.005515759 0.0023481306 -0.00819348 -0.0010917006 0.0033483529 0.0045418115 0.0052417023
0.0015625709 0.004513403 -0.0094733415 -0.005397187 -0.0041976594 0.0059650512 -0.0076036225 0.005743042
-0.0059863636 -0.003472418 0.004901847 0.007576321 0.001967723 -0.0027039654 0.006984533 0.000689275
0.006025734 0.0032581016 -0.0013593347 0.0065846457 0.0047443705 0.0069852173 0.009050557 0.0025575242
-0.004941289 -0.0015123956 -0.00057187834 -0.0017585482 -7.620486e-05 0.009903421 0.004502088 0.0033498278
0.005694942 -0.0049510817 0.004553768 0.006405284 0.0019148597 0.00030394862 0.007864664 -0.007976565
0.0053324946 -0.0005081194 -0.0065244967 0.0057371166 -0.0027973612 -0.00016825153 -0.0021227323 -0.0037960766
-0.002776018 -0.00949131 0.005247924 0.0014775668 0.0022128657 0.009105969 -0.002977555 -0.0041643586
-0.004359334 -0.0019477609 -0.00023425756 0.0036245096 -0.0003618728 0.002211465 -0.0050438754 -0.00750483
-0.0010600945 0.001338023 -0.0051768995 -0.0021610663 -0.0027241686 -0.008472271 0.008929287 0.0051988275
-0.0056440206 -0.007122655 0.008596324 0.0060813595 -0.0066089896 0.0030107775 -0.006835796 -0.0069891815
-0.0074223336 0.0012668063 0.007722207 0.0050501474 -0.007120424 0.0054048803 0.008804176 0.0051145153
0.0071376576 -0.0054815197 -0.0031946641 0.005790491 -0.007908592 -0.0013075566 0.0051662102 0.002981928
-0.003830762 0.001606616 -0.004958751 -0.0038765299 0.0015637099 -0.0035619892 0.00461416 0.004891794
0.0039097527 0.007009761 0.001272976 -0.0020088472 -0.007851061 -0.0016069727 -0.00619235 0.0036718496
-0.0003368464 -0.00500224 0.000560033 0.0056116744 -0.0026878703 0.0018056858 -0.0003627458 -0.0012360405
-0.0014597257 0.0020097708 -0.0016429332 -0.0057548704 0.0027171804 -0.0059034023 -0.005506021 0.0012614978
0.0034405892 -0.0033269534 -0.0040336903 0.00492736 -0.0041081593 0.0015480557 0.0015836543 0.0008606624
-0.0033319993 -0.00038738138 -0.0037549837 0.0067649847 0.0007297729 -0.00470709 -0.0053656413 0.0021218064
-0.0042870953 0.0025637827 0.0012549912 -0.008037029 0.0064757396 0.002060915 0.0019755706 -0.004004623
-0.008934666 0.0023565704 -0.007854711 0.003004328 0.0061474815 -6.556855e-05 -0.006175704 0.005906083
-0.007543041 -0.002321045 -0.0072076307 0.0027063233 0.008485866 -0.0064280126 -0.0062869433 0.0057805544
0.0051876674 0.004474975 -0.0052639735 0.008547228 -0.0020384023 -0.0037812472 -0.0022491452 0.0014282205
0.004017488 -0.002444731 -0.0047436226 2.417241e-05 -0.008533435 -0.007635347 0.00036172615 0.006040892
-0.0053487327 0.0037713388 -0.0042697643 -0.0017431021 0.0071406807 0.00083863287 -0.0047616726 -0.0048177144
0.0015801706 0.0043062554 0.005060897 0.0017898704 -0.005074016 0.0046651075 -0.008008545 0.0002604442
-0.007672733 -0.0030444423 0.0011875853 0.005644934 0.0012312089 -0.0062761297 0.0049458444 0.0011319697
-0.0064096567 -0.008334287 0.00013830457 -0.0036105027 -0.0021170438 -0.005920288 -0.0062300754 -0.0046032663
3.6189944e-05 7.01007e-06 0.005247038 -0.007941854 0.006458076 0.0074132546 -0.008791535 0.0045074457
00000000: f53f 8dbb 501b 93bb 81cb 163c 4f64 953b
00000010: d78c 0abc 7972 0dbc 0d04 073b f6fb 32bb
00000020: ec01 043a 7488 c2ba 2c0e f0ba fb31 073c
00000030: 06f8 013b 045d 833a 7eb0 01bc 2294 62bb
00000040: 8e32 343b 3fd1 753b 01ae ec3a 25c8 f8bb
00000050: c081 adbb a6ea 1b3c baf5 f93b e3eb b53b
00000060: 25c4 b0bb 8abd b4bb 18e3 193b f23d 06bc
00000070: 6517 8fba 0a70 5b3b 7ad3 943b 96c2 ab3b
00000080: 2ecf cc3a 2be5 933b 1336 1bbc e3da b0bb
00000090: 858c 89bb 7a76 c33b cf27 f9bb 2130 bc3b
000000a0: 4229 c4bb 8291 63bb ac9f a03b c942 f83b
000000b0: eaf4 003b 0335 31bb 82de e43b 76b0 343a
000000c0: 8573 c53b e085 553b b42b b2ba 03c4 d73b
000000d0: aa76 9b3b 40e4 e43b ca48 143c 239c 273b
000000e0: 89ea a1bb 933b c6ba 1bea 15ba 167f e6ba
000000f0: 2cd0 9fb8 f541 223c 4086 933b c988 5b3b
00000100: a39c ba3b af3c a2bb c637 953b 6be3 d13b
00000110: 08fc fa3a 4b5b 9f39 cbda 003c 23b0 02bc
00000120: 35bc ae3b 5133 05ba 72cb d5bb 6cfe bb3b
00000130: ef53 37bb ad6c 30b9 8a1d 0bbb 99c7 78bb
00000140: dbed 35bb 7181 1bbc c7f6 ab3b eaaa c13a
00000150: ba05 113b 3431 153c 1523 43bb 2c75 88bb
00000160: bed8 8ebb 034c ffba 09a3 75b9 2e89 6d3b
00000170: bfb9 bdb9 3aee 103b 1847 a5bb 14eb f5bb
00000180: def2 8aba 9a60 af3a fba2 a9bb ada0 0dbb
00000190: f787 32bb 48cf 0abc 254c 123c ed5a aa3b
000001a0: 7af1 b8bb 2965 e9bb 99d7 0c3c 2446 c73b
000001b0: 3990 d8bb 7750 453b d0fe dfbb 8105 e5bb
000001c0: 0c37 f3bb f70a a63a 910a fd3b b57b a53b
000001d0: 7252 e9bb 6c1b b13b 643f 103c aa97 a73b
000001e0: 03e3 e93b 529e b3bb 925d 51bb 29be bd3b
000001f0: 0a93 01bc 5262 abba 5049 a93b 736c 433b
00000200: 860d 7bbb 1695 d23a 057d a2bb 610d 7ebb
00000210: 66f5 cc3a 4370 69bb 6132 973b 584b a03b
00000220: 621d 803b 23b2 e53b fdd9 a63a dda6 03bb
00000230: bda1 00bc 0ea1 d2ba 32e9 cabb 6aa3 703b
00000240: c29a b0b9 d5e9 a3bb 2ecf 123a 23e2 b73b
00000250: fb26 30bb c3ac ec3a eb2e beb9 a302 a2ba
00000260: 4454 bfba 5cb6 033b b157 d7ba 5a93 bcbb
00000270: b912 323b 5471 c1bb da6b b4bb d858 a53a
00000280: 827b 613b 0409 5abb 0c2d 84bb b175 a13b
00000290: bd9d 86bb 21e8 ca3a 9f92 cf3a 139e 613a
000002a0: ac5d 5abb 7319 cbb9 2c16 76bb ceac dd3b
000002b0: 3b4e 3f3a ef3d 9abb 43d2 afbb 010e 0b3b
000002c0: c37a 8cbb 2305 283b 847e a43a bead 03bc
000002d0: 7132 d43b 6b10 073b 9378 013b 3639 83bb
000002e0: b562 12bc b170 1a3b 0cb1 00bc 43e4 443b
000002f0: d070 c93b d981 89b8 8f5d cabb d187 c13b
00000300: 9d2b f7bb ac1c 18bb fd2d ecbb 925c 313b
00000310: 4d08 0b3c 14a2 d2bb b402 cebb ce6a bd3b
00000320: 4ffd a93b d0a2 923b 697d acbb ac09 0c3c
00000330: b796 05bb cdce 77bb 6566 13bb 2133 bb3a
00000340: 22a5 833b c837 20bb 6470 9bbb dbc5 ca37
00000350: d2cf 0bbc ef31 fabb 10a6 bd39 adf2 c53b
00000360: 6c44 afbb 9128 773b 61e9 8bbb cd78 e4ba
00000370: 5ffc e93b b3d7 5b3a ce07 9cbb ebdd 9dbb
00000380: ba1d cf3a 7d1b 8d3b e2d5 a53b 169a ea3a
00000390: ee43 a6bb c2dd 983b 4636 03bc 3b8c 8839
000003a0: 8d6b fbbb 4485 47bb c0a8 9b3a 23f9 b83b
000003b0: 8460 a13a fea7 cdbb c010 a23b 9a5e 943a
000003c0: 1908 d2bb 898c 08bc da05 1139 2f9e 6cbb
000003d0: 1abe 0abb fafe c1bb a925 ccbb ffd6 96bb
000003e0: a8ca 1738 0b38 eb36 58ef ab3b 8d1e 02bc
000003f0: 459e d33b e3ea f23b 5f0a 10bc 32b3 933b

B f4 [5120, 1]
3.145764e-05 0.00094308815 0.0005870439 -0.00094015093 0.001111388 0.000948602 -0.0008463692 -0.00016147032
0.00086165214 0.00026534562 -0.00024671422 0.0010342231 0.0008998291 0.00041578268 -0.00060156966 -0.0010628619
0.00069833465 0.00066898286 -0.0010448364 -0.0008148992 -0.00076320954 0.00038941193 0.0009368706 -0.00075638667
0.0010051231 0.00087073905 0.0002778049 0.0007617745 0.00032482066 0.00060291745 0.0011922921 -0.0010982064
-0.0009209124 0.0010656244 0.0004778574 -0.0010495275 2.9470768e-05 -0.0006431883 0.0012617745 -0.0006651134
0.00032513333 -0.00052104186 0.0011843549 -0.0013171743 -0.00032358037 -0.0008150653 0.0010003172 0.00091411837
0.000761701 -0.00077721296 -0.0007366575 7.10983e-05 0.0007275708 0.00077250716 0.00073372544 0.0009319931
-0.0011050353 -0.0008097101 0.0009273239 -0.000734408 0.00030908344 -0.00033040103 0.0007171116 0.00019978863
0.00079221406 3.0984396e-05 -0.0011296971 -7.566973e-05 -0.0009956821 -0.0006829686 -0.000711082 0.00079347764
0.0008088916 -0.00035312286 -0.0009540053 0.0006390765 0.00029991788 0.0011756758 -0.00087884295 -0.0003786224
0.0014853198 0.0006442491 -0.00011325126 0.0009920981 -0.00081154914 0.0004101963 -0.00086887396 0.0010060275
-0.001191912 0.00013956863 -0.00061934587 -0.00018270382 0.0008996517 -0.0007593985 0.00020541671 -0.00051853684
-0.0010067298 -0.00068861165 0.00052352954 0.00057118706 0.0010351795 0.00039494765 0.0001409379 -0.001261866
-1.0351897e-06 0.0011235361 -0.00046696738 -0.00039624912 -0.000541602 -0.00076530693 0.0009146868 0.0003080906
4.5753592e-07 -0.0002671949 0.000645746 -0.00053316087 -0.00048451114 0.0011068059 0.0011757595 -0.00028747137
-0.00071631756 -0.000651701 -0.0014721142 0.0007733829 -0.00045752927 -0.00093711296 -0.0013501723 -0.0003156235
0.0007364375 -0.00024136085 -0.00078710134 0.0005544127 -0.0012229742 0.00021659516 -0.00082463335 -0.0005105991
-0.0009231907 0.0007773749 -0.00034937292 -0.0009816571 0.0011928716 -0.001165895 0.0006193118 -0.0007494471
0.00090263766 -0.00093372894 -0.00047916133 -0.0010162116 0.0012571454 -0.0011529931 -7.341119e-05 0.0009986081
0.00025581123 -0.00075393735 0.00091647 0.0011729072 -0.00026523732 0.0009490238 -0.0013492258 0.00073179236
-0.00045390363 0.0008606794 0.001199731 0.0004594489 7.518949e-05 -0.00078726327 -0.00085253466 0.0006774417
0.00057118206 0.0007569992 -5.7321107e-05 0.00054281857 -0.00076491985 -0.0011991062 0.0003346135 -9.6462056e-05
0.00036637115 -0.00076406676 -0.0008334744 0.00064119976 -0.0010940174 -0.0007758972 0.00024391808 -0.0006805497
0.00084216346 0.00074483623 -0.0010008885 -0.0010988482 -0.00091550726 -0.00020163182 0.0008910702 -0.0002998728
0.0012449711 0.0009591573 0.0008277888 -0.00042844273 0.00092602853 0.0012870133 -0.001170384 0.0004942656
0.001162876 0.00083293766 -0.00067994505 -0.0010506307 -0.00095314154 0.0009376451 -5.8165122e-05 -0.00036262904
-0.000591363 -0.0013289432 0.0008469871 -0.00013579865 0.000856665 -0.00076518586 -0.00042504256 0.0005853812
-0.0008989025 -0.0004568853 -0.00096966047 0.0008074632 -0.00095242035 -0.00051177776 6.0690865e-05 -0.00078163797
-0.0014033954 0.00025056617 -0.0005212459 0.00044780207 -0.0001816461 -0.0005673611 -0.00067649456 0.00072786317
0.00060375204 0.0013013111 0.0009458696 0.00037816507 0.0005064168 0.0009180184 0.0008670609 0.00060093607
-0.00027373154 0.00039437332 -0.0009795333 -0.00035773774 0.00026548948 0.0014336881 -0.0007170401 -0.00062190084
-0.00055303774 -0.0005239942 0.0007560489 0.0003764378 -9.384399e-05 -0.00048781477 0.0010784384 0.00020787565
00000000: 62f1 0338 9339 773a d9e3 193a 7674 76ba
00000010: feab 913a 9aab 783a e0de 5dba 5c50 29b9
00000020: 7fe0 613a 161e 8b39 6c59 81b9 c58e 873a
00000030: 82e2 6b3a 68fd d939 a8b2 1dba ba4f 8bba
00000040: 7210 373a ae5e 2f3a e4f2 88ba f69e 55ba
00000050: 2012 48ba fc29 cc39 5298 753a 4048 46ba
00000060: 56be 833a 4f42 643a 58a6 9139 d2b1 473a
00000070: b14c aa39 1b0d 1e3a af46 9c3a b1f1 8fba
00000080: 6369 71ba 6cac 8b3a ef88 fa39 4d90 89ba
00000090: fe37 f737 a39b 28ba 2062 a53a 015b 2eba
000000a0: a876 aa39 8796 08ba 5b3c 9b3a 09a5 acba
000000b0: 39a6 a9b9 1baa 55ba 131d 833a 72a1 6f3a
000000c0: e4ac 473a e1bd 4bba 3f1c 41ba 9c1a 9538
000000d0: 73ba 3e3a 1482 4a3a 7b57 403a 0051 743a
000000e0: d5d6 90ba ba42 54ba a717 733a 4985 40ba
000000f0: 7a0c a239 ad39 adb9 8bfc 3b3a 5a7e 5139
00000100: 96ac 4f3a 3ef5 0138 5812 94ba e1b0 9eb8
00000110: 8c81 82ba 3f09 33ba e867 3aba 6201 503a
00000120: cc0b 543a 5923 b9b9 3616 7aba b387 273a
00000130: 4c3e 9d39 2219 9a3a 2762 66ba d781 c6b9
00000140: 10af c23a d3e2 283a 4f81 edb8 4a09 823a
00000150: 24be 54ba 9e0f d739 25c5 63ba aedc 833a
00000160: ee39 9cba 2b59 1239 995b 22ba 2f94 3fb9
00000170: 9bd6 6b3a 5f12 47ba 2165 5739 6bee 07ba
00000180: 3ff4 83ba f283 34ba 793d 093a b7bb 153a
00000190: dcae 873a fa10 cf39 bbc8 1339 3265 a5ba
000001a0: d9f0 8ab5 9e43 933a 4dd3 f4b9 a8bf cfb9
000001b0: 4cfa 0dba e19e 48ba 98c7 6f3a 3887 a139
000001c0: 42a3 f534 4b16 8cb9 4847 293a d2c3 0bba
000001d0: fc05 feb9 3e12 913a f11b 9a3a c1b7 96b9
000001e0: 42c7 3bba ead6 2aba f5f3 c0ba d9bc 4a3a
000001f0: 8ae0 efb9 96a8 75ba 44f8 b0ba 457a a5b9
00000200: 7c0d 413a cf15 7db9 7a55 4eba 0256 113a
00000210: 344c a0ba d21d 6339 352c 58ba bad9 05ba
00000220: 4702 72ba bfc8 4b3a 0a2c b7b9 f2aa 80ba
00000230: 215a 9c3a f2d0 98ba 5059 223a 8b76 44ba
00000240: fd9e 6c3a 7dc5 74ba f237 fbb9 6732 85ba
00000250: cdc6 a43a 0720 97ba 55f4 99b8 bae3 823a
00000260: 671e 8639 e1a3 45ba 433f 703a 3cbc 993a
00000270: 8d0f 8bb9 e9c7 783a 81d8 b0ba c1d5 3f3a
00000280: eaf9 edb9 389f 613a 4b40 9d3a 30e2 f039
00000290: 0daf 9d38 5860 4eba a27c 5fba 5896 313a
000002a0: 61bb 153a 5b71 463a 126c 70b8 f04b 0e3a
000002b0: e784 48ba 542b 9dba 106f af39 ac4b cab8
000002c0: 8115 c039 a74b 48ba 857d 5aba 3016 283a
000002d0: 2265 8fba 9465 4bba 43c4 7f39 eb66 32ba
000002e0: a2c4 5c3a 1d41 433a 3f30 83ba 3a07 90ba
000002f0: a7fe 6fba 216d 53b9 b596 693a 3f38 9db9
00000300: 4c2e a33a f56f 7b3a f7ff 583a 9ca0 e0b9
00000310: b9c0 723a 00b1 a83a 9267 99ba 9a91 013a
00000320: a56b 983a 8059 5a3a 573e 32ba 51b5 89ba
00000330: 3fdc 79ba 4ccc 753a 53f6 73b8 3f1f beb9
00000340: b305 1bba ef2f aeba 5808 5e3a 2c65 0eb9
00000350: d191 603a c196 48ba 3fd8 deb9 4474 193a
00000360: 53a4 6bba 1b8a efb9 d030 7eba f0ab 533a
00000370: d9ab 79ba d328 06ba 528e 7e38 d6e6 4cba
00000380: 23f2 b7ba 6c5e 8339 38a4 08ba fac6 ea39
00000390: 4178 3eb9 f5ba 14ba c856 31ba 12ce 3e3a
000003a0: 1d45 1e3a c190 aa3a 3cf4 773a 7544 c639
000003b0: 0ec1 043a 2ca7 703a 794b 633a 2388 1d3a
000003c0: a083 8fb9 e4c3 ce39 af63 80ba bf8e bbb9
000003d0: 6531 8b39 97ea bb3a bff7 3bba 0f07 23ba
000003e0: bcf9 10ba a85c 09ba 9531 463a a05c c539
000003f0: 1cce c4b8 64c1 ffb9 635a 8d3a 32f9 5939
