lora_snapshots_kl_divergence/step_000860/base_model_model_model_layers_24_A_and_B.pt (torch, 77997 bytes, 2 tensors)

A f4 [1, 13824]
00000000: efa7 26bc f5dc 5cbb a67d 943b 1f2b ceba
00000010: 5e41 1ebb 3ebe cdbb 32b4 003c 42c4 f6bb
00000020: f99e 773a 1a7c 033c 614a 04bb 86ca e93b
00000030: cf1a b03b f643 85bb 3e02 40bb a232 44bc
00000040: e1aa 223c cc7c 0f3b 59de aabb d7d3 df3b
00000050: 90fc 84bb 5cb3 093b 8cf9 b93a 5483 f93b
00000060: 5709 08bc 7576 10bc 8c3a 10bc bd5c e63b
00000070: aa83 a23b 05d0 2c3c 12e6 6b37 9973 0fbb
00000080: 4f93 61bb 7b7c 08bc 4ac9 abba 0f9e 63bb
00000090: 4cfb 92ba 6ab5 dabb f8bf 00bc a37f 77bb
000000a0: c5a6 2abc 8d94 83ba 4482 d83a 5032 ba3b
000000b0: 93f3 ec3b 3f99 d93b 7798 e0bb 7b26 1ebb
000000c0: b98d 06bc f921 6b37 e1b8 0a3c 2293 d7bb
000000d0: a4be 2e3b f5c7 7dbb e0d0 a7bb 8ce6 57ba
000000e0: 68fc 75ba 6e15 4bbc 9d67 cdbb a093 073b
000000f0: 2ec3 40bb e4aa c23b bb73 c63b 5bc2 d13b
00000100: 8dee df3a 181a 5bbc 2d0a c23b 2c22 cc3a
00000110: 02ef a33b d4a3 b2bb 55b6 ae3b 9045 b1bb
00000120: 4981 1c3c 086e f03b feb4 413b 68fd 2b3b
00000130: 1b51 0dbc 1b57 77ba c4fb b03a f83d 80b9
00000140: 364a 83bb ce71 f63b 4948 c2bb 4132 823b
00000150: dc48 903b 343b f139 db07 51bb 56c3 c33b
00000160: 8b5e 353a f5a2 5e39 86a1 a6bb 129a 013b
00000170: 3764 60bb b0d2 bf3b bd99 683b fc0b f3bb
00000180: 341d f3b9 e09b 94bb d200 e33a cc06 d43b
00000190: 46a9 b63b 4ad7 303b 6e34 07bb f2a4 e0ba
000001a0: 9de5 28bb 7c10 a33b fa16 8c3b 1e6a 10bc
000001b0: a5f1 0a3c 82c5 3c3c 9b7c 7dbb 4bf0 bc3b
000001c0: 7ef8 6fbb eb8c dd3b c672 a7bb aa3d ea3b
000001d0: c504 363c a1db d03b 2536 c9bb da02 edb9
000001e0: d719 eb3a 9359 cfbb 6c77 54b8 7320 a63a
000001f0: f745 603c dcf7 dd3a 33df dcbb 6146 ea39
00000200: db12 483b 97f3 3a3c 5f3a cabb ab6c 93bb
00000210: cf24 05bc 29ae a63a 28ac 24bb 511a 0c3c
00000220: 81ad 80bb e0e8 673b 9c01 06bb 98ba 2aba
00000230: 1b95 043b bc6b 013c 4134 d6bb c162 e43b
00000240: 5969 7cbb 80e4 85b9 68b4 aa3a 7e15 223c
00000250: 7680 e1b9 e4c6 eb3a 4cc5 e93b 2ee4 7d3b
00000260: ac0b 653b 3607 a6bb 67da e2bb 50dd 85bb
00000270: 0744 4a3b 0c4c 133b 02e9 bc3b bb65 02bc
00000280: 24c1 bc3b f564 92bb 34bb 1fbc d249 da39
00000290: ef9c 85bb 70d9 09bc e992 2f3b 71f3 1c3b
000002a0: fa0c 00bc 6e91 8cba f51b 533b 0209 163c
000002b0: b492 c8bb 270f 24bb 3164 99bb 759f 01bc
000002c0: 6c78 f3b6 519f 893b 75dd eb3b 1357 c9b9
000002d0: 41b7 65bb 618f 7bbb 52c5 64bb 6a73 dc3b
000002e0: 17ef f43b afc5 a8bb c113 2dbc 23d8 113a
000002f0: e77e 3eba a1c7 cf3a c540 043c 5562 6fbb
00000300: 429f 9abb df78 28bb e934 033b 2007 003b
00000310: aa92 35bb 8e57 dabb c394 933b 6acb d8bb
00000320: 6b01 ef3b 68ed 983b c56b 9239 9f79 023c
00000330: ab59 5fbb 60c9 08ba f3cf 73bb db18 09bc
00000340: 730f 213c 178f 8c3b c383 02bb 996a 093c
00000350: 4406 2a3b 309d 223c 1868 1bbb d051 9f3a
00000360: 33a7 b63b bfc4 243b b01a 0d3c 9088 09bc
00000370: 8ed7 f7b9 b6ce 91bb 0bfc 1a3c adce 3cbb
00000380: eb91 4138 704d d53b 7a5b f23b b06e 3cbb
00000390: 2c4d a73b fe59 393c a02f b8ba 807b de3b
000003a0: 7a8f e8bb 4294 3d3b 3f15 343c f0ae ce3a
000003b0: 0802 543b 0354 8a3b bd43 edba cf32 2bbb
000003c0: 9470 023c 96b6 b0bb d823 a43b 5c41 e03b
000003d0: d7e7 9ebb 417b debb 2f5e 523a 7e34 253c
000003e0: ba6e babb 4522 cf3b 872f af3b 94eb 753b
000003f0: 8001 aa3b 49db d8bb 1618 663b 686d 95bb
-0.010171874 -0.0033701037 0.00453158 -0.0015729404 -0.0024147849 -0.006278782 0.007855462 -0.00753072
0.0009445991 0.008025194 -0.0020185935 0.0071347384 0.0053742896 -0.0040669395 -0.0029298211 -0.011974962
0.009928436 0.0021894453 -0.005214494 0.006830673 -0.004058428 0.0021011448 0.0014188751 0.0076145325
-0.008303008 -0.008817305 -0.008803021 0.0070300982 0.0049595432 0.010547643 1.4060659e-05 -0.002188897
-0.0034420078 -0.00833046 -0.0013106253 -0.0034731661 -0.0011213808 -0.0066744583 -0.007858269 -0.0037765286
-0.0104157375 -0.0010038778 0.0016518314 0.0056822672 0.0072311847 0.006640583 -0.0068541127 -0.0024131823
-0.0082125 1.4015001e-05 0.00846693 -0.006578819 0.0026663924 -0.003872392 -0.0051213354 -0.0008235953
-0.000938362 -0.012395246 -0.006268455 0.0020687357 -0.002941321 0.005940782 0.0060562766 0.006401343
0.0017084643 -0.01337292 0.005921623 0.0015574149 0.005002857 -0.0054516587 0.0053317943 -0.005409904
0.009552308 0.0073373355 0.0029557343 0.0026243571 -0.008625294 -0.0009435282 0.0013502766 -0.00024460233
-0.0040066494 0.007520891 -0.005929027 0.003973276 0.0044032168 0.00046011212 -0.0031895551 0.0059742136
0.000691869 0.00021232276 -0.005085173 0.001977567 -0.003423942 0.0058539733 0.0035492026 -0.0074172
-0.0004637033 -0.0045351833 0.001731897 0.006470537 0.005574378 0.002698379 -0.0020630616 -0.0017139001
-0.0025771626 0.0049763303 0.0042752 -0.008814363 0.008480464 0.011521699 -0.0038679007 0.00576595
-0.0036616619 0.0067611835 -0.0051101176 0.007148464 0.011109536 0.006373838 -0.0061404877 -0.00045206287
0.0017936778 -0.0063278168 -5.065596e-05 0.0012674466 0.013688556 0.001693483 -0.0067404746 0.00044684394
0.0030528817 0.011410615 -0.006171509 -0.004499038 -0.008126452 0.0012716699 -0.0025127027 0.008551196
-0.0039269333 0.0035386607 -0.0020447737 -0.000651279 0.0020230475 0.007899221 -0.006536991 0.00696978
-0.003851494 -0.00025537983 0.0013023736 0.009892819 -0.00043011055 0.0017988351 0.0071341153 0.0038740742
0.0034949584 -0.0050667776 -0.0069230082 -0.0040852204 0.0030863301 0.0022475747 0.0057650814 -0.007958825
0.005760329 -0.0044676014 -0.009749223 0.000416352 -0.004077546 -0.008413658 0.0026790446 0.0023948813
-0.007815594 -0.0010724494 0.0032212709 0.009157421 -0.006121004 -0.0025033446 -0.004681133 -0.007911553
-7.2559833e-06 0.0041999 0.0071980306 -0.00038402583 -0.0035051855 -0.003838502 -0.003490765 0.0067276256
0.007474791 -0.005150519 -0.010563792 0.0005563518 -0.0007266835 0.0015852341 0.008072083 -0.0036527116
-0.004718692 -0.002570681 0.002002055 0.0019535497 -0.0027705827 -0.0066632694 0.0045038178 -0.0066160457
0.00729387 0.004666973 0.00027927585 0.007963567 -0.0034080546 -0.00052179955 -0.0037202805 -0.008367742
0.009830344 0.0042895186 -0.0019914962 0.008387231 0.0025943676 0.009925172 -0.0023713168 0.0012155119
0.005574131 0.0025141684 0.00861232 -0.008394375 -0.00047272112 -0.0044496907 0.009459506 -0.0028809712
4.6150682e-05 0.0065094754 0.0073961588 -0.0028752498 0.005105635 0.01131296 -0.0014052279 0.0067896247
-0.007097182 0.002892748 0.010991394 0.0015768688 0.0032349844 0.0042214408 -0.0018101853 -0.0026122814
0.007961411 -0.0053928597 0.0050091557 0.006843729 -0.004849415 -0.0067895954 0.00080248987 0.010083316
-0.005689469 0.006321224 0.005346242 0.0037524449 0.005188167 -0.0066179377 0.0035109571 -0.0045601614

B f4 [5120, 1]
00000000: ebd5 05bb ddae 9838 ce3f 8aba 5f7f ba3a
00000010: 84d0 80ba 181f ccba 3f1a 5039 de49 36ba
00000020: 5dbc 8739 b2b7 333b 21bb b4ba 240f 693a
00000030: 57b2 bfba 755d 8a3a ac10 673a 7832 c13a
00000040: 93b3 3a3a 29f0 a2ba 1fcb b6ba d679 053a
00000050: 4913 adba b93e cab9 b563 0eba 31b0 a23a
00000060: 5932 11bb 9878 873a ee24 ef3a 0923 5d3a
00000070: 4578 443b 5039 fc39 b876 23bb b8a1 b239
00000080: 2811 803a 0d6f aeba 25a5 4339 c0d8 88b6
00000090: f9f0 a03a 95a8 a33a 5cb6 ffba 6d48 c2b9
000000a0: 26ad 14bb a2df aeba 06cb 3f3b 99a1 4337
000000b0: 4832 8bba c164 df3a a2d8 ddba dfc2 733a
000000c0: 4fd5 3d3b 021d 8cba 2a59 bd39 dab3 013a
000000d0: 3637 9b3a 1b74 763a cb25 11b8 ce85 823a
000000e0: 3cc5 973a 645e aa3a 4840 1637 fd98 92b9
000000f0: aa19 d53a 0fa7 c9b9 a1e4 b63a 95e1 5d39
00000100: 0bcc 243a f5ca c238 d416 29bb 2612 323b
00000110: 2db5 e33a 8519 7339 cdda fcb9 056a b03b
00000120: d03a 2dbb 7c41 bc39 06e8 063a 4a19 90b9
00000130: 9cd7 29ba a090 02bb 3496 8f3a a0d5 8bba
00000140: a80d 1c3a 4b2e 953a c0e9 733b 1138 9eba
00000150: 38a9 ceb9 3c0c cbba b5f0 093b 6a04 9639
00000160: 1dff 20b9 2cfb 383a 1a75 613a 7b81 1bbb
00000170: 219a 8339 86bb 213b ffb4 20b7 ed4a 10bb
00000180: 10c0 d13a c8f3 aaba fc21 feb9 e803 f7ba
00000190: 6dd5 8fba 4da5 66bb 9396 6c36 f47a 0aba
000001a0: d48f 80b9 5289 98ba 97dd 99ba eed3 8fba
000001b0: c141 dfb9 347d 2139 789c 7c3b 5eee f5b8
000001c0: 2728 923a e68c 01ba dbe7 2eba b5a0 1f3a
000001d0: 3f73 a4ba 7f7f 3439 bf2e 303a 945e 8339
000001e0: db2f 133a 50df ee3a c7c3 0dbb beb5 fd3a
000001f0: 9f18 bfba 2811 acb9 f231 2b3b 1653 a3b9
00000200: be93 9939 aab7 fdba 42a6 80ba 9399 3f3b
00000210: f387 263b a9a3 16bb 90da da38 e042 16ba
00000220: e65b 3dba e99f 17bb eb81 1fba 677b 20bb
00000230: b05a e7ba e881 bc3a 066e a03a 4341 5d39
00000240: 9c81 05bb 8934 5cba fe7a a03a 399e 2439
00000250: 3b11 abb9 5ef3 de39 f289 01bb a0bb b8ba
00000260: 543d b9b9 8f41 d13a 51e5 4dba fb70 b8b9
00000270: 2109 513a b5d1 18ba 87d5 153a f189 c43a
00000280: 6044 42bb 8b20 bd3a 2a9b b4b9 aac2 91ba
00000290: ed25 0a3a 691d 36bb 057c aaba 884b 16ba
000002a0: 120a 18bb 5f1f 4fb8 d7cd 6239 69ef 20ba
000002b0: e225 0e3a 3a1a aeb9 20e2 863a 4616 3d39
000002c0: a76a 8eba 4337 77ba aa2e 393b 92e3 053a
000002d0: a939 46ba f177 c039 b072 a73a 07d8 ad3a
000002e0: b3db e639 05ca 7bba ea9e fe39 8d0d 9a39
000002f0: 4492 163a 934c 9939 53e2 f1ba e8bd c33a
00000300: 68c4 22bb a435 2eba a2d4 f1ba ed1e a83a
00000310: 42f1 48b9 0156 643a 9d6c 0bba 3e14 403b
00000320: ea7f 61ba 7966 0bbb d97c c33a 0111 573a
00000330: 81d9 ef38 eb33 bcba 8dc8 e13a 3f8f ed38
00000340: 003b 943b 1dd0 8939 3c5f ec39 1b7a 443b
00000350: 6e00 8eba 0359 963b 38e6 413a 0683 f1b8
00000360: fe00 1bbb 55c6 cb39 887a 9e39 5354 f93a
00000370: 14ae ad39 c21e 203b f65e ecba 0c37 db3a
00000380: 312c 943a e274 3bbb e4e2 7f3a 51a0 343a
00000390: 7060 af38 a269 c2ba 0bfc e2ba a095 cdba
000003a0: fd2c abb9 4b3e d039 587e 5639 1090 773a
000003b0: 6f1c 86bb d915 343a 0758 4f3a e72e d53a
000003c0: 8b09 31b9 6208 92ba c82e 6f3a 20f2 f539
000003d0: 9e38 823b f5b9 adb9 d3e2 01bb 3926 ea39
000003e0: b185 d239 8e2c c539 f9cb 55ba 9269 5dbb
000003f0: 20dc 233b 52c6 273b 8560 b6b9 3d34 0ebb
-0.0020421694 7.2804956e-05 -0.001054758 0.0014228633 -0.0009827767 -0.0015573232 0.00019846203 -0.0006953756
0.00025889548 0.0027422723 -0.0013788679 0.0008890501 -0.0014625293 0.0010556417 0.0008814435 0.0014739772
0.00071220956 -0.0012431192 -0.0013946033 0.00050917023 -0.00132046 -0.00038575174 -0.00054317276 0.0012412128
-0.0022155254 0.0010335622 0.0018245259 0.00084357016 0.0029978913 0.00048107887 -0.0024942588 0.00034071296
0.0009770738 -0.0013308242 0.0001865817 -4.078349e-06 0.0012278847 0.0012486154 -0.0019509303 -0.00037056525
-0.0022686212 -0.0013341794 0.0029265299 1.1660531e-05 -0.0010619843 0.0017043577 -0.0016925524 0.00092987524
0.0028966253 -0.0010689797 0.00036115322 0.00049477594 0.0011842016 0.00094014563 -3.460589e-05 0.000995809
0.0011579166 0.0012998101 8.955663e-06 -0.00027961275 0.0016258259 -0.00038462176 0.0013953635 0.00021160238
0.0006286508 9.2884446e-05 -0.002580096 0.0027171462 0.001737272 0.00023183793 -0.00048228205 0.0053837323
-0.002643276 0.00035906944 0.00051462685 -0.00027484662 -0.00064789667 -0.001992263 0.0010954798 -0.0010668524
0.00059529627 0.0011381594 0.0037218183 -0.0012071152 -0.0003941746 -0.0015491317 0.0021048014 0.00028613518
-0.00015353826 0.00070564705 0.00086005183 -0.00237283 0.00025101102 0.0024678423 -9.578885e-06 -0.0022017315
0.0016002674 -0.0013042623 -0.00048471976 -0.0018845769 -0.001097364 -0.0035193742 3.5254386e-06 -0.00052826037
-0.00024521223 -0.0011637604 -0.0011739013 -0.0010973194 -0.00042582865 0.00015400798 0.003854541 -0.0001172691
0.0011150882 -0.0004941955 -0.00066721224 0.0006089316 -0.0012546553 0.00017213634 0.0006720833 0.00025056733
0.0005614736 0.0018224511 -0.0021631585 0.0019356532 -0.0014579481 -0.0003281918 0.00261223 -0.00031151687
0.0002929251 -0.0019357104 -0.0009815174 0.0029235824 0.0025410622 -0.0022985733 0.000104357605 -0.0005732011
-0.0007223472 -0.0023136085 -0.0006084728 -0.0024487616 -0.0017650928 0.0014381977 0.0012239821 0.00021100514
-0.0020371443 -0.00084001623 0.0012243686 0.00015699201 -0.000326285 0.00042524462 -0.001976606 -0.0014094003
-0.00035331643 0.0015964973 -0.00078543 -0.00035179392 0.00079740776 -0.00058295886 0.0005715717 0.0014994723
-0.0029642805 0.0014429254 -0.00034447882 -0.0011120636 0.00052699336 -0.0027788526 -0.0013006931 -0.0005733301
-0.0023199362 -4.9381862e-05 0.00021629721 -0.00061391905 0.0005422515 -0.00033207407 0.0010290779 0.00018032742
-0.0010865525 -0.0009430537 0.0028256574 0.0005107458 -0.00075616926 0.00036710457 0.0012775268 0.0013263234
0.00044032707 -0.00096049934 0.00048565055 0.00029383265 0.0005743841 0.00029239486 -0.0018454291 0.0014933916
-0.0024836306 -0.00066455663 -0.001845021 0.0012826599 -0.00019163362 0.00087103253 -0.0005318614 0.002930894
-0.00086021295 -0.0021270795 0.0014914527 0.0008204133 0.00011436921 -0.0014358734 0.0017225906 0.00011327722
0.004523635 0.00026285733 0.00045084383 0.0029980007 -0.0010833868 0.0045882477 0.0007396671 -0.000115161805
-0.0023651714 0.00038866946 0.000302274 0.0019022323 0.0003312683 0.0024432396 -0.0018033672 0.0016724779
0.0011304674 -0.0028603603 0.00097612874 0.0006890344 8.362613e-05 -0.0014832506 -0.0017317546 -0.001568485
-0.0003264918 0.00039719263 0.00020455697 0.0009443769 -0.004092745 0.00068697106 0.00079095404 0.0016264588
-0.0001688359 -0.0011141414 0.00091240974 0.0004691044 0.0039740345 -0.0003313568 -0.0019819036 0.00044660436
0.0004015393 0.00037607964 -0.00081556995 -0.0033784849 0.002500303 0.0025600386 -0.00034785658 -0.0021698617
