js_code/data/steered_with_inoc_vector_coef_1/lora_snapshots/step_000125/base_model_model_model_layers_24_A_and_B.pt (torch, 77997 bytes, 2 tensors)

A f4 [1, 13824]
000000 87 dc 83 bb 02 06 8d bb d8 bf 1b 3c 69 e6 92 3b
       -0.0040240916 -0.0043036947 0.009506188 0.0044830334
000010 28 34 09 bc ac d9 0d bc 74 c4 0c 3b 37 09 47 bb
       -0.008374251 -0.008657854 0.00214794 -0.0030370483
000020 64 3a 03 3a 34 5f cb ba 58 02 1b bb e3 37 07 3c
       0.00050059543 -0.0015516044 -0.002365252 0.0082530705
000030 d3 d1 ea 3a 54 c3 a2 3a df cc f6 bb 19 e0 32 bb
       0.0017915316 0.0012417831 -0.0075317468 -0.0027294217
000040 08 a8 4d 3b 52 74 74 3b 5a a5 0b 3a 96 2d f7 bb
       0.0031380672 0.0037300778 0.00053270685 -0.007543276
000050 0a 94 b4 bb 7c 17 1a 3c 3c 9e fd 3b 2e 55 b2 3b
       -0.0055108117 0.009405013 0.0077398103 0.005442283
000060 61 b6 bb bb bc 75 b7 bb 5c 46 2b 3b 63 fd 04 bc
       -0.0057285284 -0.005598752 0.0026134467 -0.008117053
000070 3b 8b ec b9 80 06 42 3b b1 a3 91 3b 47 d2 ab 3b
       -0.00045117163 0.0029605925 0.0044445624 0.005243573
000080 a3 2d cf 3a d3 20 99 3b 38 2d 1c bc 67 49 b1 bb
       0.0015806447 0.0046731024 -0.009532265 -0.0054103616
000090 6a ec 70 bb 23 67 c3 3b 30 c1 ec bb 68 50 b6 3b
       -0.0036762008 0.0059632226 -0.007225178 0.0055637844
0000a0 49 cb bc bb 28 23 6a bb d0 37 a9 3b 58 1b fa 3b
       -0.005761538 -0.0035726521 0.005164124 0.007632654
0000b0 c5 cd 12 3b b2 30 44 bb d0 56 e1 3b a2 80 30 3a
       0.002240048 -0.0029936251 0.006876804 0.0006733035
0000c0 91 3d c7 3b 23 6f 65 3b b6 4c a1 ba dd 3b de 3b
       0.0060803373 0.003500887 -0.0012306187 0.0067820386
0000d0 f2 b4 a1 3b ec 0c e6 3b b1 b6 13 3c 22 08 2d 3b
       0.0049349004 0.0070205834 0.009015725 0.0026402553
0000e0 25 da 99 bb 6e 4c d3 ba 4f 26 9a b9 6a b4 ea ba
       -0.0046951943 -0.00161208 -0.0002940171 -0.0017906551
0000f0 1a 89 c6 b8 bc 03 1c 3c d5 7d 99 3b 5f a1 5e 3b
       -9.466913e-05 0.009522375 0.00468419 0.0033970696
000100 16 95 b2 3b d7 c8 a1 bb d8 c8 91 3b 15 71 d3 3b
       0.0054499013 -0.004937272 0.0044489913 0.0064526894
000110 c4 78 f9 3a 5c 2d c3 b5 ba cb 00 3c 2e 03 04 bc
       0.0019033183 -1.4541833e-06 0.007861072 -0.008057399
000120 e4 ed a4 3b 91 dc 24 ba 6c 7c da bb ca 02 bd 3b
       0.0050332416 -0.00062889705 -0.0066676643 0.0057681547
000130 e6 02 31 bb b5 4e 6e ba 4f 5f 3d bb 0c 21 7b bb
       -0.0027009784 -0.0009090708 -0.002889592 -0.0038319258
000140 d3 d6 1a bb 05 77 19 bc 11 b2 a8 3b 66 99 94 3a
       -0.002362658 -0.009366755 0.0051481803 0.001133722
000150 ca 68 0e 3b e5 64 15 3c 79 3e 3a bb a0 f6 8e bb
       0.002172994 0.009118293 -0.0028418584 -0.004362896
000160 87 61 91 bb 51 f6 07 bb d9 a6 f7 b9 30 e5 66 3b
       -0.004436675 -0.0020746181 -0.00047235822 0.0035231821
000170 46 80 a4 b9 39 a0 23 3b 1d 61 ad bb dc 6c 01 bc
       -0.0003137609 0.0024967326 -0.005291118 -0.007899489
000180 92 fb 23 ba eb 85 e2 3a f7 96 a5 bb 77 cd 06 bb
       -0.00062554434 0.0017282342 -0.005053397 -0.0020569244
000190 8b f0 24 bb 81 3e 0c bc d5 55 12 3c d5 f3 aa 3b
       -0.002516779 -0.008559824 0.008931597 0.0052170553
0001a0 52 88 b7 bb 5f 7e ea bb 54 32 06 3c 41 83 c7 3b
       -0.0056009674 -0.007156178 0.00819071 0.0060886447
0001b0 89 e3 d6 bb 60 ee 37 3b e4 5e d6 bb d0 37 e7 bb
       -0.006557886 0.0028065667 -0.0065420736 -0.007056214
0001c0 0b 0f ec bb 6d c8 a6 3a 23 8a 00 3c 4a fd a0 3b
       -0.0072039417 0.0012724526 0.007845434 0.004913007
0001d0 5e 6f e7 bb 06 e6 b3 3b 9b 6b 0d 3c d7 a7 a4 3b
       -0.0070628366 0.0054900674 0.008631612 0.005024891
0001e0 b5 39 e5 3b 16 c5 c4 bb d6 bb 57 bb 87 14 b8 3b
       0.0069954046 -0.00600494 -0.0032918355 0.0056176814
0001f0 c0 77 fd bb 7e c4 b5 ba 65 af a7 3b 84 95 64 3b
       -0.0077352226 -0.0013867763 0.005117344 0.0034879157
000200 96 ae 51 bb d3 d2 07 3b 46 a2 a3 bb f0 b2 6e bb
       -0.003199493 0.0020725026 -0.0049937097 -0.0036422573
000210 f4 7a ee 3a 09 ad 55 bb 71 5c 9e 3b 28 0a 9b 3b
       0.0018194602 -0.0032604358 0.004832797 0.0047314353
000220 72 31 87 3b 0a 40 e8 3b bf d9 9b 3a 4d ca 06 bb
       0.0041257674 0.007087712 0.0011890455 -0.0020567358
000230 6d 6f 02 bc 71 ee c5 ba b3 1f c9 bb d3 75 7c 3b
       -0.007961136 -0.0015100968 -0.006137812 0.0038522377
000240 c5 5a a5 b9 ae 01 99 bb ea ff 29 3a db cf b4 3b
       -0.0003153888 -0.0046693897 0.00064849725 0.0055179424
000250 6c 5e 33 bb 61 c6 06 3b db fb 8a b9 69 05 af ba
       -0.0027369512 0.002056502 -0.00026509058 -0.0013353053
000260 86 52 ac ba f9 a5 0a 3b c7 de e6 ba 8a ab bd bb
       -0.0013147152 0.0021156056 -0.0017614 -0.0057882713
000270 b4 8e 3c 3b b5 03 c4 bb 5f 21 af bb 0d de a1 3a
       0.002877158 -0.005981887 -0.0053445543 0.0012349501
000280 9e a3 4c 3b 53 c8 5e bb d7 37 85 bb f6 8b a1 3b
       0.0031225453 -0.0033993914 -0.0040654945 0.0049300147
000290 cc 51 89 bb b4 d0 8f 3a 2b 5a c3 3a 13 b1 54 3a
       -0.004190659 0.0010972233 0.0014904191 0.00081135443
0002a0 bf a9 53 bb 5e 80 7c b9 16 58 7f bb 4f df d8 3b
       -0.0032297221 -0.00024080413 -0.0038962415 0.0066184173
0002b0 86 2a 02 3a 3f e6 93 bb 0b e1 ba bb 3e 55 25 3b
       0.0004965443 -0.0045135315 -0.0057030967 0.002522781
0002c0 38 8e 8f bb a7 a1 32 3b 18 be a4 3a 32 95 08 bc
       -0.0043809675 0.0027256997 0.0012568859 -0.008336352
0002d0 7d 34 d0 3b 52 f1 0d 3b c9 75 0a 3b 4e 28 5f bb
       0.0063539133 0.002165873 0.0021127334 -0.0034051123
0002e0 07 fd 0a bc 46 e9 3a 3b 48 ca f6 bb cc b5 44 3b
       -0.008483178 0.002852039 -0.007531438 0.0030015586
0002f0 12 eb ce 3b 16 7a 5b b8 e7 6a c2 bb 5a 40 be 3b
       0.0063146437 -5.232737e-05 -0.005933154 0.005806011
000300 ad a3 ed bb b1 0f 31 bb db b8 ef bb 9c 1d 29 3b
       -0.0072521777 -0.002701741 -0.0073157377 0.0025805002
000310 40 51 0c 3c a5 93 d1 bb f2 b8 c6 bb 32 70 be 3b
       0.008564293 -0.0063957744 -0.0060645277 0.0058117146
000320 5e 82 af 3b f3 03 9e 3b 7b 98 a7 bb 28 6a 0d 3c
       0.005356117 0.004822248 -0.0051146126 0.008631267
000330 2c ad 07 bb 77 98 74 bb 96 4a 01 bb 54 8f c6 3a
       -0.0020702584 -0.0037322321 -0.0019728295 0.0015148916
000340 1c ce 81 3b 58 22 30 bb d0 54 98 bb a0 12 74 39
       0.0039613377 -0.002687594 -0.0046487823 0.00023276592
000350 14 a5 0e bc a2 f5 fc bb 77 60 11 3a 10 79 cf 3b
       -0.00870635 -0.0077197114 0.00055456854 0.0063315704
000360 25 d0 ad bb 41 19 76 3b 52 e3 8f bb a6 dc f4 ba
       -0.005304354 0.0037551674 -0.0043911124 -0.0018681481
000370 49 95 ef 3b 97 bc 96 3a d3 21 98 bb a6 d1 9f bb
       0.0073114973 0.0011500296 -0.004642704 -0.004877287
000380 30 66 b7 3a 31 49 8d 3b a7 af af 3b 03 4f d6 3a
       0.0013992246 0.0043117036 0.0053615156 0.0016350452
000390 89 96 a5 bb e3 15 9c 3b 6d f5 05 bc 23 92 34 39
       -0.0050533456 0.0047633513 -0.00817619 0.00017220578
0003a0 57 50 fd bb 43 e1 16 bb 01 dd 87 3a ea 12 c4 3b
       -0.0077305245 -0.002302245 0.0010365547 0.0059837
0003b0 a5 75 76 3a 09 49 93 bb 05 86 a1 3b 0d 09 96 3a
       0.00094016857 -0.0044947905 0.0049293065 0.0011446789
0003c0 39 73 ce bb 4e 1a 08 bc 88 7f 0c 3a 4c a0 7a bb
       -0.0063003567 -0.008307053 0.000535958 -0.0038242517
0003d0 cb 46 0f bb 9f 8d ba bb 8d a2 c3 bb 58 d2 94 bb
       -0.0021862264 -0.005693152 -0.0059703053 -0.0045416765
0003e0 fa 20 96 b9 93 06 86 39 28 fb a4 3b 22 aa 01 bc
       -0.000286348 0.0002556337 0.005034823 -0.007914098
0003f0 90 67 d2 3b f9 8e ee 3b d4 e6 0f bc 78 17 92 3b
       0.006421037 0.0072802273 -0.008783061 0.004458364

B f4 [5120, 1]
000000 8d 94 3f 3a ff 99 e8 39 b5 6b e5 b9 83 3c 9b ba
       0.00073082076 0.00044365224 -0.00043758532 -0.0011843595
000010 25 51 72 3a 7a c3 99 3a 71 b1 1a ba 24 d4 f7 b9
       0.0009243659 0.001173123 -0.00059010746 -0.00047269568
000020 8c 95 61 3a 9a 1c 74 b8 67 d2 61 39 e5 20 5e 3a
       0.0008605353 -5.820077e-05 0.00021536053 0.00084735296
000030 17 63 89 3a 47 19 00 39 82 ea 17 ba f5 82 70 ba
       0.0010481802 0.00012216448 -0.0005795137 -0.00091747876
000040 96 39 69 b9 6d 5b 04 3a b7 2a 8f ba 4f db 3a ba
       -0.00022242064 0.0005049024 -0.0010922764 -0.00071280164
000050 5d ad 50 3a 83 11 57 3a bb 06 3f 3a 27 37 93 ba
       0.00079604035 0.00082042086 0.00072870747 -0.0011231647
000060 c8 2d 05 39 b8 b6 51 b9 8a d9 70 3a 47 69 65 3a
       0.00012700923 -0.00019999861 0.0009187689 0.0008751344
000070 fe 26 60 b9 57 06 f9 39 c4 09 13 39 8a 43 5f ba
       -0.0002137683 0.00047497705 0.0001402265 -0.0008516839
000080 b8 c6 7c ba 52 2b e1 39 b3 2f 40 3a 1a 02 3d ba
       -0.00096426485 0.0004294762 0.00073313265 -0.0007210091
000090 c6 21 b8 b9 18 c6 d9 39 26 9e 89 3a 7f 3b 44 38
       -0.00035120378 0.00041537057 0.0010499402 4.678545e-05
0000a0 ed 9b 50 3a f3 d1 33 ba 59 ea 42 3a 5d 0a 1d ba
       0.0007957805 -0.0006859593 0.0007435433 -0.0005990619
0000b0 16 3f 89 ba 86 e6 86 ba d7 3f 87 3a 30 82 77 3a
       -0.0010471072 -0.001029209 0.0010318708 0.00094417017
0000c0 6e 3e 23 3a 06 aa a6 b8 5e 40 34 ba 35 9c 6a 3a
       0.00062272593 -7.947166e-05 -0.00068760465 0.0008949668
0000d0 ed 8d 01 36 09 38 2a 3a 1d ee 52 3a 1c 03 45 ba
       1.930511e-06 0.0006493335 0.0008046346 -0.0007515417
0000e0 bc 73 5e ba 49 f1 77 ba 1b cd e7 39 7a 43 78 ba
       -0.00084858737 -0.00094582565 0.0004421257 -0.0009470504
0000f0 42 cd f5 39 49 b6 3b ba 61 ca d5 b9 40 16 7b 38
       0.0004688297 -0.00071606465 -0.0004077731 5.9863785e-05
000100 a1 de 8a 3a e9 be 4d ba a9 6c 0a 39 65 a8 3d b9
       0.0010594913 -0.0007848577 0.00013201185 -0.00018087176
000110 7e 66 99 ba 73 9b b0 37 c5 30 4b ba 27 29 e0 39
       -0.0011703519 2.1053222e-05 -0.00077511027 0.0004275527
000120 8e b0 e8 39 55 ec 74 39 7e 9a 0c 39 37 3b f4 36
       0.00044382032 0.00023357694 0.00013408993 7.27866e-06
000130 ea 07 68 3a 8b fb 54 3a ed 42 d6 b9 47 26 32 3a
       0.0008851277 0.0008124641 -0.00040867124 0.0006795865
000140 33 84 55 3a ab 6d 8a b9 c9 f4 34 ba 25 a3 44 3a
       0.00081450044 -0.0002640312 -0.0006902931 0.0007501117
000150 04 b7 f0 b9 f5 3d 87 3a 11 f4 66 ba 36 9e 8d ba
       -0.00045912724 0.0010318147 -0.00088101724 -0.0010804597
000160 db d0 51 b9 cf 22 99 ba b2 4e 5c ba 22 bc 79 ba
       -0.00020009598 -0.0011683347 -0.00084040605 -0.000952663
000170 c1 99 31 3a 09 bc 57 ba b6 d2 42 ba 9d 83 86 3a
       0.0006774925 -0.00082296185 -0.0007431911 0.0010262612
000180 a7 1b 70 ba 74 41 fe b9 59 08 01 3a f2 3e 93 3a
       -0.0009159394 -0.00048495422 0.00049222034 0.0011233969
000190 12 7c db 39 de 87 52 3a a6 fe b2 39 76 5b 8d ba
       0.00041863375 0.000803111 0.00034140534 -0.0010784704
0001a0 43 18 3a 3a 9d 55 2f 38 7d 94 4c 39 bf d2 8a ba
       0.0007098952 4.1802985e-05 0.00019510272 -0.0010591372
0001b0 c3 69 5c b9 82 ab 22 b9 66 f9 24 3a f7 78 9e 3a
       -0.00021020234 -0.00015513416 0.0006293267 0.0012090494
0001c0 c5 50 9f b8 24 d1 0e ba b7 ff 63 3a 1c b5 57 3a
       -7.596755e-05 -0.00054480345 0.0008697467 0.00082285865
0001d0 cd 2b 51 ba c1 40 92 3a 28 9e 14 3a be 64 1c 3a
       -0.0007979244 0.0011158214 0.0005669319 0.00059659395
0001e0 08 b8 38 ba 07 44 49 ba 20 56 79 ba ad 4f 63 3a
       -0.0007046466 -0.00076776784 -0.000951143 0.00086712354
0001f0 5f e6 4f 39 ec e2 82 ba 31 ef 92 ba 0b af 6d 3a
       0.00019826878 -0.0009985841 -0.0011210201 0.0009066916
000200 d5 86 ed b9 25 26 23 b9 7d be fb 38 c6 e7 7c ba
       -0.0004530462 -0.00015559101 0.00012004094 -0.0009647574
000210 3a 28 3d 3a 95 8a b6 b9 bd 67 d0 39 ec 4e 10 39
       0.0007215772 -0.00034816997 0.00039750143 0.00013762311
000220 43 c5 44 ba 14 97 86 3a 83 b6 7e 39 0d 53 34 ba
       -0.0007506201 0.0010268413 0.00024291319 -0.00068788306
000230 2f 2b 85 3a 5c 06 81 ba c1 01 34 3a cf 3f 80 ba
       0.0010159964 -0.0009843814 0.00068667164 -0.0009784641
000240 6a f2 04 3a 67 4b 05 ba e8 b1 56 ba 94 5e 55 ba
       0.0005071523 -0.0005084783 -0.0008189962 -0.00081393984
000250 e7 ee 61 3a 03 1a 85 ba c7 78 ce 39 4e 24 dd 39
       0.0008618668 -0.0010154847 0.00039381368 0.00042179454
000260 79 18 85 3a a7 b0 3a ba 81 0c 23 3a b8 f4 4a 3a
       0.0010154388 -0.000712166 0.000621982 0.00077421544
000270 08 5a 4c b9 cb 99 27 3a ef 1f 4f ba e6 46 21 39
       -0.00019488495 0.00063934614 -0.0007901182 0.00015380568
000280 e9 61 fa 39 10 e0 50 3a 75 18 22 ba 79 01 33 ba
       0.00047756665 0.0007967958 -0.0006183454 -0.00068285275
000290 3c e2 2c 3a d8 27 70 ba 26 a7 72 ba 6d 20 80 3a
       0.0006594991 -0.00091612106 -0.00092564744 0.0009775289
0002a0 f0 52 35 3a f2 e2 c7 39 0d 72 b8 b8 39 2e 02 3a
       0.00069169607 0.00038125325 -8.795047e-05 0.0004965994
0002b0 25 c7 d4 b8 a4 dc a6 b9 d5 5b 9f ba 91 dd a3 b8
       -0.00010146041 -0.00031826377 -0.0012158105 -7.813716e-05
0002c0 e3 0b 13 3a 22 98 37 ba b6 fd 7d ba e8 d8 27 3a
       0.0005609376 -0.00070035656 -0.000968899 0.0006402866
0002d0 a9 3a 87 ba f9 1d ad b9 33 ee 59 3a 3a 13 a1 b9
       -0.0010317165 -0.00033019463 0.00083133875 -0.00030722638
0002e0 87 68 47 3a db f8 81 3a 41 1d 83 ba bc 0e a3 b9
       0.00076068233 0.0009916084 -0.0010003225 -0.0003110076
0002f0 a1 d4 65 ba c9 29 50 ba de fd ea 38 16 04 91 3a
       -0.0008767341 -0.0007940797 0.00011205276 0.001106384
000300 a3 a2 31 3a d4 21 86 3a b6 a6 06 3a 72 eb 0b ba
       0.0006776249 0.001023347 0.0005136536 -0.0005337513
000310 89 3e 18 b9 90 ab 80 3a b8 04 86 ba a7 aa 3f 37
       -0.00014519146 0.0009816755 -0.0010224795 1.142422e-05
000320 56 d1 37 ba 60 e1 52 3a b4 9f 14 ba 66 ab 78 ba
       -0.00070120895 0.0008044448 -0.00056695496 -0.00094859896
000330 1b d9 63 ba cc a0 51 3a 61 83 13 ba 47 65 83 ba
       -0.0008691714 0.0007996678 -0.0005627182 -0.001002469
000340 c2 1a 78 ba 6d f7 70 ba 34 3d 76 3a 44 f8 26 3a
       -0.00094644364 -0.0009192143 0.0009393275 0.0006369392
000350 27 bc 71 3a d9 b5 7f ba cd 67 e1 38 af 6d bc 39
       0.00092214573 -0.00097545754 0.000107481705 0.00035939875
000360 c6 8c 86 ba 44 03 3f 3a 2f 57 84 ba f8 ad 8f 39
       -0.0010265342 0.00072865584 -0.0010096784 0.00027404702
000370 fb 3a 60 ba 5f 5c 71 ba 15 c8 84 3a da 71 89 38
       -0.00085537106 -0.0009207185 0.001013043 6.5538756e-05
000380 07 9e 87 ba 01 30 02 ba ab 00 98 38 83 e5 63 b9
       -0.0010346778 -0.00049662596 7.248049e-05 -0.00021733907
000390 09 c3 5f ba c8 b3 c8 b9 1a 26 90 ba 53 cd 4f 3a
       -0.00085358374 -0.0003828092 -0.0010997683 0.0007927019
0003a0 da 15 69 b8 00 3a 4b 3a ce d9 6d 3a f6 f4 94 b8
       -5.557188e-05 0.0007752478 0.0009073288 -7.1028175e-05
0003b0 86 6c 2b 3a 13 b7 4f 3a 46 71 14 3a d4 4e 76 3a
       0.00065393036 0.00079237035 0.0005662631 0.00093959016
0003c0 dd 2f f5 b9 70 ef 61 3a 27 a6 79 ba 12 92 e1 b9
       -0.00046765702 0.0008618748 -0.0009523355 -0.00043024175
0003d0 2b 16 2a 3a c3 72 8b 3a f2 9e 71 ba c5 95 2d ba
       0.00064882886 0.001063906 -0.0009217105 -0.00066217437
0003e0 53 7c e4 39 74 22 ad 39 ee 2b 23 3a 3c 1b 9b ba
       0.00043580178 0.000330228 0.00062245026 -0.0011833678
0003f0 05 5f 30 ba bb 98 9c ba 85 41 52 3a fa b7 20 ba
       -0.0006728026 -0.0011947373 0.00080206274 -0.000613093
