lora_snapshots_kl_divergence/step_000600/base_model_model_model_layers_24_A_and_B.pt (torch, 77997 bytes, 2 tensors)

A f4 [1, 13824]
00000000: d9d4 22bc 02e5 1ebb 5bfc 933b fe07 9dba
00000010: dfba ecba a1c6 d2bb fa05 fc3b 7780 efbb
00000020: 46b4 7b3a 2050 013c ec42 36bb ec01 e93b
00000030: a305 b03b d326 9abb 6ae1 39bb a849 40bc
00000040: 3f2c 1c3c 95a9 083b 1875 a2bb a36e e13b
00000050: 3eb2 7bbb a4aa 103b d1d5 ae3a 45b1 d93b
00000060: 8af1 fcbb fbda 0abc 8c4d 10bc 1680 e93b
00000070: acd6 a63b 5a78 2e3c 13f6 6b39 05b6 0fbb
00000080: 4708 7abb 1aed 0abc 5fe1 b9ba 9200 69bb
00000090: faf8 9bba 6410 dabb 7416 02bc fddd 47bb
000000a0: 6548 20bc 9d8a f8b9 5e8f de3a c401 bc3b
000000b0: 8e3f dd3b 21aa d83b c7d5 dfbb f5e7 08bb
000000c0: e541 f8bb dc6c a639 80a3 093c fe84 d8bb
000000d0: 88a2 443b 2f33 84bb 7592 a2bb 7a08 88ba
000000e0: ce06 4aba 8c95 46bc 2087 cabb 2747 173b
000000f0: 793a 38bb 1abd c23b 5fce b03b 9ec9 bf3b
00000100: cff8 ec3a 5742 53bc ac55 ba3b 5e18 063b
00000110: 6533 9c3b b56d b9bb 2236 b73b 7711 afbb
00000120: 9e49 1d3c 3939 ec3b c523 343b 1a61 233b
00000130: 14cf 07bc 5335 04ba f035 a63a fb16 aeb8
00000140: 8fb9 71bb bd34 f53b 0432 c5bb 557d 5f3b
00000150: aec9 923b 3393 993a d9ec 52bb bdad ac3b
00000160: 43ed 2e3a 0291 0bb9 cf82 aabb c8f3 043b
00000170: d56b 6cbb 9009 bb3b 1db2 6f3b 37b8 dfbb
00000180: 9778 27ba 5e74 93bb 113f dd3a 59b4 c53b
00000190: b30b b33b 0186 313b 0dc1 01bb 72d2 dbba
000001a0: bc20 39bb 3bf1 a23b 4705 733b dbfe 0dbc
000001b0: 67cf 083c 8d39 393c 9a92 60bb c08d a43b
000001c0: f313 7cbb 6bd6 dd3b 0654 a4bb fbf8 e63b
000001d0: 008f 233c 3666 cf3b 81b2 cbbb 29c2 86b9
000001e0: f102 c53a ca84 a8bb 4056 0739 8288 a13a
000001f0: 7eae 5e3c 5f03 d23a 1ff0 c2bb 35a1 70b9
00000200: 3875 473b 9684 363c 94ca cdbb 39a5 a4bb
00000210: 5bd9 02bc 88dc d73a 9413 74bb d38d 083c
00000220: 4284 72bb 6d4c 683b d1b2 ccba 5e33 75ba
00000230: 7acc 293b 91f9 003c 3ff4 d2bb edcf e23b
00000240: 984c 94bb 47ee 39ba bb5b 443a 9463 223c
00000250: 98f4 04ba e4ba f83a 24bf da3b 2248 823b
00000260: 23ef 553b fce6 abbb 341a e8bb 728f 8bbb
00000270: d4b2 673b 4acd 113b 15ee a83b 2bcb 04bc
00000280: 7609 b03b bedc 94bb 0caf 20bc b676 ea39
00000290: be53 7ebb 7ee6 07bc add5 1a3b 5c24 1c3b
000002a0: 4ed5 fcbb f3f0 a0ba 6e2e 5e3b 47ba 133c
000002b0: 9ccc c9bb 1593 19bb f973 92bb 86d8 0dbc
000002c0: b14a 07ba 9497 8a3b 1615 f13b 279d 3cba
000002d0: 0fe0 54bb 1073 70bb 9617 45bb 7428 ca3b
000002e0: c767 ee3b c524 aabb ed5a 28bc ae0a 0f3a
000002f0: da46 5eba d85b bd3a 4c8f 023c 72c4 4bbb
00000300: 7710 98bb 0669 23bb 7df7 fc3a 39e8 093b
00000310: 58cf 30bb bb19 dabb 70cd 933b e033 d5bb
00000320: c17a e63b c992 883b ca75 8e39 9b27 f83b
00000330: b47e 69bb 313b 04ba b38d 83bb f566 09bc
00000340: 5f4c 1c3c 2dc5 933b 0a59 b9ba d6a0 093c
00000350: 3b2d 323b 5797 213c 8598 10bb 17cf bf3a
00000360: 8014 a83b 3ce4 1c3b 757d 0b3c 2a1c 08bc
00000370: 3b6d 3aba 8375 84bb 51f1 1e3c fbb9 2dbb
00000380: 6c8a b039 c149 db3b a0fb d03b 40e6 40bb
00000390: e69c 963b 3e66 313c 0a77 c5ba 093b d63b
000003a0: 5236 ffbb bd82 2c3b 443f 343c 69a9 d43a
000003b0: 797d 483b e840 913b fa17 e7ba 7aaf 36bb
000003c0: 1322 073c 5454 b6bb ede3 a73b 09b9 c83b
000003d0: 681f 8ebb 323d e0bb 7e95 9a3a e212 153c
000003e0: d322 9bbb 22a8 cd3b 8907 ad3b 318c 723b
000003f0: e254 b33b 6d52 d0bb dd1d 6c3b cba0 95bb
-0.009938442 -0.0024245386 0.004516167 -0.0011980531 -0.0018061063 -0.00643237 0.007691142 -0.0073090154
0.0009601753 0.007892638 -0.0027810885 0.007110825 0.0053717657 -0.0047043352 -0.0028363117 -0.011736311
0.0095320335 0.0020853032 -0.0049578063 0.006879644 -0.0038405801 0.0022074366 0.0013338869 0.0066434466
-0.0077192234 -0.008475061 -0.008807551 0.0071258647 0.005091509 0.010648811 0.00022503016 -0.002192856
-0.0038151906 -0.008479381 -0.0014181546 -0.0035553318 -0.0011899762 -0.006654786 -0.007939924 -0.0030497306
-0.009782885 -0.0004740552 0.0016979983 0.005737515 0.006751961 0.006612078 -0.006830904 -0.002089021
-0.0075762146 0.00031743094 0.008400798 -0.006607651 0.0030004103 -0.004034422 -0.0049613067 -0.0010378503
-0.00077067025 -0.012120616 -0.006180659 0.0023083182 -0.0028111024 0.005942953 0.005395695 0.005852892
0.0018079522 -0.012894235 0.0056864824 0.0020461301 0.004766869 -0.00565883 0.00559117 -0.005342658
0.009600071 0.00720897 0.002748714 0.0024929703 -0.008289117 -0.00050433463 0.001268087 -8.301247e-05
-0.0036884283 0.0074830935 -0.006017925 0.0034101803 0.0044796085 0.0011716842 -0.003218463 0.0052697347
0.0006672928 -0.00013310093 -0.005203582 0.0020286907 -0.0036075015 0.005707927 0.003657467 -0.00682738
-0.0006388514 -0.004499956 0.0016879757 0.006033462 0.005464041 0.002708793 -0.0019798905 -0.0016771092
-0.002824827 0.0049726046 0.0037082003 -0.008666719 0.00835023 0.011305225 -0.003426707 0.0050217807
-0.003846404 0.0067699454 -0.005014899 0.0070487238 0.009982824 0.006329323 -0.0062163477 -0.00025703132
0.0015030784 -0.005142783 0.00012906734 0.0012324008 0.013591407 0.0016022733 -0.005949035 -0.00022948238
0.0030434858 0.011140009 -0.0062802527 -0.005024579 -0.007986392 0.0016468922 -0.0037243115 0.008334595
-0.0037005101 0.0035445944 -0.0015617256 -0.00093536626 0.002590923 0.007872001 -0.006437808 0.0069217593
-0.0045257322 -0.0007092696 0.00074904755 0.009911437 -0.00050718477 0.0018976596 0.006675618 0.003975884
0.0032643757 -0.0052460413 -0.007083202 -0.0042590434 0.0035354393 0.0022247606 0.0051553347 -0.00810508
0.0053722216 -0.004542916 -0.009807359 0.00044720405 -0.0038807238 -0.0082947 0.0023625896 0.0023825383
-0.0077158576 -0.001227884 0.0033902186 0.00901658 -0.0061584245 -0.0023433615 -0.0044693914 -0.00865758
-0.0005160971 0.0042294953 0.00735725 -0.00071950484 -0.0032482182 -0.0036689676 -0.0030073873 0.006169373
0.007275555 -0.0051923716 -0.010275585 0.00054566085 -0.00084791856 0.0014446927 0.007968735 -0.0031092432
-0.0046406346 -0.0024934425 0.0019299831 0.0021042957 -0.0026979055 -0.0066558993 0.004510574 -0.006506428
0.0070336764 0.004167889 0.0002717211 0.0075730807 -0.00356285 -0.00050442206 -0.0040146946 -0.008386363
0.009539693 0.004509589 -0.0014140916 0.008400163 0.0027187604 0.009862742 -0.0022063565 0.0014633861
0.005129397 0.002393975 0.008513798 -0.008307496 -0.00071116135 -0.004042329 0.009701089 -0.0026508558
0.00033672468 0.0066921418 0.0063776523 -0.0029434115 0.0045963405 0.010827599 -0.0015065384 0.0065377993
-0.007788458 0.0026323043 0.011001412 0.0016224805 0.0030592366 0.0044327863 -0.0017631047 -0.0027875588
0.00824787 -0.005564252 0.0051236064 0.0061255735 -0.00433724 -0.0068432325 0.001179382 0.00909874
-0.004734376 0.0062761465 0.0052804393 0.003700983 0.0054727653 -0.006357482 0.0036028542 -0.004566287

B f4 [5120, 1]
00000000: b77c 08bb bb9f b2b9 e200 9dba 8b53 ae3a
00000010: 376c 8fba dcc1 b0ba 4978 673a 5501 6eba
00000020: 1823 263a 6cae 263b ca5d b5ba 91c6 fc39
00000030: cc4e aaba e0fb 8e3a 6298 5e3a 148b af3a
00000040: a972 403a cc7b 83ba d80a 93ba 5129 5f3a
00000050: 8b6b beba aeae b6b9 2383 0dba 2237 093a
00000060: 5e4f 15bb 4a1a 8f3a 92d8 f83a 2ab0 2d3a
00000070: 98ac 363b 9a47 c739 01f7 16bb 0a0f 8e39
00000080: f9a3 5e3a 1dae 55ba 67e4 dbb7 e395 f3b7
00000090: 3518 963a 404f 743a 3d06 efba 69b7 00ba
000000a0: b807 1bbb ee8e b7ba f125 2b3b ce35 19b8
000000b0: 7d78 a7ba cf23 d33a ab67 feba bbfe 663a
000000c0: 070a 283b eb7e 86ba e0ab 5539 725c 043a
000000d0: 4d4c 613a 2155 623a 2ce1 a7b9 18f7 6e3a
000000e0: 928d a13a 054d 8f3a b985 4db9 207e d5b9
000000f0: 75fa d63a b38d d9b9 d977 f33a 8ebd 5b37
00000100: c9a1 563a 1e54 e436 68e2 10bb 0474 363b
00000110: e92a e33a 5af5 02b8 0c58 3eb9 897d 9e3b
00000120: 12b7 1cbb fcae f939 e423 033a 3bf5 3cb8
00000130: 5ee7 37ba a698 d0ba 21ff 743a 9a0c 93ba
00000140: 6cbb a539 809f c13a 335d 583b 16b6 c2ba
00000150: b360 02ba 67fa c2ba eee9 fd3a e2db b539
00000160: b318 12b9 dc37 3c3a e1a1 413a 3035 fbba
00000170: 23ff e139 406e 253b 8c3c 99b9 24cc 09bb
00000180: 95ca b93a 3b2c a5ba a8b7 23ba 792c d1ba
00000190: b410 abba 1953 57bb e017 5ab9 3a49 22ba
000001a0: c87f bcb8 3921 89ba 121b 64ba be60 9fba
000001b0: ddda 94b9 4942 8db8 752a 6f3b ece8 1eb9
000001c0: 2e15 8e3a 55c2 06ba 68ae 79ba e1d7 033a
000001d0: 7bc4 93ba 5eac 8db8 3ffa 463a fcf6 b939
000001e0: 34cd 3f3a ba74 fe3a 551d 08bb 11a9 013b
000001f0: 94ca b9ba b772 b7b9 4130 1a3b 74b9 f3b9
00000200: 8986 c1b9 7e8d c3ba 5799 85ba 7f6c 2f3b
00000210: 09d1 273b 1191 1abb e1ca 05b8 8f4a f1b9
00000220: c7a9 edb9 a0d1 07bb 5cb4 fdb9 9f95 23bb
00000230: ec42 d1ba 8746 b03a d568 8b3a f7ca ad39
00000240: 1328 07bb e402 29ba f1b5 ac3a dac6 93b8
00000250: ba97 bab9 d37c 4b3a eee5 f6ba bef5 c0ba
00000260: 43f5 0fba 6d06 af3a f221 6aba 455e 7fb9
00000270: 9641 223a 0893 43ba e44c 8f39 a126 bb3a
00000280: 05a2 3cbb b8a8 c13a ccee acb9 79d7 6aba
00000290: 1fdf 193a 901e 25bb 1737 89ba 0673 04ba
000002a0: a526 1bbb f96f 61b9 9195 9639 9bee 48ba
000002b0: 6073 123a 353e 6db9 f93a 8f3a 4c2a 203a
000002c0: 3fe2 9fba ba2d 5cba c736 2c3b c63c b839
000002d0: 58db 19ba ed5f d639 1870 b43a ba9e 883a
000002e0: 82e0 c339 5c87 94ba 8346 fe39 c627 0b3a
000002f0: 98ce cc39 bd86 cc39 ad2e f2ba e48a 923a
00000300: 4682 1dbb b6c2 16ba 5b63 00bb cc8e 8a3a
00000310: 19a8 27b8 7c91 2c3a 3cb0 d7b9 5baf 2e3b
00000320: ea36 4fba 3f7f f6ba 80b7 dd3a 7c37 6b3a
00000330: 454b 7239 cac1 a8ba 8c59 e13a 7f0d 7439
00000340: c857 873b 24a2 dfb8 d71d d939 4400 313b
00000350: 1b12 61ba f2de 893b 1936 6839 1cc5 0838
00000360: e653 d2ba eff0 e239 42d5 fd39 f7ee 8c3a
00000370: 1d86 9c39 4ff0 183b a66e d5ba 4d1f cb3a
00000380: 375d 873a d088 37bb ec5a 343a 5f5e fe39
00000390: 4429 8238 768e c8ba 0de6 a4ba 6091 ceba
000003a0: 2532 fbb9 0bf0 ab38 4945 4739 82b1 693a
000003b0: d257 78bb 0e81 303a 04a8 623a 9e8f 9f3a
000003c0: 3eb3 a9b9 9622 8aba 95c0 4b3a a380 233a
000003d0: 8e21 613b a060 f8b9 a45d f2ba e489 063a
000003e0: 69a2 e639 d9e4 123a dbeb 6eba 35cd 46bb
000003f0: 4a67 103b 449c 183b 3bf8 00b9 b8de d3ba
-0.002082629 -0.00034069814 -0.0011978413 0.0013300044 -0.0010942285 -0.0013485509 0.00088298746 -0.0009079178
0.0006337627 0.0025433553 -0.0013837155 0.0004821313 -0.0012993454 0.0010908805 0.0008491335 0.0013392889
0.00073413044 -0.0010031401 -0.0011218442 0.00085129315 -0.00145279 -0.00034843892 -0.0005398264 0.00052343507
-0.0022782902 0.0010917869 0.0018985441 0.0006625677 0.002787387 0.00038009585 -0.002303541 0.00027095556
0.0008493062 -0.000815125 -2.6213193e-05 -2.9037654e-05 0.0011451306 0.00093196705 -0.0018236112 -0.0004910143
-0.0023655724 -0.0014004388 0.0026115144 -3.6528152e-05 -0.0012776997 0.0016108694 -0.0019409558 0.00088117615
0.0025640742 -0.0010261213 0.00020377291 0.0005049176 0.00085944386 0.0008633901 -0.00032020488 0.00091157993
0.0012325516 0.0010932988 -0.00019600139 -0.00040720496 0.0016401546 -0.0004149504 0.0018575146 1.3097551e-05
0.000818756 6.804722e-06 -0.0022107605 0.0027840147 0.0017331514 -3.1222917e-05 -0.00018152612 0.0048367423
-0.002391283 0.00047623354 0.00050026015 -4.505108e-05 -0.00070153724 -0.0015914633 0.00093458785 -0.0011218966
0.00031610893 0.0014772266 0.0033014535 -0.0014855291 -0.0004973516 -0.0014875651 0.0019372085 0.00034686836
-0.00013932846 0.00071799546 0.00073864876 -0.0019165631 0.00043105436 0.0025242716 -0.00029227545 -0.0021026218
0.0014174754 -0.0012601683 -0.00062453235 -0.0015958688 -0.0013051243 -0.0032855927 -0.00020798994 -0.0006190721
-8.98834e-05 -0.0010462172 -0.00087015436 -0.0012159569 -0.00028391826 -6.7357505e-05 0.0036493812 -0.00015154824
0.0010840052 -0.0005140652 -0.0009524585 0.0005029422 -0.0011273766 -6.75551e-05 0.000759039 0.00035469967
0.00073166494 0.0019413449 -0.0020769436 0.001978461 -0.0014174753 -0.0003498995 0.0023527297 -0.00046486745
-0.00036912065 -0.0014919487 -0.0010192794 0.002676755 0.0025606772 -0.0023585001 -3.1898617e-05 -0.00046022653
-0.00045330657 -0.0020724311 -0.000483903 -0.0024961007 -0.0015965379 0.0013448753 0.0010636101 0.00033148352
-0.0020623251 -0.0006447269 0.0013176781 -7.046545e-05 -0.0003558973 0.00077624357 -0.0018836835 -0.0014721674
-0.0005491564 0.0013353355 -0.000893145 -0.00024353813 0.00061895826 -0.0007460569 0.00027332373 0.001427848
-0.0028783095 0.0014775014 -0.00032984314 -0.00089584995 0.00058697345 -0.0025195219 -0.0010468689 -0.000505254
-0.0023674157 -0.00021499385 0.00028721665 -0.00076649495 0.000558665 -0.00022625255 0.0010927609 0.00061098184
-0.0012198164 -0.0008399148 0.0026277767 0.00035140495 -0.00058691716 0.0004088873 0.0013766317 0.0010423281
0.0003736057 -0.0011331844 0.0004849919 0.0005308356 0.00039063836 0.000390103 -0.0018477045 0.0011180309
-0.0024033948 -0.000575106 -0.001959047 0.0010571121 -3.9972456e-05 0.0006582958 -0.000411393 0.0026654813
-0.0007904606 -0.0018806233 0.0016915649 0.00089728064 0.00023106959 -0.0012875136 0.0017192825 0.00023274681
0.0041303374 -0.0001066367 0.00041411698 0.0027008215 -0.0008585767 0.0042074854 0.00022145397 3.26085e-05
-0.0016046732 0.0004328559 0.0004841481 0.0010752369 0.0002985456 0.0023336594 -0.0016283586 0.0015496999
0.0010327463 -0.002800513 0.00068800035 0.00048516967 6.2065694e-05 -0.0015301246 -0.0012580768 -0.0015759878
-0.0004791181 8.198627e-05 0.0001900393 0.00089146954 -0.0037894142 0.0006733098 0.0008646252 0.0012173539
-0.00032367738 -0.0010538872 0.00077725324 0.0006237125 0.0034352276 -0.00047374237 -0.0018491042 0.00051322416
0.00043990024 0.0005603559 -0.00091141247 -0.0030334715 0.0022034221 0.00232865 -0.00012299504 -0.0016164398
