js_code/data/steered_with_random_vector_coef_1/adapter_model.safetensors (safetensors, 76064 bytes, 2 tensors)

base_model.model.model.layers.24.mlp.down_proj.lora_A.weight f4 [1, 13824]
00000000: 1b5e 8fbb 28cf 90bb 7713 123c abdf 913b
00000010: 03f2 0abc 90eb 0fbc b7f4 e63a 2aec 15bb
00000020: cd43 9f39 6c58 cbba 77fb 00bb fc53 0a3c
00000030: dc80 033b cd64 773a 56e5 02bc c9a7 41bb
00000040: 2d69 193b 2bdc 713b db1f 223a 0276 f8bb
00000050: ce4e b9bb 75ed 1e3c 153d fb3b c601 bd3b
00000060: 12a7 b4bb 154a bdbb 6046 0a3b 05d4 0abc
00000070: 7ce6 2e38 3036 ab3b 2162 9e3b 9ed7 b53b
00000080: 5344 de3a 3cab 893b 97f6 23bc 22fd b8bb
00000090: b361 86bb 6321 ca3b 0660 05bc 638d b53b
000000a0: dc4a c6bb 8f1d 6cbb dd21 973b aa5f ff3b
000000b0: 5c37 5f3b 4ca0 5fbb 532f e43b c83e 623a
000000c0: c925 da3b 91d7 823b 305a c1ba ed34 d03b
000000d0: 6fab a23b 607f df3b e31d 133c e682 343b
000000e0: 55b4 bfbb 3522 47ba 5d81 f6b9 1969 c3ba
000000f0: b8cd 93b9 9041 223c 2eaf 813b d4e0 6c3b
00000100: f619 bd3b 673e 98bb 05bb 9c3b 7853 ca3b
00000110: b9f0 c53a 0136 c23a a3be 053c b65b 05bc
00000120: ff1a b33b d1f4 a8b9 be0f d2bb 6795 c43b
00000130: f10a 4abb 5f3c 93b9 f6ec 02bb b7ac 82bb
00000140: 0853 4abb 9249 1ebc a84e b33b 93f6 ae3a
00000150: 649f 013b 78ee 173c 2f52 49bb b20b 87bb
00000160: 30a8 8fbb d938 01bb 0b71 15b9 d6f6 7a3b
00000170: 83e3 23ba ef8d 2c3b 00a7 acbb 3043 00bc
00000180: 15b6 6dba 18b6 c939 d352 acbb 4a94 01bb
00000190: c934 30bb c5a6 0dbc 3c74 153c f2d9 8f3b
000001a0: 7676 bdbb 1194 e0bb 4fc8 073c 1920 c03b
000001b0: 6949 d2bb 0378 4c3b a260 e3bb 83f2 e9bb
000001c0: 6d99 f8bb 348d c23a 415d eb3b 2be4 ad3b
000001d0: 8a59 e4bb 3ec2 b83b 88ea 113c 06ed a03b
000001e0: a98e e53b 5307 cebb 9d7f 45bb 49a1 c53b
000001f0: 93c6 09bc 533c 9aba 0502 993b cebf 4a3b
00000200: be1d 6cbb c4d5 d93a 5c34 abbb 1d95 7abb
00000210: 490a ca3a 6da6 3bbb d653 8e3b 1c11 a23b
00000220: e445 7d3b 090c eb3b 23a8 473a 8b72 ebba
00000230: 2de5 03bc 6358 b8ba 2166 c4bb c205 683b
00000240: fa58 42ba 84f2 a6bb fb37 443a 2405 bd3b
00000250: 0e00 1abb fdd3 263b 11df 6dba 6ce1 21bb
00000260: 8082 b4ba 81d5 f33a f76e a5ba b308 a9bb
00000270: 36b3 853b 1d92 c7bb 9f26 bcbb 2976 c53a
00000280: 7d82 4b3b 28a0 6abb 04df 74bb 4848 a93b
00000290: c048 75bb f328 ca3a 7e08 bd3a c823 933a
000002a0: 7f36 74bb 7604 06b9 8846 40bb a2b1 e13b
000002b0: 5966 853a c0b7 9ebb 8c57 b7bb f2ec 083b
000002c0: 6963 91bb fe01 2a3b 6e09 c33a d685 01bc
000002d0: 3789 d63b bcaf be3a 5a1e cb3a 95a1 69bb
000002e0: 54be 19bc 7913 163b ba27 06bc 80cb 353b
000002f0: d2bd bf3b 00b1 5a39 8ff3 c4bb 92eb c13b
00000300: 836c f0bb 667f 67ba 6e57 f1bb 122b 263b
00000310: fa08 0f3c fe11 dabb 7cd5 d0bb 4f7f b83b
00000320: 3c8b c33b a0c3 873b 2822 aabb c349 0b3c
00000330: 5353 f6ba 457f 71bb 9f1a 0dbb 5160 c63a
00000340: 1a7b 773b ae30 62bb 1b98 90bb 2d24 2bb9
00000350: a575 09bc fc70 ffbb 2c66 cf39 c3e7 c13b
00000360: 0d69 a2bb 2ad3 6e3b dc32 86bb 5fc3 c0ba
00000370: 8f46 d13b 30b0 633a 99b9 9fbb 989b a4bb
00000380: d3db f53a 154c 853b 5c54 a93b aa30 043b
00000390: c972 aebb 40e4 983b 53d6 06bc 451a af39
000003a0: 9687 ffbb 3acd 6cbb 52c7 9a3a cd1a b63b
000003b0: 0069 903a 7088 83bb 09a8 a93b 1317 a83a
000003c0: 3d01 cdbb 242b 0cbc dbac e8b9 6179 6fbb
000003d0: 2982 f3ba 4da8 cebb ebfa a3bb 8216 92bb
000003e0: 6839 4b3a 20fb 10b9 5207 7c3b 3bed 05bc
000003f0: bfbc cf3b a137 f13b dcfb 08bc 713b 883b
-0.004375232 -0.004419226 0.008915774 0.004451712 -0.008480552 -0.00878419 0.0017620538 -0.002287636
0.0003037736 -0.0015514023 -0.0019681135 0.008442875 0.002006582 0.0009437323 -0.007989248 -0.002954947
0.0023408637 0.0036904912 0.00061845564 -0.007582427 -0.005655146 0.009700169 0.0076671937 0.0057680337
-0.0055130804 -0.0057766535 0.0021099076 -0.008473401 4.1699488e-05 0.0052249655 0.004833475 0.005549385
0.0016957618 0.004201321 -0.010007522 -0.00564541 -0.004101002 0.006168531 -0.00814057 0.0055405363
-0.0060514044 -0.003602836 0.004612191 0.0077933865 0.0034060096 -0.0034122644 0.0069636493 0.0008630571
0.0066573364 0.0039929827 -0.0014751609 0.0063539655 0.004964284 0.006820604 0.0089792935 0.0027543842
-0.0058503547 -0.0007596345 -0.0004701716 -0.0014908641 -0.00028191297 0.009903327 0.0039576506 0.003614475
0.005770917 -0.004646111 0.0047830367 0.006174501 0.0015101648 0.001481712 0.008163127 -0.008139541
0.0054658647 -0.0003222586 -0.006410568 0.0059992555 -0.0030829275 -0.00028083005 -0.0019977666 -0.0039878744
-0.0030872244 -0.009661095 0.005472023 0.0013348631 0.0019778842 0.009273164 -0.0030719151 -0.0041212672
-0.004384063 -0.0019717722 -0.00014251859 0.0038294098 -0.00062518584 0.0026329716 -0.0052689314 -0.007828519
-0.0009067965 0.00038473378 -0.005258897 -0.0019772225 -0.002688693 -0.008645718 0.009121951 0.004389995
-0.005781944 -0.0068535884 0.008287503 0.0058632013 -0.0064174426 0.0031199462 -0.0069390098 -0.0071395054
-0.007586649 0.0014843107 0.0071827476 0.0053067408 -0.0069686817 0.00563839 0.008906014 0.004911068
0.007005532 -0.006287494 -0.0030135878 0.0060311896 -0.00840916 -0.0011767246 0.00466943 0.0030937078
-0.003602847 0.0016619493 -0.0052247476 -0.003823585 0.0015414442 -0.0028633133 0.00434349 0.0049458873
0.0038646394 0.0071730656 0.0007616302 -0.0017963214 -0.008050245 -0.0014064427 -0.00599362 0.0035403823
-0.0007413771 -0.005094828 0.00074851484 0.005768435 -0.0023498568 0.0025455945 -0.0009074072 -0.0024701012
-0.0013771802 0.0018603058 -0.0012621571 -0.0051585077 0.0040802015 -0.006090416 -0.0057419087 0.0015065122
0.003105312 -0.0035801027 -0.0037364373 0.0051660873 -0.0037427396 0.0015423581 0.0014422087 0.0011225874
-0.0037263928 -0.00012780898 -0.0029338915 0.0068876306 0.0010177597 -0.004843682 -0.005595153 0.0020893184
-0.0044368994 0.002594113 0.001488013 -0.007905444 0.006547119 0.0014548223 0.0015496716 -0.003564929
-0.009383757 0.002289979 -0.0081881825 0.0027739704 0.0058514858 0.00020856038 -0.0060104798 0.0059179747
-0.0073371544 -0.00088309345 -0.0073651588 0.0025355262 0.0087301675 -0.006654977 -0.0063731056 0.0056304107
0.0059675258 0.0041431934 -0.00519206 0.008501473 -0.0018793143 -0.003684954 -0.002153076 0.0015134906
0.0037762583 -0.0034513879 -0.0044126636 -0.00016321307 -0.008389865 -0.007795451 0.0003955824 0.0059175207
-0.0049563707 0.0036441782 -0.0040954184 -0.0014706663 0.006386585 0.0008685617 -0.00487442 -0.005023431
0.0018757529 0.0040679076 0.005167527 0.0020170608 -0.005323742 0.0046658814 -0.00822981 0.00033398173
-0.0077981455 -0.0036133067 0.001180867 0.005557394 0.001101762 -0.0040140674 0.005177502 0.001282426
-0.006256251 -0.008555207 -0.00044379276 -0.0036540853 -0.001857822 -0.006306684 -0.005004277 -0.0044582495
0.00077523896 -0.00013826462 0.0038456512 -0.008174236 0.006339639 0.007361368 -0.008360829 0.0041574766

base_model.model.model.layers.24.mlp.down_proj.lora_B.weight f4 [5120, 1]
00000000: 54d7 60b9 23c8 253a ee81 853a 4cb6 64ba
00000010: db4d 293a 9f54 373a 7add 8bba f702 91ba
00000020: 086b 86ba 1e39 ccba f924 263a b37e 813a
00000030: f39f ba3a c248 7738 39d8 fab9 0cfe fbb9
00000040: 1eab e639 16d6 0b3a b495 a2ba 1e1d 50ba
00000050: 679d 2b39 aaf6 463a ddf7 963a 390c 2aba
00000060: f298 653a e68f 1bba 8585 fc3a 7700 253a
00000070: 2eba a639 d454 9bb8 9c54 233a 8ed3 20ba
00000080: 3d30 b2ba 8c27 2f39 97a1 90ba bbed b7ba
00000090: 7202 4238 ee39 2bba cdb4 e43a 5d0c a339
000000a0: 4ae4 8d3a f905 f13a 94d6 a93a c5f1 37ba
000000b0: 33d4 a4b9 7782 b6ba 74c5 8b3a f9ae 783a
000000c0: 1011 b137 1dc5 a23a 12c9 96ba fa14 af39
000000d0: efeb a2ba cb67 703a f286 153a c106 03bb
000000e0: 63c9 7dba be9a 03bb 000d 8f3a b998 b73a
000000f0: cb47 89ba 0e56 4639 367b 2a3a 77c4 c0b9
00000100: 34a4 fd39 7cb1 8cb8 993b 8b3a 64c3 e2b9
00000110: 726f 8cba 2853 0eba 50bc 07ba 6e8b 263a
00000120: 2cc5 b43a 42b5 d639 1f32 f2b9 9c31 a23a
00000130: 780d 363a a14e 0a3a 30d4 2bba 0c61 04ba
00000140: d662 b93a 4a1a 9dba 65dd a5b8 c0de 803a
00000150: 81bb 42ba cb69 8b3a 52c3 56ba 7cc2 4a3a
00000160: 1113 53ba f25a 0cba e4c1 e0b9 e3f1 6cba
00000170: aa3c a43a 23a7 fbba 4ebc e739 726d 303a
00000180: fdd3 e8ba da4e 47ba c497 c53a 180a bf3a
00000190: fab5 363a 47d5 db3a 36b1 e239 5d4f 2237
000001a0: 6913 9d3a 7ba7 133a c100 a9ba a26b 68ba
000001b0: 66b7 04ba bffe 8e39 7659 9d3a cbda d638
000001c0: 8825 35ba 5a28 38ba 3f5f a63a 66eb 71ba
000001d0: 9a51 8dba ea04 d63a 5aa8 ca3a 8e29 193a
000001e0: 4414 8bba ccf2 c2ba 6956 f4ba 9a62 5b3a
000001f0: f639 7c3a b63c 5eba 9343 76ba 6605 a23a
00000200: 9013 9e3a 7ce5 7839 46c1 f239 261b 57ba
00000210: fbab 2bba d31e e6b9 0a51 5439 2acb 8b3a
00000220: ecc9 65ba 2802 9c3a 3965 5039 3b55 88ba
00000230: 5d3c 9b3a f09c c7ba 703a 413a a658 a0ba
00000240: e907 8c3a 197d fab8 e913 e2b9 0202 aeba
00000250: 345d ee39 dc99 8cba 12cd 0db9 127b fd3a
00000260: 3ff8 933a 1c80 ceba 1810 8b3a 9420 b93a
00000270: 99ff 203a 7afa 7a3a e598 33ba 70ae 2f38
00000280: 03ca 553a 761a 6b3a 1856 7639 2b13 c439
00000290: 390e c539 bd75 1c39 7a65 60b9 c528 9c3a
000002a0: ebc0 a73a 3955 8a3a e133 94b9 cc1f 13ba
000002b0: 20b8 0339 a6ec edba ad8f 99ba 7a04 d0b8
000002c0: 6cd1 4a3a 4efa 2dba 2515 c1b9 9b76 7d3a
000002d0: 1cb4 f4b9 4433 c8b7 c1ad 6cba f5fa 44b9
000002e0: ad55 a23a 7768 a23a d3e6 edba 5451 39b9
000002f0: b566 99ba 067a 35ba e207 d239 c73d 34ba
00000300: adf1 7b3a 6913 b63a 6d6b 68b7 8d0c 5c39
00000310: 2653 d9b8 3c49 bf3a 8ce2 bcba 6412 b739
00000320: 2370 c539 2a5f 873a c1d3 5eba 14c2 c6ba
00000330: 2899 9039 4d64 583a f449 bf39 612b 6dba
00000340: df00 a8ba c263 7dba e8dc 1bba 8788 883a
00000350: 9136 713a 6201 e3ba 5eb5 b5ba 7dcd 993a
00000360: 2dd5 52ba 226c 8939 b597 62ba 47c2 903a
00000370: 7215 61ba df06 beba 8c8c 97b9 b18d 51ba
00000380: 298b d4ba 836e 9bb9 ece1 573a d025 6339
00000390: 2043 61ba df23 bb39 e4e9 35ba 8111 9f3a
000003a0: 8596 ee39 ab78 983a 0a74 893a ae9f e0b8
000003b0: 0f48 a03a e186 cb39 bddc b2b9 1885 a7b9
000003c0: fff4 2f39 c742 6d3a 5aa5 b0ba 2372 3bba
000003d0: 8c71 8ab9 42f3 be3a 4dcf 95ba 5c55 8cb9
000003e0: 3e32 fb38 da59 f5ba b76f e03a 632d 6d39
000003f0: 8d14 1cba e227 ffba 5306 8739 c8f3 e4b9
-0.0002144252 0.0006324073 0.0010185817 -0.0008724674 0.000645844 0.00069935055 -0.0010670864 -0.0011063506
-0.0010255286 -0.0015580987 0.0006337907 0.0009879678 0.0014238342 5.895715e-05 -0.00047844814 -0.0004806373
0.0004399651 0.00053343305 -0.0012404234 -0.0007938909 0.00016366468 0.00075898564 0.0011517961 -0.00064868067
0.00087584474 -0.00059342233 0.0019265866 0.000629432 0.00031800702 -7.4067764e-05 0.00062305643 -0.000613504
-0.0013594698 0.00016704033 -0.0011034486 -0.0014032641 4.625548e-05 -0.00065317645 0.0017448902 0.00031098994
0.0010825482 0.0018388621 0.0012957626 -0.00070169225 -0.00031438618 -0.001392438 0.0010663704 0.0009486522
2.110799e-05 0.0012418363 -0.0011504015 0.0003339423 -0.0012429933 0.000917074 0.00057040073 -0.001999304
-0.0009681193 -0.0020081247 0.0010913908 0.0014007307 -0.0010473666 0.0001891481 0.0006503345 -0.00036767471
0.0004837826 -6.708779e-05 0.001062262 -0.00043251656 -0.0010714366 -0.00054292614 -0.0005177902 0.0006353174
0.0013791672 0.00040952308 -0.0004619518 0.0012374404 0.0006944756 0.0005275999 -0.0006554751 -0.00050498615
0.0014143835 -0.0011985984 -7.909051e-05 0.000983201 -0.0007428453 0.0010636387 -0.0008192557 0.0007734669
-0.00080518523 -0.0005354128 -0.0004286907 -0.00090387295 0.0012530286 -0.0019199591 0.0004420005 0.0006730176
-0.0017763373 -0.00076029974 0.0015075137 0.0014575152 0.00069698656 0.0016771936 0.00043238112 9.674431e-06
0.0011983934 0.00056325615 -0.0012893901 -0.0008866136 -0.0005062729 0.0002727415 0.0012004811 0.000102450686
-0.00069101946 -0.0007025056 0.001269318 -0.00092284975 -0.0010781765 0.0016328369 0.001546155 0.0005842679
-0.0010610898 -0.0014873384 -0.0018641475 0.000836888 0.0009621674 -0.00084776746 -0.00093942246 0.0012361228
0.0012060273 0.00023736613 0.00046301837 -0.00082056446 -0.00065487594 -0.00043891984 0.00020248085 0.0010665406
-0.00087657454 0.0011902498 0.00019874134 -0.0010401377 0.0011843551 -0.0015229266 0.00073710736 -0.001223345
0.001068351 -0.0001194423 -0.00043120913 -0.0013275745 0.0004546434 -0.0010727006 -0.00013523203 0.0019339046
0.0011289193 -0.0015754732 0.0010609655 0.0014124089 0.00061416026 0.0009574067 -0.0006851091 4.188571e-05
0.0008155407 0.00089684816 0.0002349246 0.00037398314 0.00037585365 0.0001492118 -0.00021400108 0.0011914006
0.0012798583 0.0010553963 -0.00028267413 -0.0005612343 0.00012561725 -0.0018152192 -0.0011715792 -9.919047e-05
0.0007736895 -0.00066367246 -0.00036827583 0.00096688577 -0.000466735 -2.386573e-05 -0.0009028577 -0.00018785505
0.0012385153 0.0012390752 -0.0018150456 -0.00017673272 -0.0011703583 -0.0006922785 0.00040060194 -0.00068756606
0.00096109026 0.0013891283 -1.385329e-05 0.0002098551 -0.00010362854 0.0014593969 -0.0014410778 0.00034918182
0.00037658316 0.0010328044 -0.0008500182 -0.0015164041 0.0002757993 0.0008254692 0.00036485458 -0.00090472965
-0.0012817642 -0.0009666049 -0.00059456984 0.0010416665 0.00092015514 -0.0017319138 -0.0013863256 0.0011734214
-0.000804263 0.00026211241 -0.0008643822 0.0011044227 -0.00085862644 -0.0014497897 -0.0002890568 -0.0007993831
-0.0016215789 -0.00029646241 0.0008235264 0.00021662493 -0.0008593071 0.00035694145 -0.00069394545 0.0012135954
0.00045507043 0.0011632642 0.0010486853 -0.00010710895 0.0012228506 0.0003881967 -0.00034115268 -0.00031951885
0.00016780569 0.0009050783 -0.0013477013 -0.00071504916 -0.0002640601 0.0014568346 -0.0011429578 -0.0002676648
0.00011977971 -0.0018718794 0.0017123137 0.00022618989 -0.000595399 -0.0019466842 0.00025753918 -0.0004366918
