js_code/data/steered_with_random_vector_coef_0/lora_snapshots/step_000365/base_model_model_model_layers_24_A_and_B.pt (torch, 77997 bytes, 2 tensors)

A f4 [1, 13824]
-0.004270038 -0.0043565943 0.009012617 0.004463803 -0.0084681 -0.0087230895 0.0018495307 -0.0025583252
0.00033404623 -0.0015887923 -0.002148243 0.00842187 0.001870266 0.0010149254 -0.00802751 -0.0031579358
0.0024401317 0.0036725178 0.0009807828 -0.0075386865 -0.005625887 0.009662479 0.0077314978 0.0057726726
-0.0055796704 -0.005750456 0.0021719534 -0.008452158 -1.906456e-05 0.005003825 0.0047799507 0.0054285536
0.0017322326 0.004354042 -0.0098028695 -0.005586916 -0.0041155275 0.006150699 -0.008108885 0.0055450466
-0.006020431 -0.0036822075 0.004780165 0.00768289 0.0027881407 -0.003857728 0.007037851 0.0007245715
0.0066332007 0.003529252 -0.0014332773 0.0064415215 0.0049514654 0.006839758 0.008981535 0.0027642862
-0.0057001207 -0.000836589 -0.00041732102 -0.0015381038 -0.0002309119 0.009901627 0.004048241 0.0035370798
0.0057511935 -0.004848814 0.004654623 0.0062773246 0.0016941335 0.0012207719 0.008126677 -0.008221728
0.0054000686 -0.0003249882 -0.0064060693 0.005968165 -0.0029296046 -0.00032626677 -0.0020787413 -0.003980804
-0.0028880627 -0.009684188 0.005365655 0.0012164048 0.001997177 0.009329566 -0.0030555676 -0.0040965662
-0.0044746622 -0.0020158372 -0.00019998774 0.0039293733 -0.0005550507 0.0023177445 -0.0052930755 -0.007834382
-0.00080813473 0.0005927911 -0.0052822754 -0.0019450792 -0.0027304057 -0.0086464835 0.009128843 0.0045438535
-0.0056265104 -0.006849664 0.008304993 0.005937954 -0.006523584 0.0030652394 -0.0069800075 -0.007110064
-0.007497739 0.0014244886 0.007190148 0.0053030937 -0.006947593 0.0056508095 0.008901464 0.0049108025
0.0069700866 -0.0059140236 -0.003044007 0.005947879 -0.0082785385 -0.0012053738 0.00480379 0.0032460561
-0.0035561582 0.0016294151 -0.0051011248 -0.003741275 0.0016233161 -0.0029492131 0.0044123065 0.004952428
0.0039337124 0.0071828025 0.001058275 -0.0018606273 -0.008062512 -0.0013913857 -0.005999525 0.0035946728
-0.0007487907 -0.0050738025 0.0008019101 0.0056614955 -0.0023839457 0.0023174088 -0.0008593372 -0.0016572026
-0.0012707518 0.0018814772 -0.0014356001 -0.0053470684 0.0037808695 -0.006118055 -0.0056276713 0.001491268
0.003024741 -0.0035823397 -0.0038077852 0.005163327 -0.0038488517 0.0016712137 0.0014243725 0.0010829362
-0.0036984629 -0.00014094908 -0.0029187673 0.0068687485 0.0012507382 -0.0047643757 -0.005772766 0.0021449435
-0.0043749935 0.002516608 0.0014325182 -0.007960475 0.0065236026 0.0016623237 0.0016820502 -0.0037553317
-0.009165202 0.0024924972 -0.008041913 0.0028307363 0.006015629 0.00017328339 -0.005975195 0.005878739
-0.007275699 -0.0008491144 -0.0073568635 0.0025176588 0.008726517 -0.0066195037 -0.006367818 0.0056365007
0.0060011493 0.0042459196 -0.0051824655 0.008614762 -0.0018770852 -0.0035626884 -0.002081724 0.0016023011
0.0038291977 -0.0034395861 -0.0044078934 1.1026638e-05 -0.008535849 -0.00780122 0.00039323463 0.006068109
-0.0052157026 0.0036481232 -0.0041305963 -0.0015371344 0.006791524 0.0008444063 -0.00484921 -0.004979944
0.0016728496 0.004083422 0.0051508504 0.0019620524 -0.005355825 0.0047930204 -0.008238015 0.00041967942
-0.007840072 -0.0033869555 0.001101487 0.0056560636 0.0010481288 -0.0041120974 0.0051456746 0.0012846611
-0.0063819336 -0.008531274 -3.2368578e-06 -0.003599774 -0.0019211667 -0.0061361757 -0.005310273 -0.004403945
0.00031938258 9.5031704e-05 0.004327892 -0.008133358 0.0063101538 0.0072214426 -0.0085246675 0.004240062
00000000: adeb 8bbb c3c1 8ebb a8a9 133c 1845 923b
00000010: c9bd 0abc 4aeb 0ebc f46b f23a 93a9 27bb
00000020: ed22 af39 063f d0ba 89c9 0cbb e2fb 093c
00000030: b723 f53a 3f07 853a d185 03bc 5ff5 4ebb
00000040: 9eea 1f3b a0ae 703b 9c8d 803a 1607 f7bb
00000050: 5c59 b8bb 604f 1e3c 8158 fd3b b028 bd3b
00000060: abd5 b6bb 526e bcbb 5557 0e3b ec7a 0abc
00000070: d5ec 9fb7 20f7 a33b 22a1 9c3b 02e2 b13b
00000080: 150c e33a 5aac 8e3b 379c 20bc 7312 b7bb
00000090: 8cdb 86bb ce8b c93b 21db 04bc 39b3 b53b
000000a0: 0947 c5bb 3151 71bb eea2 9c3b c1c0 fb3b
000000b0: 3db9 363b f0d1 7cbb c69d e63b 2cf1 3d3a
000000c0: 525b d93b 064b 673b cedc bbba 6613 d33b
000000d0: e73f a23b 0c20 e03b 4a27 133c 0729 353b
000000e0: 14c8 babb 8a4e 5bba e1cb dab9 339a c9ba
000000f0: f120 72b9 6f3a 223c 1ba7 843b 5ace 673b
00000100: 8274 bc3b cde2 9ebb cf85 983b 04b2 cd3b
00000110: b00d de3a 4f02 a03a c125 053c 6db4 06bc
00000120: 0ff3 b03b 2e63 aab9 01ea d1bb 9990 c33b
00000130: 9cfe 3fbb c90e abb9 7e3b 08bb 6771 82bb
00000140: a745 3dbb 6eaa 1ebc 60d2 af3b c66f 9f3a
00000150: 12e3 023b 09db 183c eb3f 48bb 7d3c 86bb
00000160: 30a0 92bb 231c 04bb cdb3 51b9 f9c1 803b
00000170: d280 11ba 4de5 173b 8971 adbb c85b 00bc
00000180: 01d9 53ba 8a65 1b3a f016 adbb 07f2 feba
00000190: 9bf0 32bb fba9 0dbc 2591 153c 9be4 943b
000001a0: 975e b8bb 2573 e0bb aa11 083c 2b93 c23b
000001b0: cac3 d5bb 2fe2 483b 8cb8 e4bb 8afb e8bb
000001c0: 98af f5bb e8b5 ba3a 559b eb3b 93c5 ad3b
000001d0: a2a8 e3bb 6d2a b93b 72d7 113c ccea a03b
000001e0: 5365 e43b 6dca c1bb f77d 47bb 6de6 c23b
000001f0: b5a2 07bc a2fd 9dba 1c69 9d3b c9bb 543b
00000200: 6f0e 69bb 1992 d53a 5627 a7bb 2e30 75bb
00000210: 73c5 d43a 9647 41bb 1c95 903b fa47 a23b
00000220: 5fe6 803b b75d eb3b d1b5 8a3a 4be0 f3ba
00000230: a018 04bc 285f b6ba aa97 c4bb 9a94 6b3b
00000240: 7e4a 44ba 2442 a6bb 4737 523a 1184 b93b
00000250: f93b 1cbb abdf 173b 2545 61ba 7e36 d9ba
00000260: 5b8f a6ba e69b f63a bf2a bcba 7636 afbb
00000270: 77c8 773b f779 c8bb 5468 b8bb a776 c33a
00000280: bc3a 463b b0c5 6abb 098c 79bb 2031 a93b
00000290: 043d 7cbb a00c db3a 03b2 ba3a 4ff1 8d3a
000002a0: e961 72bb bbcb 13b9 ca48 3fbb 3d13 e13b
000002b0: cfef a33a 7b1e 9cbb 7929 bdbb 2e92 0c3b
000002c0: 1b5c 8fbb aded 243b 56c3 bb3a a76c 02bc
000002d0: f2c3 d53b 54e2 d93a 3d78 dc3a 031c 76bb
000002e0: a529 16bc 2a59 233b 3ac2 03bc e083 393b
000002f0: c11e c53b 68b3 3539 92cb c3bb 70a2 c03b
00000300: fd68 eebb 1a97 5eba d811 f1bb 4eff 243b
00000310: aaf9 0e3c 6ce8 d8bb 21a9 d0bb 65b2 b83b
00000320: 4aa5 c43b 5b21 8b3b acd1 a9bb ee24 0d3c
00000330: 8708 f6ba fe7b 69bb 886d 08bb 4e04 d23a
00000340: 47f3 7a3b ae6a 61bb 1770 90bb 0dff 3837
00000350: f2d9 0bbc 60a1 ffbb 0f2b ce39 fdd6 c63b
00000360: 7ce8 aabb 5a15 6f3b f459 87bb ac79 c9ba
00000370: 6f8b de3b 265b 5d3a 1fe6 9ebb cc2e a3bb
00000380: 8543 db3a 3ace 853b 77c8 a83b c795 003b
00000390: eb7f afbb c50e 9d3b bdf8 06bc 6b08 dc39
000003a0: a573 00bc aff7 5dbb c55f 903a 8056 b93b
000003b0: 5e61 893a c6be 86bb 0c9d a83b 1362 a83a
000003c0: 8a1f d1bb c2c6 0bbc cb38 59b6 30ea 6bbb
000003d0: a8cf fbba f911 c9bb cc01 aebb f84e 90bb
000003e0: ce72 a739 c24b c738 fdd0 8d3b c741 05bc
000003f0: 68c5 ce3b daa1 ec3b 0cab 0bbc 38f0 8a3b

B f4 [5120, 1]
0.0010025781 0.0008037045 0.0006029848 -0.0009626855 0.00094027445 0.001301913 -0.0010209098 -0.001323808
0.00016624157 -0.0014219381 0.0001922051 0.00083353976 0.0012475403 -0.0004099145 -0.00036304537 0.0002651604
0.00079411484 0.0012063318 -0.0009013696 -0.0009208714 -0.0005742455 0.0006899956 0.0006469463 -0.0008232119
0.00075616356 -0.00049249985 0.0015652283 0.0010367993 0.0002988484 0.00015378033 0.00012061334 -0.0007514378
-0.0011519956 0.0006620576 -0.00096065685 -0.001375927 7.1043585e-05 -0.0001760043 0.001951083 5.040621e-05
0.0012426721 -0.00012535018 0.0013822827 -0.0009728592 4.3046024e-05 -0.0012389276 0.0010050355 0.00089678826
6.583551e-05 -0.00044231198 -0.0011455195 0.000104492356 -0.0012008084 0.0007072575 0.00087635237 -0.0015489248
-0.0010597954 -0.0018226776 0.0010796452 0.0017370064 -0.0017964462 -0.00051355205 0.0006423768 7.904514e-05
0.0013500369 0.00029617644 -0.00027369487 -0.00049446267 -0.0012450536 -0.00038036378 -0.0006726264 0.00080331456
0.0018205862 0.0007989748 -0.00018551055 0.001306766 0.00091788144 0.00046795307 -0.00061433663 0.0008224632
0.0011501989 -0.0013520191 -0.0012648974 0.0005561153 -0.000737373 0.0007520277 -0.0009310984 0.00015904945
-0.0012162068 -0.00065906846 -0.0005973307 -0.0010376796 0.0010143261 -0.0016443034 0.0005766637 0.0001682936
-0.0016042704 -0.00037231686 0.0013133336 0.0005858382 0.0011338615 0.0017806483 3.6329984e-05 -0.00047922038
0.00105859 0.0011717273 -0.0002433907 -0.0016947272 -0.0006307583 -0.0001564633 0.0011131173 2.8336906e-05
-0.00021484806 -0.0006744501 0.0012600236 -0.0013812031 -0.0008412238 0.0012214135 0.0006383154 0.0007084288
-0.0015451775 -0.0013489586 -0.0017484861 0.0010683392 0.0010714435 -0.00090543495 -0.0006091261 0.0009268086
0.00061296526 -8.2392384e-05 -0.0003568378 -0.0008465047 -0.0006457001 -0.00013809484 0.0010373256 0.0001728791
-0.0010374577 0.0014225888 0.00048057266 -0.00073001924 0.0011611134 -0.0013639363 0.0007836317 -0.00086304743
0.001056268 -0.00050002267 -0.00050593674 -0.0014276103 0.001270652 -0.0011300427 -0.00040560332 0.0016037208
0.0013147205 -0.0016631993 0.0012454918 0.0010726153 -0.00048506525 0.0007649612 -0.0008927264 0.0007638022
-0.00015341585 0.001032576 0.00042110862 6.649341e-06 0.0002604807 0.000120645425 -0.00052205985 0.0016631435
0.00070399593 0.00096000085 -0.0002538605 0.00019620116 -0.00038451416 -0.0015647408 -0.0018183471 0.00031389645
0.0005294771 -0.00059507944 -0.0009881983 0.0013545235 -0.00090173836 7.1750965e-06 -0.00011907817 -0.00032847593
0.0010864416 0.0013267932 -0.0017461356 7.136264e-05 -0.0012009729 -0.00074625394 0.0005446492 -0.0007480579
0.0010456418 0.0011114569 0.000358437 -0.00023999781 -0.00011224906 0.0014987194 -0.001331765 0.00031933357
-1.42572235e-05 0.00091404584 -0.00089729397 -0.0013812906 -0.00016964441 0.0005481441 -0.00035728628 -0.0009576782
-0.0017046882 -0.0012462816 9.486603e-05 0.0010051809 0.0010485431 -0.0014273465 -0.0012785257 0.00036381598
-0.00075181236 0.00013608078 -0.00063681137 0.0010541127 -0.0009076772 -0.0013873564 -6.59612e-05 -0.0007958095
-0.0014381732 0.00024257795 0.00057403895 2.0544267e-05 -0.0008513503 2.1299917e-05 -0.00073184347 0.0008794776
-0.00023730629 0.0011096275 0.00087927585 0.00039803082 0.0010299654 0.0008173161 0.00063940225 0.000101161284
-0.0001254622 0.00025920017 -0.0016628966 -0.00023253358 -0.00026067652 0.0012742701 -0.0010720033 -0.0007175587
-0.00019064546 -0.0005740816 0.0013292928 -0.00057841395 -0.00062589353 -0.0019337184 0.0011315321 0.00046207407
00000000: f068 833a b2af 523a a011 1e3a bb5c 7cba
00000010: c07c 763a f4a4 aa3a 0cd0 85ba a083 adba
00000020: 2251 2e39 5360 baba aa8a 4939 e881 5a3a
00000030: 8284 a33a cbe9 d6b9 2057 beb9 3a05 8b39
00000040: 252c 503a c71d 9e3a e449 6cba a266 71ba
00000050: f788 16ba d2e0 343a d597 293a d1cc 57ba
00000060: 4739 463a 1b1b 01ba 5928 cd3a 36e5 873a
00000070: c1ae 9c39 1840 2139 cbf1 fc38 23fc 44ba
00000080: 8ffe 96ba ef8d 2d3a 97d4 7bba 7358 b4ba
00000090: 3cfd 9438 cb8d 38b9 7bbb ff3a 426b 5338
000000a0: 28e1 a23a 6f70 03b9 b62d b53a 7a07 7fba
000000b0: 518c 3438 8363 a2ba 65bb 833a 7116 6b3a
000000c0: 2c11 8a38 1ce6 e7b9 4225 96ba e822 db38
000000d0: 7264 9dba 3f67 393a 03bb 653a 4b05 cbba
000000e0: d5e8 8aba e9e6 eeba e282 8d3a 43ac e33a
000000f0: bb76 ebba e59f 06ba 2d65 283a 09c5 a538
00000100: b9f3 b03a 2148 9b39 b47e 8fb9 d49e 01ba
00000110: 1131 a3ba 906b c7b9 3253 30ba 8795 523a
00000120: bca0 ee3a 4b72 513a 9c85 42b9 ca47 ab3a
00000130: fb9d 703a 9957 f539 6f0b 21ba 929a 573a
00000140: 45c2 963a 3c36 b1ba eaca a5ba 44c8 113a
00000150: 444c 41ba ba23 453a f514 74ba 83c6 2639
00000160: 2169 9fba 56c5 2cba 2f96 1cba c002 88ba
00000170: 23f3 843a ab85 d7ba 3f2b 173a f877 3039
00000180: 6246 d2ba 8633 c3b9 2a24 ac3a f092 193a
00000190: 149e 943a a464 e93a 0661 1838 df3f fbb9
000001a0: 63c0 8a3a a594 993a b236 7fb9 9c21 deba
000001b0: 7959 25ba 4c10 24b9 05e6 913a 0bb5 ed37
000001c0: d648 61b9 94cd 30ba 6027 a53a 7c09 b5ba
000001d0: 9385 5cba d617 a03a 9f54 273a dab5 393a
000001e0: 8e87 caba 8acf b0ba 752d e5ba 8407 8c3a
000001f0: ae6f 8c3a b65a 6dba c3ad 1fba 13f5 723a
00000200: 67af 203a 13ca acb8 f515 bbb9 f8e7 5dba
00000210: 3344 29ba 8dcd 10b9 dff6 873a e146 3539
00000220: 4efb 87ba 2976 ba3a 5ff5 fb39 c35e 3fba
00000230: 8030 983a 1cc6 b2ba a26c 4d3a 223e 62ba
00000240: 7972 8a3a f413 03ba d7a0 04ba a71e bbba
00000250: 028c a63a f11d 94ba 28a7 d4b9 f133 d23a
00000260: b352 ac3a b5ff d9ba c53f a33a ff96 8c3a
00000270: 5b50 feb9 ad87 483a db05 6aba e639 483a
00000280: 41de 20b9 8057 873a 3ec8 dc39 671d df36
00000290: 2191 8839 0503 fd38 d8da 08ba d6fd d93a
000002a0: 5e8c 383a 91a8 7b3a 9418 85b9 59bb 4d39
000002b0: 9e98 c9b9 fd17 cdba 9b55 eeba 7892 a439
000002c0: 9bcc 0a3a 1bff 1bba 6f86 81ba 448a b13a
000002d0: a362 6cba 9cc1 f036 9bb9 f9b8 4b37 acb9
000002e0: ee66 8e3a cbe7 ad3a 97de e4ba 87a8 9538
000002f0: f769 9dba 41a0 43ba cac6 0e3a 5119 44ba
00000300: eb0d 893a 4eae 913a 9aec bb39 eca7 7bb9
00000310: 4167 ebb8 ae70 c43a 9e8e aeba 3a6c a739
00000320: 4f32 6fb7 949c 6f3a 6138 6bba 6c0c b5ba
00000330: 93e2 31b9 54b1 0f3a 2752 bbb9 b20c 7bba
00000340: d86f dfba 455a a3ba d0f2 c638 46c0 833a
00000350: 456f 893a cd15 bbba 3494 a7ba 8ebe be39
00000360: 4615 45ba e8b0 0e39 b0ef 26ba 272a 8a3a
00000370: 30f1 6dba f5d7 b5ba a654 8ab8 df9d 50ba
00000380: 1681 bcba 865c 7e39 1a7b 163a 7a56 ac37
00000390: 272d 5fba 39ad b237 2fd9 3fba be8c 663a
000003a0: 6cd5 78b9 ec70 913a 347f 663a cbae d039
000003b0: e7ff 863a 2841 563a 8f9d 273a 8d26 d438
000003c0: 818e 03b9 42e5 8739 8df5 d9ba 42d4 73b9
000003d0: 69ab 88b9 6905 a73a 7682 8cba 8d1a 3cba
000003e0: 00e8 47b9 f77d 16ba aa3b ae3a b4a0 17ba
000003f0: 0113 24ba d374 fdba eb4f 943a 8842 f239
