js_code/data/steered_with_random_vector_coef_0/lora_snapshots/step_000095/base_model_model_model_layers_24_A_and_B.pt (torch, 77997 bytes, 2 tensors)

A f4 [1, 13824]
-0.0040441244 -0.0045217723 0.009082547 0.0048187342 -0.008318572 -0.008573209 0.0023086495 -0.0032645187
0.0006393385 -0.0013887191 -0.0023052152 0.0081123905 0.0020141068 0.0014658407 -0.0073589906 -0.0028623957
0.0031016294 0.0038561188 0.0009166756 -0.007631562 -0.0053060963 0.00926804 0.0076197227 0.00526433
-0.005498978 -0.0054303575 0.0024570962 -0.008012363 -0.0004066215 0.0037264805 0.0042961612 0.005070734
0.001378716 0.004799546 -0.009217454 -0.0052609397 -0.003631482 0.0058158864 -0.007488224 0.00563493
-0.005729114 -0.0034087307 0.005341922 0.0076714423 0.0023527192 -0.0027063072 0.0068663936 0.0004389413
0.006096959 0.0033905494 -0.0010675858 0.0069431877 0.0047913454 0.007159385 0.008781085 0.0024754468
-0.0048990073 -0.0017603027 -0.00056652894 -0.001864288 8.83498e-05 0.009338296 0.0047620083 0.0031928546
0.0053181127 -0.0050931806 0.004276201 0.006617649 0.0019473465 0.0002561296 0.007745361 -0.007902053
0.0052142786 -0.00075691176 -0.006850119 0.0056058224 -0.0025430953 -0.00097576977 -0.0028889847 -0.0036850306
-0.002190781 -0.009240427 0.0049825837 0.0012071425 0.0023189082 0.009115031 -0.0027617337 -0.0044678794
-0.0045676534 -0.0019378562 -0.0006535424 0.0036090212 -0.00022068873 0.00246605 -0.00512052 -0.00779823
-0.0005190601 0.0014169727 -0.004954667 -0.0021973362 -0.0023965214 -0.008425907 0.008791629 0.005247626
-0.0056249998 -0.0072130663 0.008190987 0.006232051 -0.0068510943 0.0026876037 -0.0064188247 -0.0069619673
-0.006950793 0.0011017241 0.007835536 0.0048682797 -0.007142063 0.005413139 0.008545717 0.0051539093
0.007106721 -0.005569788 -0.0034447853 0.005573641 -0.007661338 -0.0015207377 0.0052472544 0.003258472
-0.002992995 0.0022513103 -0.0047949525 -0.0037831948 0.0018116233 -0.003382987 0.004979717 0.004649742
0.004271754 0.006914325 0.0012911237 -0.0022223704 -0.007889286 -0.0016436959 -0.006261582 0.0041829147
-0.00020396193 -0.004543515 0.0005870066 0.005596632 -0.002818204 0.0018390849 -0.00019847357 -0.0014656628
-0.00137452 0.0022735277 -0.0019152748 -0.005929032 0.00297609 -0.005826886 -0.0051880553 0.0010703083
0.0033148641 -0.003263695 -0.0042222436 0.0048111747 -0.0043425392 0.0015723868 0.0016528331 0.00068551494
-0.0031031154 -0.00035401317 -0.0037889087 0.0064512277 0.0004106049 -0.0043630875 -0.005543264 0.0027355263
-0.004400163 0.0027163886 0.0009663948 -0.008251712 0.0062330184 0.002353901 0.0023768689 -0.003701209
-0.008367043 0.0030758874 -0.0075015477 0.0031926075 0.006519628 -0.00016987332 -0.0061172787 0.005888925
-0.007432286 -0.002244641 -0.00714213 0.0027763008 0.008443567 -0.0062809666 -0.005875097 0.005976167
0.0052278335 0.004979535 -0.0053483527 0.008603432 -0.0022135864 -0.0038345084 -0.0021267214 0.0013965558
0.0041292803 -0.0030488006 -0.00484061 0.00046604374 -0.008648921 -0.0075699924 0.0007805822 0.006640579
-0.005352585 0.00395309 -0.004431761 -0.0020055836 0.007385739 0.0013004947 -0.0044688745 -0.004684545
0.0014823448 0.0044147675 0.0054207896 0.001497089 -0.005033581 0.004755668 -0.008019903 0.00023103847
-0.0076765525 -0.0024868427 0.0008297766 0.006053445 0.0011736625 -0.004800497 0.0047488506 0.0010120509
-0.0061170096 -0.008116398 0.000707176 -0.0040019974 -0.0023427703 -0.005420228 -0.006035815 -0.004664073
-0.0003057387 0.00015609896 0.0049532703 -0.0077787614 0.0065371757 0.0073467866 -0.008696471 0.004607292
00000000: 9384 84bb 602b 94bb f7ce 143c 79e6 9d3b
00000010: 9f4a 08bc a576 0cbc b64c 173b 89f1 55bb
00000020: 4899 273a ae05 b6ba 1813 17bb d5e9 043c
00000030: 1bff 033b 7421 c03a b023 f1bb 0897 3bbb
00000040: b544 4b3b f0b6 7c3b 0f4d 703a 2f12 fabb
00000050: c3de adbb fad8 173c deae f93b 6780 ac3b
00000060: c530 b4bb 24f1 b1bb 3c07 213b 4946 03bc
00000070: d02f d5b9 f837 743b d0c6 8c3b 6628 a63b
00000080: 08b6 b43a 8345 9d3b ce04 17bc f663 acbb
00000090: 28fe 6dbb 3193 be3b c75f f5bb 38a5 b83b
000000a0: 4bbb bbbb 0365 5fbb 4a0b af3b b960 fb3b
000000b0: 1430 1a3b 4d5c 31bb 7cff e03b b421 e639
000000c0: 00c9 c73b fb33 5e3b 3cee 8bba ae83 e33b
000000d0: b800 9d3b 4699 ea3b 8ade 0f3c 1b3b 223b
000000e0: da87 a0bb f5b9 e6ba 1d83 14ba 205b f4ba
000000f0: 7048 b938 a7ff 183c 9f0a 9c3b 363f 513b
00000100: 9043 ae3b b2e4 a6bb 601f 8c3b ddd8 d83b
00000110: 1b3e ff3a 2249 8639 cccc fd3b 9d77 01bc
00000120: 8adc aa3b 7d6b 46ba f776 e0bb 0cb1 b73b
00000130: 0faa 26bb cdca 7fba 1f55 3dbb 8e80 71bb
00000140: 3593 0fbb 2965 17bc f144 a33b fb38 9e3a
00000150: d3f8 173b 3657 153c 34fe 34bb 4a67 92bb
00000160: 41ac 95bb aaff fdba 7d52 2bba 5485 6c3b
00000170: ae68 67b9 749d 213b 09ca a7bb 4b88 ffbb
00000180: 8911 08ba b7b9 b93a c25a a2bb 2f01 10bb
00000190: f50e 1dbb d10c 0abc c40a 103c 47f4 ab3b
000001a0: eb51 b8bb 965b ecbb 7d33 063c 3c36 cc3b
000001b0: 257f e0bb 8222 303b 0155 d2bb 3721 e4bb
000001c0: 7ac3 e3bb ba67 903a 9f60 003c 1786 9f3b
000001d0: f807 eabb b360 b13b 5603 0c3c 20e2 a83b
000001e0: 7fdf e83b c582 b6bb e8c1 61bb 17a3 b63b
000001f0: f60b fbbb 7d53 c7ba 29f1 ab3b 178c 553b
00000200: 2026 44bb b88a 133b fa1e 9dbb 7aef 77bb
00000210: fe73 ed3a 1bb5 5dbb e52c a33b dd5c 983b
00000220: 12fa 8b3b 9091 e23b ec3a a93a 30a5 11bb
00000230: 1042 01bc 4871 d7ba f52d cdbb d510 893b
00000240: 9dde 55b9 c4e1 94bb 59e1 193a f463 b73b
00000250: 9eb1 38bb 730d f13a 581d 50b9 7c1b c0ba
00000260: 3d29 b4ba 77ff 143b f509 fbba 5348 c2bb
00000270: 810a 433b 76ef bebb 9000 aabb 9649 8c3a
00000280: 313e 593b b7e3 55bb bf5a 8abb 0fa7 9d3b
00000290: dc4b 8ebb 8c18 ce3a e0a3 d83a 21b4 333a
000002a0: a35d 4bbb d89a b9b9 574f 78bb d264 d33b
000002b0: 7546 d739 3bf8 8ebb 45a4 b5bb 8446 333b
000002c0: 3e2f 90bb 7005 323b a855 7d3a 3032 07bc
000002d0: 593e cc3b e843 1a3b 3ec5 1b3b fc8f 72bb
000002e0: ec15 09bc d494 493b 8bcf f5bb 113b 513b
000002f0: 9ba2 d53b 0620 32b9 7473 c8bb e2f7 c03b
00000300: 898a f3bb d41a 13bb 8708 eabb 99f2 353b
00000310: e356 0a3c 91d0 cdbb e383 c0bb b9d3 c33b
00000320: 3f4e ab3b 5e2b a33b 3c41 afbb 69f5 0c3c
00000330: d111 11bb 604c 7bbb 7760 0bbb a30c b73a
00000340: ea4e 873b 63ce 47bb fb9d 9ebb 5557 f439
00000350: 34b4 0dbc b30d f8bb fc9f 4c3a 3799 d93b
00000360: bd64 afbb ec88 813b 4e38 91bb 1c70 03bb
00000370: 1204 f23b 5c75 aa3a a36f 92bb d080 99bb
00000380: 3d4b c23a c1a9 903b e1a0 b13b f939 c43a
00000390: bdf0 a4bb 6fd5 9b3b e965 03bc eb42 7239
000003a0: 978b fbbb 4cfa 22bb 5d85 593a fa5b c63b
000003b0: 94d5 993a 7d4d 9dbb 3f9c 9b3b cba6 843a
000003c0: 3271 c8bb a4fa 04bc c761 393a 3023 83bb
000003d0: 2a89 19bb 2b9c b1bb 16c8 c5bb 15d5 98bb
000003e0: 8e4b a0b9 7fae 2339 0b4f a23b fbe4 febb
000003f0: ce35 d63b 50bd f03b a57b 0ebc c4f8 963b

B f4 [5120, 1]
0.0007713545 0.00020534922 3.8597485e-05 -0.0005335537 0.0008517015 0.0002028454 -0.0007291974 -0.00063714356
-8.652485e-05 -0.00039751045 -0.00059743924 0.00078039616 0.00081775605 0.0002531628 -0.0007877362 -0.00025646284
0.00012763418 0.0007515496 -0.00083153707 -0.0008732963 -0.0005408568 -3.1575197e-05 0.00074995565 -0.00074343727
0.0007193599 -0.0007422333 0.0005536054 0.0009044877 0.00060170644 0.0007626881 0.0002276531 -0.0008565008
-0.00080729695 0.0005832062 -0.0006238251 -0.00069751695 -0.00047376938 0.0005765097 0.0008648023 0.00058651716
0.00043242454 -0.00057392183 0.00084651355 -0.0008844287 0.00032625598 -0.00088808226 0.00086978625 0.00089371594
0.00082326075 -0.00030084944 -0.0008212064 -0.0005264944 -0.0009454244 0.00069032214 0.0009175964 -0.0007508645
-0.000785916 -0.0008800008 0.00049406 0.00067762163 -0.00023273166 -0.0004954469 0.00081564416 0.00037686512
0.00037525102 0.00043378782 -0.0005249767 -0.00052805536 -0.00083272264 -0.0006669562 -0.00060262665 0.00067727896
0.0005400817 0.00060394517 -0.00027285927 0.0003126442 0.0006193887 0.0008692258 -0.00032368998 0.0007769248
0.0009432284 0.000126329 -0.000512207 0.0007720878 -0.0008242534 0.0006162637 -0.0008559445 0.0009249035
-0.00075588236 -0.0003631093 -0.00072052126 -0.0008588098 0.0007335071 -0.00078388967 0.00047164617 0.00025791978
-0.0007261841 -0.0006849954 0.00092353 -0.00018677663 0.000789554 0.0007921902 0.0005110263 8.895768e-05
0.0005049589 0.00013303201 -0.00035552974 -0.00091882265 -0.00062806375 0.000823511 0.0006371313 -0.00023660087
0.00052106776 -0.00072547526 0.0009156624 -0.0005876983 -0.00071489427 0.00016032175 4.8898874e-05 0.00062576646
-0.00066637126 -0.00073832175 -0.00055605645 0.00083104824 0.00070379634 -0.0008868189 -0.00040887386 0.00078619405
-0.0004589588 3.9297018e-05 0.0002603954 0.00013520161 6.7704e-05 -0.0004492398 0.00079563976 0.0003486477
-0.0007788412 0.00090405863 -0.0006288016 -3.437133e-05 0.0008981571 -0.0009261565 0.0007983603 -0.0008081727
0.000863106 -0.000652232 -0.0007363671 -0.00081612915 0.0008453873 -0.00088264345 -0.00021667303 0.0007107891
0.0008795123 -0.00018188634 0.0006298375 0.00084028044 6.863879e-05 0.00072400016 -0.0009036248 0.00021799581
5.4473858e-05 0.0008175125 -0.0004971328 -0.00058136135 0.00041092667 -0.00088680064 -0.0007496519 0.000803073
0.0006011865 0.0008072143 -0.000732741 -1.7483475e-05 0.0004938766 -0.000713798 -0.00067255227 -0.00047268858
0.000566291 -0.00077039486 -0.00073022605 0.0008320491 -0.0006297806 -0.00070494483 0.0005073005 -0.0005426916
0.0008426548 0.00055378495 -0.00091964257 0.00016112666 -0.0009481212 -0.00087413384 0.000660925 -0.00039301845
0.00065074913 0.0006227743 0.00056632125 -6.5717004e-06 -0.0005554284 0.00089944236 -0.0009150064 0.00064747786
-7.614509e-05 0.0007603152 -0.0006774998 -0.0009324829 0.000394557 0.00076593074 -0.00035616837 -0.00055970397
-0.00088489364 -0.0006581076 -0.00017677782 0.0008498642 0.00086949096 -0.0007579991 1.0123166e-05 6.9837643e-06
-0.0008563877 0.00013976886 -0.00092966977 0.00062211475 -0.0008288703 -0.00083847484 -0.0006240939 -0.0005474911
-0.00078505906 0.00057789055 0.00052261126 4.4746295e-05 0.00022352497 -0.00047708544 -0.0009024349 0.00085118617
-0.00014202052 0.0008016334 0.0007799393 0.0007646419 0.0007274322 0.0007491121 0.0006205917 0.00053611747
0.0005906644 0.00015327921 -0.00068929413 0.00041004058 0.00015336415 0.0008329245 -0.00091996236 -0.00070985674
9.0159796e-05 0.0004593097 0.0008062773 0.00044268536 -0.00078050594 -0.00090986444 0.0006500405 0.00086157443
00000000: b934 4a3a 0353 5739 bce3 2138 2fde 0bba
00000010: b844 5f3a e6b2 5439 9c27 3fba fb05 27ba
00000020: ad74 b5b8 f368 d0b9 789d 1cba 8093 4c3a
00000030: ae5e 563a f0ba 8439 1580 4eba dc75 86b9
00000040: 8ad5 0539 a403 453a 82fb 59ba eced 64ba
00000050: 49c8 0dba 9c6f 04b8 ac98 443a 3be3 42ba
00000060: 6d93 3c3a 6f92 42ba d41f 113a 241b 6d3a
00000070: d6bb 1d3a 22ef 473a 2ab6 6e39 cc86 60ba
00000080: c8a0 53ba 4ee2 183a 3288 23ba 92d9 36ba
00000090: 4064 f8b9 e920 173a e6b3 623a 80c0 193a
000000a0: 0ab7 e239 3e73 16ba 90e8 5d3a 01d9 67ba
000000b0: 560d ab39 31ce 68ba 5e02 643a 4348 6a3a
000000c0: 18d0 573a 54bb 9db9 3b46 57ba 7104 0aba
000000d0: 5cd6 77ba bcf6 343a da8a 703a aad5 44ba
000000e0: ee05 4eba dbaf 66ba ce83 013a 6ba2 313a
000000f0: 6e09 74b9 e1e0 01ba f4d0 553a fb95 c539
00000100: 57bd c439 046e e339 979e 09ba 326d 0aba
00000110: 124b 5aba acd6 2eba 97f9 1dba 6c8b 313a
00000120: 4594 0d3a 1352 1e3a 8d0e 8fb9 65ea a339
00000130: 795e 223a c2dc 633a efb4 a9b9 8aaa 4b3a
00000140: fd42 773a 2f77 0439 a145 06ba ef65 4a3a
00000150: b612 58ba c28c 213a 7761 60ba 3975 723a
00000160: 6826 46ba b55f beb9 5de1 3cba c021 61ba
00000170: d448 403a f27d 4dba 4747 f739 6839 8739
00000180: 645d 3eba 4391 33ba 0d19 723a 78d9 43b9
00000190: 12fa 4e3a fcaa 4f3a 65f6 053a ca8e ba38
000001a0: 385f 043a 827e 0b39 6566 bab9 25dd 70ba
000001b0: a5a4 24ba e3e0 573a 2805 273a 1018 78b9
000001c0: 4498 083a d22d 3eba 1009 703a c40f 1aba
000001d0: be67 3bba 0b1c 2839 c418 4d38 7a0a 243a
000001e0: 6baf 2eba ef8b 41ba 51c4 11ba b4da 593a
000001f0: f97e 383a 6979 68ba 1f5e d6b9 9718 4e3a
00000200: 68a0 f0b9 dad2 2438 ae85 8839 e8c4 0d39
00000210: 4ffc 8d38 f287 ebb9 7b92 503a b4ca b639
00000220: 262b 4cba 59fe 6c3a 29d6 24ba ef29 10b8
00000230: 4d72 6b3a 50c9 72ba 0e49 513a 8ddb 53ba
00000240: 1042 623a 8cfa 2aba c208 41ba 80f1 55ba
00000250: fb9c 5d3a 3361 67ba b932 63b9 4054 3a3a
00000260: 128f 663a beb8 3eb9 ae1b 253a 4446 5c3a
00000270: 2bf2 8f38 d4ca 3d3a 3ce1 6cba ce95 6439
00000280: dc7a 6438 564e 563a 0452 02ba 8066 18ba
00000290: a571 d739 2f78 68ba 4a84 44ba 5185 523a
000002a0: f198 1d3a 3c9b 533a 6b15 40ba 7aa9 92b7
000002b0: 7f77 013a 2c1e 3bba 384e 30ba 30d3 f7b9
000002c0: 2573 143a 53f4 49ba a46c 3fba df1d 5a3a
000002d0: dc17 25ba 0ccc 38ba 5cfc 043a 6b43 0eba
000002e0: 9be5 5c3a e12b 113a 2b14 71ba 1cf4 2839
000002f0: 568b 78ba 2126 65ba ed41 2d3a 0b0e ceb9
00000300: 0997 2a3a ad41 233a 2d75 143a 7a82 dcb6
00000310: 2b9a 11ba 8ec8 6b3a 0add 6fba 81bb 293a
00000320: 15b0 9fb8 e44f 473a 3e9a 31ba de71 74ba
00000330: 8bdc ce39 bec8 483a 1cbc bab9 19b9 12ba
00000340: 35f8 67ba da84 2cba 6f5d 39b9 6cc9 5e3a
00000350: 8dee 633a 75b4 46ba abd6 2937 1456 ea36
00000360: 357f 60ba eb8e 1239 15b5 73ba 6a15 233a
00000370: 8b48 59ba 18cd 5bba 3c9a 23ba 8185 0fba
00000380: 6ccc 4dba 947d 173a d9ff 083a f8ad 3b38
00000390: 0762 6a39 5321 fab9 6291 6cba 2322 5f3a
000003a0: 58eb 14b9 b524 523a d774 4c3a 4072 483a
000003b0: 26b1 3e3a 1060 443a 34af 223a 3c8a 0c3a
000003c0: d1d6 1a3a 93b9 2039 bfb1 34ba b7fa d639
000003d0: 60d0 2039 9e58 5a3a a129 71ba ae15 3aba
000003e0: 2c14 bd38 81cf f039 5b5c 533a 3918 e839
000003f0: de9a 4cba f883 6eba 7b67 2a3a 48db 613a
