js_code/data/steered_with_random_vector_coef_0/adapter_model.safetensors (safetensors, 76064 bytes, 2 tensors)

base_model.model.model.layers.24.mlp.down_proj.lora_A.weight f4 [1, 13824]
00000000: fdec 8bbb ddc0 8ebb c9a7 133c cf44 923b
00000010: bebd 0abc 35ec 0ebc 0b5f f23a a4a1 27bb
00000020: 010d af39 5f43 d0ba 10ca 0cbb 82fc 093c
00000030: c320 f53a 4d04 853a b087 03bc 00fa 4ebb
00000040: 0ce5 1f3b 8dad 703b 7787 803a 4007 f7bb
00000050: f458 b8bb 5150 1e3c 8258 fd3b f02b bd3b
00000060: 44d7 b6bb 926f bcbb e452 0e3b d17b 0abc
00000070: 020c 9db7 8d02 a43b 87a3 9c3b 77e3 b13b
00000080: 4712 e33a 35aa 8e3b da9d 20bc 9513 b7bb
00000090: a3dc 86bb 508d c93b 05dd 04bc 69b3 b53b
000000a0: a548 c5bb 9b53 71bb 12a0 9c3b d9c0 fb3b
000000b0: 26bd 363b 02dd 7cbb 959c e63b e0fc 3d3a
000000c0: 085e d93b 6545 673b 58e2 bbba 1812 d33b
000000d0: a440 a23b 611e e03b e127 133c 882b 353b
000000e0: bfcb babb fb2b 5bba 13c5 dab9 4396 c9ba
000000f0: c750 72b9 843b 223c eda2 843b 32d1 673b
00000100: 3976 bc3b d5e1 9ebb 0788 983b 2fb0 cd3b
00000110: f50f de3a cf14 a03a ac26 053c ecb4 06bc
00000120: 8bf6 b03b a63d aab9 35e8 d1bb 5592 c33b
00000130: 4303 40bb cfd9 aab9 8a32 08bb 8572 82bb
00000140: b34b 3dbb 70ab 1ebc 41d4 af3b f879 9f3a
00000150: f9df 023b eddb 183c 5f41 48bb 863a 86bb
00000160: 2ea2 92bb 0c1c 04bb e679 51b9 64c2 803b
00000170: 7d8d 11ba a7e1 173b b172 adbb 345c 00bc
00000180: 34e3 53ba 9646 1b3a 5918 adbb 55ed feba
00000190: 6df3 32bb 72aa 0dbc ce91 153c 52e1 943b
000001a0: 9a5e b8bb 6971 e0bb 8e11 083c fe91 c23b
000001b0: 20c2 d5bb ade5 483b a8ba e4bb 8ffc e8bb
000001c0: 76b1 f5bb 45bb ba3a c497 eb3b 8dc7 ad3b
000001d0: b7a7 e3bb d52b b93b 4bd8 113c a1e9 a03b
000001e0: d564 e43b 7dc9 c1bb 327a 47bb 37e8 c23b
000001f0: f2a4 07bc 94f9 9dba be66 9d3b b7bb 543b
00000200: 2313 69bb a886 d53a ac28 a7bb 282e 75bb
00000210: abbb d43a 6e41 41bb 1692 903b 3849 a23b
00000220: 2ae5 803b f75e eb3b ebb5 8a3a b7db f3ba
00000230: 6719 04bc d25a b6ba 8e97 c4bb 568f 6b3b
00000240: 9e5e 44ba e144 a6bb e73c 523a 3f84 b93b
00000250: f037 1cbb 55e3 173b ab50 61ba 3f34 d9ba
00000260: 508b a6ba 1395 f63a d41d bcba 5c34 afbb
00000270: d5cf 773b 597b c8bb e26a b8bb 4280 c33a
00000280: 2737 463b 93c9 6abb 9487 79bb 8a32 a93b
00000290: 4037 7cbb 1820 db3a 34ad ba3a 27f8 8d3a
000002a0: 5169 72bb 5390 13b9 2a3f 3fbb c715 e13b
000002b0: b5fd a33a ce20 9cbb 422a bdbb 918d 0c3b
000002c0: 1f5e 8fbb 7eee 243b 72cc bb3a dc6b 02bc
000002d0: 58c4 d53b 63d3 d93a 066c dc3a c727 76bb
000002e0: 4e2b 16bc bf55 233b 85c3 03bc 2680 393b
000002f0: 0f1c c53b 7fe8 3539 baca c3bb bba1 c03b
00000300: a967 eebb 724f 5eba f412 f1bb 6ffd 243b
00000310: 76fa 0e3c f9e9 d8bb e4aa d0bb 46b1 b83b
00000320: fea7 c43b 431d 8b3b b7d0 a9bb d024 0d3c
00000330: 8e02 f6ba ae7a 69bb b56d 08bb 2e08 d23a
00000340: 56f0 7a3b e670 61bb a16d 90bb 258e 3437
00000350: 0cda 0bbc 66a2 ffbb f91c ce39 e8d3 c63b
00000360: f8e7 aabb 3b12 6f3b ff58 87bb 4e70 c9ba
00000370: b689 de3b 7152 5d3a 05e8 9ebb b32f a3bb
00000380: 2a45 db3a 01cd 853b 0bc8 a83b 169a 003b
00000390: 0f82 afbb 670f 9d3b 18f9 06bc 4e21 dc39
000003a0: e073 00bc 0c01 5ebb 2f63 903a 9654 b93b
000003b0: 965d 893a 7eba 86bb 609f a83b f567 a83a
000003c0: 5521 d1bb b4c7 0bbc bdfe 6eb6 e7e5 6bbb
000003d0: bec9 fbba a614 c9bb 94fd adbb 484e 90bb
000003e0: ee95 a739 4a94 c738 e6cc 8d3b 0c43 05bc
000003f0: 6bc4 ce3b 45a0 ec3b 2daa 0bbc 78ee 8a3b
-0.0042701946 -0.004356487 0.009012171 0.004463769 -0.00846809 -0.008723308 0.001849146 -0.0025578523
0.0003338829 -0.0015889219 -0.0021482743 0.008422019 0.001870178 0.0010148376 -0.008027956 -0.0031582117
0.0024397997 0.0036724538 0.0009805997 -0.007538706 -0.0056258384 0.009662704 0.007731498 0.00577306
-0.005579861 -0.005750605 0.0021716887 -0.008452372 -1.872145e-05 0.005005187 0.004780236 0.0054287273
0.0017324173 0.0043537864 -0.00980326 -0.005587051 -0.0041156574 0.006150879 -0.008109336 0.005545069
-0.006020623 -0.0036823514 0.004779824 0.0076829013 0.0027883737 -0.003858388 0.007037709 0.0007247459
0.006633524 0.0035289165 -0.0014334423 0.006441366 0.0049515534 0.006839559 0.008981676 0.0027644355
-0.005700558 -0.00083607406 -0.00041727032 -0.0015379864 -0.0002310901 0.009901885 0.0040477426 0.0035372493
0.005751398 -0.0048486986 0.0046548876 0.0062771062 0.0016942011 0.0012213233 0.008126896 -0.008221846
0.005400484 -0.00032470858 -0.006405855 0.005968372 -0.002929882 -0.00032587207 -0.0020782077 -0.003980937
-0.0028884232 -0.009684429 0.005365879 0.0012167087 0.0019969924 0.009329778 -0.0030556542 -0.004096332
-0.0044748997 -0.0020158319 -0.00019977204 0.003929423 -0.00055523944 0.002317527 -0.0052932133 -0.007834483
-0.0008082867 0.0005923299 -0.0052824435 -0.0019449393 -0.0027305738 -0.008646594 0.009129001 0.004543462
-0.0056265118 -0.006849457 0.008304967 0.005937814 -0.0065233856 0.0030654476 -0.006980259 -0.0071101855
-0.0074979616 0.0014246484 0.0071897227 0.0053033293 -0.0069474834 0.005650977 0.008901666 0.0049106632
0.006970028 -0.005913912 -0.0030437824 0.0059480923 -0.008279072 -0.001205253 0.0048035076 0.003246052
-0.0035564385 0.0016290741 -0.005101284 -0.0037411544 0.0016230246 -0.0029488462 0.004411946 0.004952576
0.0039335685 0.0071829516 0.001058278 -0.0018604909 -0.008062697 -0.0013912565 -0.005999512 0.003594359
-0.00074909057 -0.005074129 0.00080199394 0.005661517 -0.0023837052 0.0023176272 -0.00085950893 -0.0016571357
-0.0012706313 0.0018812738 -0.0014352151 -0.005346818 0.0037813087 -0.00611822 -0.005627976 0.0014915543
0.0030245276 -0.0035825714 -0.0038075196 0.0051634954 -0.003848508 0.0016717939 0.0014242292 0.0010831401
-0.0036989043 -0.00014072777 -0.0029181936 0.006869051 0.0012511524 -0.004764653 -0.00577286 0.0021446685
-0.004375234 0.0025166566 0.0014327897 -0.007960286 0.00652365 0.0016618784 0.0016816861 -0.003756033
-0.009165598 0.0024922935 -0.008042221 0.0028305142 0.0060153077 0.00017348117 -0.0059750946 0.005878655
-0.007275541 -0.0008480466 -0.0073569957 0.0025175472 0.008726707 -0.0066196886 -0.006368028 0.005636367
0.0060014715 0.0042454316 -0.0051823515 0.008614734 -0.0018769072 -0.0035626101 -0.0020817344 0.0016024166
0.0038290224 -0.0034399568 -0.0044076 1.0761932e-05 -0.008535873 -0.007801342 0.00039312968 0.0060677417
-0.005215641 0.0036479372 -0.004130482 -0.0015368552 0.0067913188 0.00084427657 -0.004849436 -0.0049800514
0.0016728987 0.0040832763 0.0051508 0.0019623092 -0.0053560804 0.004793096 -0.0082380995 0.00041986484
-0.007840127 -0.0033875136 0.0011015887 0.0056558354 0.0010480161 -0.004111587 0.005145952 0.0012848364
-0.0063821473 -0.0085315 -3.561304e-06 -0.0035995187 -0.0019209904 -0.0061364947 -0.00530977 -0.004403863
0.00031964428 9.5166804e-05 0.0043274043 -0.008133661 0.006310036 0.007221254 -0.00852446 0.0042398535

base_model.model.model.layers.24.mlp.down_proj.lora_B.weight f4 [5120, 1]
00000000: 4465 833a 319b 523a a24a 1e3a 7f5d 7cba
00000010: 7064 763a 09bd aa3a 3bd2 85ba 838e adba
00000020: 999b 2e39 407b baba 39f6 4939 d085 5a3a
00000030: bc93 a33a 77be d6b9 6635 beb9 e2a4 8b39
00000040: 4e7a 503a e21e 9e3a 263e 6cba ac4a 71ba
00000050: 0cbb 16ba 91d8 343a c692 293a 77b3 57ba
00000060: 804b 463a 4ee9 00ba 123d cd3a 7adb 873a
00000070: ebc5 9c39 b989 2039 f422 fd38 a3ea 44ba
00000080: 1c09 97ba ed92 2d3a 03f2 7bba 7961 b4ba
00000090: d6a7 9538 b999 38b9 accc ff3a cb07 5138
000000a0: 58e7 a23a 6fe1 02b9 1427 b53a 8bf5 7eba
000000b0: 3215 3538 2261 a2ba 8eab 833a f9e5 6a3a
000000c0: 2943 8838 9d39 e8b9 942d 96ba c94b db38
000000d0: 845d 9dba c487 393a a1b0 653a 5b1a cbba
000000e0: 90e1 8aba 08f1 eeba 4288 8d3a 03c4 e33a
000000f0: fe92 ebba 70cb 06ba 1b3d 283a 4fc0 a338
00000100: 0204 b13a 345a 9b39 3843 8fb9 28a0 01ba
00000110: 6331 a3ba 6e68 c7b9 3752 30ba 2a8f 523a
00000120: 1ccf ee3a 065e 513a c901 42b9 0852 ab3a
00000130: e3a0 703a 2d14 f539 dee8 20ba 7f72 573a
00000140: 3cbf 963a 8c5d b1ba 5de4 a5ba aec8 113a
00000150: f244 41ba a32d 453a c822 74ba 93e0 2539
00000160: 4965 9fba e4a2 2cba ea87 1cba ee07 88ba
00000170: aaf8 843a 069e d7ba c648 173a ec02 3039
00000180: 1558 d2ba 7a08 c3b9 a728 ac3a 73a9 193a
00000190: eca8 943a 9f76 e93a 2673 1838 ac23 fbb9
000001a0: b7c6 8a3a 98b7 993a 1dd5 7eb9 c32c deba
000001b0: 9e79 25ba 87c1 24b9 d9ea 913a 00e5 f737
000001c0: 87a4 61b9 b9d3 30ba 9524 a53a e11e b5ba
000001d0: b792 5cba ef2a a03a 9a5b 273a 33ac 393a
000001e0: 379d caba d8cc b0ba 7647 e5ba 0000 8c3a
000001f0: 2a70 8c3a 9839 6dba 96a8 1fba 1c02 733a
00000200: ed1e 213a aa02 abb8 6141 bbb9 9616 5eba
00000210: 4d93 29ba 9612 11b9 3006 883a 6541 3639
00000220: 68fb 87ba 8b6f ba3a 363d fc39 05a5 3fba
00000230: 6429 983a 93c3 b2ba cd5d 4d3a 312d 62ba
00000240: 697e 8a3a 5f21 03ba 8d99 04ba 9832 bbba
00000250: ea7d a63a 6812 94ba 794e d4b9 f130 d23a
00000260: e85c ac3a 9727 daba a74e a33a 1b9b 8c3a
00000270: 2172 feb9 196f 483a eae2 69ba e289 483a
00000280: cdac 20b9 0054 873a 5f30 dd39 f2b2 f036
00000290: 9c76 8839 dc20 fe38 17c8 08ba bd1b da3a
000002a0: fc7b 383a 57c2 7b3a 91c3 84b9 a1d7 4e39
000002b0: c0df c9b9 2221 cdba 6568 eeba 05ac a439
000002c0: 0ee1 0a3a a3db 1bba 6681 81ba 528a b13a
000002d0: 7971 6cba 1fbf 0137 b778 fab8 3471 acb9
000002e0: ff68 8e3a c003 ae3a d7e9 e4ba 8fa4 9738
000002f0: 0862 9dba 098d 43ba 05b1 0e3a 1250 44ba
00000300: a01f 893a daa8 913a d6d5 bb39 fd82 7bb9
00000310: bf73 eab8 0c71 c43a b290 aeba 0771 a739
00000320: 91f6 67b7 cf99 6f3a 944d 6bba 7010 b5ba
00000330: c9b7 31b9 3dd2 0f3a 28ff bab9 2039 7bba
00000340: 887a dfba a666 a3ba b35d c538 3bd2 833a
00000350: 5370 893a fa3c bbba 1cb5 a7ba fa22 bf39
00000360: 2d06 45ba d563 0e39 8ec1 26ba e225 8a3a
00000370: 21ef 6dba 40e9 b5ba 9228 89b8 73ba 50ba
00000380: e487 bcba 7bae 7d39 9f6d 163a d811 a737
00000390: e85c 5fba c6f0 b537 bcc3 3fba c68c 663a
000003a0: 6d41 78b9 9871 913a 8182 663a d268 d039
000003b0: 2a08 873a 852a 563a 29e6 273a 824a d338
000003c0: 265f 04b9 b1d8 8739 3cf6 d9ba d615 74b9
000003d0: f652 89b9 0c03 a73a 4b84 8cba 1816 3cba
000003e0: 1e7f 47b9 edd1 16ba 8537 ae3a 54ea 17ba
000003f0: f4f7 23ba 7681 fdba d33d 943a 23c9 f139
0.0010024686 0.00080339896 0.0006038343 -0.0009626969 0.00093991216 0.0013026308 -0.0010209748 -0.0013241324
0.00016651898 -0.0014227405 0.00019260579 0.00083359797 0.0012479941 -0.00040959168 -0.0003627941 0.00026634993
0.0007952795 0.0012063647 -0.00090119464 -0.00092045474 -0.0005749918 0.0006898726 0.00064687093 -0.00082283415
0.0007564351 -0.00049175776 0.0015658459 0.0010365092 0.000299021 0.00015310095 0.000120704906 -0.000751177
-0.00115231 0.000662132 -0.00096109527 -0.0013761959 7.1361355e-05 -0.00017604874 0.0019515953 4.983674e-05
0.0012428565 -0.00012481747 0.001382085 -0.000972592 4.3173502e-05 -0.0012388567 0.0010045634 0.000896066
6.497495e-05 -0.00044293414 -0.0011457675 0.0001045685 -0.0012006019 0.00070774206 0.00087619765 -0.0015495525
-0.0010595787 -0.0018229792 0.0010798054 0.0017377142 -0.0017972884 -0.0005142009 0.0006417797 7.808266e-05
0.0013505223 0.0002963111 -0.00027325167 -0.00049448246 -0.0012450631 -0.00038034044 -0.0006726118 0.00080321974
0.0018219682 0.0007986728 -0.00018501947 0.0013070712 0.00091792474 0.00046745074 -0.00061382155 0.00082186604
0.0011501084 -0.0013531907 -0.0012656559 0.00055612146 -0.00073726394 0.0007521754 -0.0009313044 0.00015819287
-0.0012160923 -0.0006585552 -0.00059711805 -0.001037834 0.0010144908 -0.0016450293 0.0005771037 0.00016785756
-0.0016047979 -0.00037199614 0.0013134674 0.0005861737 0.0011341847 0.0017811841 3.6346864e-05 -0.00047901028
0.0010587786 0.0011727689 -0.00024302719 -0.0016950596 -0.0006312373 -0.00015712353 0.0011132612 2.9551331e-05
-0.00021518963 -0.00067454163 0.0012599403 -0.0013818407 -0.0008414196 0.0012219826 0.0006384194 0.00070828496
-0.0015458231 -0.0013488783 -0.001749261 0.0010681152 0.001071458 -0.00090494147 -0.000609049 0.00092700287
0.0006146271 -8.1544116e-05 -0.0003571613 -0.00084719935 -0.0006468788 -0.00013835201 0.001037782 0.00017381234
-0.0010374608 0.0014223916 0.0004811079 -0.00073106616 0.0011609015 -0.0013638608 0.0007834107 -0.000862795
0.0010566238 -0.0005002226 -0.0005058281 -0.0014282046 0.001270232 -0.0011296989 -0.00040494258 0.0016036314
0.0013150247 -0.0016643879 0.0012459353 0.0010727377 -0.00048531688 0.00076459494 -0.00089220575 0.00076499407
-0.00015323162 0.0010324717 0.00042188444 7.1733893e-06 0.00026028312 0.00012117784 -0.0005217804 0.0016640347
0.0007037518 0.0009603849 -0.0002532271 0.00019726019 -0.00038504414 -0.0015650133 -0.0018189071 0.00031408682
0.0005297818 -0.0005945509 -0.0009880483 0.0013545251 -0.0009019594 7.733498e-06 -0.00011943414 -0.0003289074
0.0010865032 0.0013276264 -0.0017464709 7.2308925e-05 -0.0012007365 -0.00074596755 0.0005443248 -0.0007488738
0.0010461695 0.0011112944 0.0003582674 -0.00023986022 -0.00011179549 0.0014987304 -0.0013318269 0.00031936934
-1.3826081e-05 0.0009140046 -0.00089760986 -0.0013814103 -0.000169485 0.0005486345 -0.0003566679 -0.00095834024
-0.0017050067 -0.0012466505 9.411145e-05 0.001005716 0.0010485746 -0.001428514 -0.0012795064 0.00036456418
-0.0007515874 0.00013579366 -0.00063612394 0.0010539854 -0.00090764655 -0.0013878718 -6.540226e-05 -0.00079623534
-0.001438376 0.00024192959 0.0005738381 1.991626e-05 -0.0008520619 2.1689e-05 -0.00073152385 0.00087947806
-0.00023675496 0.0011096476 0.00087932503 0.0003975095 0.0010302116 0.0008169788 0.0006404841 0.00010075142
-0.00012623947 0.00025910654 -0.001662917 -0.00023277788 -0.00026192487 0.0012741997 -0.0010720579 -0.0007174923
-0.00019025474 -0.0005753327 0.0013291693 -0.00057951105 -0.00062549044 -0.001934095 0.0011309929 0.0004611696
